SoSDP/SoS/40/actor.pt (torch, 739908 bytes, 14 tensors)

static_encoder.conv.weight f4 [128, 9, 1]
00000000: 1ab2 b23d 55e7 23bd bd3e f03d 2877 02be
00000010: 68c9 1abe a2ea 83bd a2da 3c3e 8a6d 383e
00000020: 3ceb 25be 42f5 103e d794 3d3d cfd2 b4bd
00000030: ff7b cebd aa68 65bd cc7d 75be 78d1 f3bd
00000040: 4d32 b53d 6960 673e 8eca 20be a09c 96bb
00000050: 9da5 d5bc 5ca4 e13d 4adb 34bd b390 903d
00000060: 8e91 8a3e 0442 7dbc b009 35be fe0d 6f3e
00000070: bbf9 83bd 8382 66bd 0a60 06be a6e0 28be
00000080: c78f 8dbd 9db8 3ebe 13fc a63e 0e9a c4bc
00000090: dc16 28be db40 a53d 6ae1 933d 5649 833d
000000a0: 680b 153e 55fb c0bd 3de4 573d bac2 d7bd
000000b0: 1f57 7d3d 2221 c33d 6756 77bc e233 94bd
000000c0: 5491 7bbd ba24 65bd 5e53 42bd 6fd9 913c
000000d0: d4b0 4f3b fae3 923e ef28 193e ccc5 b3bb
000000e0: f87f 503a 5d8f ddbc 8dd1 2d3e 1e66 3bbe
000000f0: 08b8 b5bc ce6b 31bd 5ccd 0fbe f82c 96bd
00000100: ab45 4c3e 1f15 4abd f8cc 24be b4eb 853e
00000110: 4a0a afbe 0438 293e 5d18 f83b 50ef 3e3d
00000120: fec3 b23d d750 303d b48f 3a3d bedd a2bd
00000130: 083a debd 33d8 4e3e cd50 fbbc ec67 b9bd
00000140: ff52 97be c29a d93d a0f3 8cbd 43ad e6bd
00000150: 7d4e 8bbd b086 3ebe d7f1 b33d 63a4 073e
00000160: 4916 f43c 0426 0e3e 229b d03d 4e90 05be
00000170: 2d2b 97bd 482b b1bd ac0e 533e 6879 3b3e
00000180: 7974 7f3e e3b4 24be 1fcf 4dbd 3db2 0e3d
00000190: 4391 93bd 20b3 d33d de6f cdbd 3afb 1abe
000001a0: 0599 0bbd e037 44be 7e9f 433e cd2b 873e
000001b0: aa48 263c cf35 0d3e c2c1 023d ddb2 e9bb
000001c0: 99a8 adbd a264 873c aa47 e1bd ea0b e43d
000001d0: 79be b5be 0b7e ec3d 65d7 2239 f0d1 833c
000001e0: 41f4 243d f61a a0be 157a 013d 1967 00bd
000001f0: eef3 c43d c886 10be bda5 b23d a764 35bc
00000200: c48e e9bd 7601 263e 7cfe 6d3d 77ad 4cbe
00000210: f61a 04be 8c04 b63c f755 093c 1729 a33d
00000220: cafb e93d 3199 62bd 8feb 87bd 43eb 80be
00000230: 933d fd3d 686e 873c af68 74be f514 823e
00000240: 3158 74bd 7def 12be a53e 19bd 24bf e83d
00000250: 84e0 8ebe b671 363e da99 0abd c135 cf3d
00000260: c30d 263e e18b ae3d 5e76 3cbd 67af 183c
00000270: e03d 203e 2846 26be 35f8 b53d 3894 4dbd
00000280: 22d8 44be b34a d8bd 27f3 06be 6891 a6bd
00000290: 37c3 9c3c 1c52 683c d7d0 1abd 3f9a ce3d
000002a0: f30e 173e db3e d4bd f9d9 923e 9372 963c
000002b0: 3a44 55bd e316 3bbd 65ce cf3d 298d 76bd
000002c0: 02e8 12be 5a3e df3c b662 953c f0a4 4e3e
000002d0: 8794 dc3d 069b 033e 509e 54bd 77c9 1cbe
000002e0: ded1 673e c4e3 70be 5e43 4fbe 8e11 8a3e
000002f0: b323 5bbd caba f2bd e6b4 01be 9d40 bc3d
00000300: 8318 973d 68ea 413c 43fd febd d584 4cbe
00000310: 1849 083d f798 b03e 236c 313e 5148 ee3d
00000320: 33bf 20be 2551 be3d faf4 43be e512 31be
00000330: 47bb 783e f6ee 43be a8dd c6bd da43 1d3e
00000340: 4e03 32be dc22 2cba 1c6c 36be f857 abbc
00000350: fce7 163e 89da 1a3d 0e9a aa3e d625 23bd
00000360: 9710 70bd 1ac8 f0bd c149 febd fd4e 323d
00000370: 28fb 6abc 75dc 8a3d 2f62 963d 5540 433e
00000380: 2dc5 003e 693a eebd 9f56 d1bd 88a4 3f3d
00000390: ac93 1b3e 82b2 d13d 9dc1 f23d e31a df3d
000003a0: d846 4d3d 20a3 cbbe f4cc 5a3d 347a 093d
000003b0: c904 1c3d 6b7b c93d 6440 81be 171b 4fbe
000003c0: e169 2bbd 2084 4cbd 6ec5 893d c8f2 2cbe
000003d0: 21c4 b13d 1e4c b0bd 02ac 003e d5f5 2bbe
000003e0: 6370 933d 7503 8b3e 30ef 8dbe 05a6 f43d
000003f0: 05ca b0bc 6103 e4bd 72af 303e 0869 17be
0.087253764 -0.040015537 0.117307164 -0.12740767 -0.15115893 -0.06441237 0.18442777 0.18010536
-0.16203016 0.14156058 0.046284523 -0.08829271 -0.10082244 -0.05600802 -0.23973769 -0.11905187
0.08847485 0.22595371 -0.15702268 -0.004596308 -0.026079947 0.11017677 -0.044154443 0.07058849
0.27064174 -0.015457634 -0.17679477 0.23345181 -0.06444117 -0.05627681 -0.13122573 -0.16491947
-0.06912189 -0.18625112 0.32614192 -0.02399924 -0.1641497 0.08069011 0.07220729 0.06410472
0.14555132 -0.09422938 0.0527079 -0.10535188 0.061850663 0.09527804 -0.0150962835 -0.07236458
-0.061417893 -0.05594323 -0.047442786 0.017803876 0.003169109 0.28689557 0.14957021 -0.0054862257
0.0007953639 -0.0270459 0.16974469 -0.18300673 -0.02218248 -0.0433157 -0.14043182 -0.07332796
0.19948451 -0.04933655 -0.16093814 0.2615639 -0.34187537 0.16525275 0.0075712637 0.046614945
0.08728789 0.043045845 0.045547202 -0.0795245 -0.10850912 0.20199661 -0.030678177 -0.09053025
-0.29555508 0.10625221 -0.06882405 -0.11263516 -0.0680208 -0.18606067 0.08786362 0.13246302
0.029795783 0.1388169 0.10185839 -0.13043329 -0.07381282 -0.08650833 0.20611066 0.18308032
0.24946775 -0.16084628 -0.050246354 0.03483795 -0.07205441 0.103369 -0.100311026 -0.15134898
-0.034081478 -0.1916194 0.1910381 0.26400605 0.01014916 0.13790058 0.031923063 -0.007131918
-0.08479423 0.016527478 -0.10999997 0.11135085 -0.35496882 0.11547478 0.00015529765 0.016091317
0.040272 -0.3127057 0.031610567 -0.03134832 0.096168384 -0.14113915 0.08723018 -0.011071361
-0.114041835 0.16211495 0.058104023 -0.19988047 -0.1290091 0.022218965 0.008382312 0.07966822
0.11424978 -0.055321876 -0.06636726 -0.2517949 0.1236526 0.016532138 -0.23868059 0.25406614
-0.05965442 -0.1434917 -0.037413258 0.11364582 -0.27905667 0.17816815 -0.03383813 0.101176746
0.16216187 0.085227735 -0.04601132 0.009319163 0.15648603 -0.162377 0.08885232 -0.05019018
-0.19223073 -0.10561123 -0.13178693 -0.08133203 0.019136054 0.014179733 -0.03779682 0.10088014
0.14751796 -0.10363551 0.28681925 0.01836518 -0.05206702 -0.045676123 0.101467885 -0.060193215
-0.14346316 0.027251411 0.018235546 0.20180106 0.10770517 0.12852105 -0.05190879 -0.15311228
0.22638652 -0.23524386 -0.20240542 0.26966518 -0.053500842 -0.118520334 -0.12666664 0.091920115
0.07377722 0.011835672 -0.124506496 -0.19972546 0.033272833 0.34491703 0.17326407 0.11634887
-0.15697937 0.09292821 -0.1913642 -0.17292364 0.2429019 -0.19134125 -0.09710246 0.15357915
-0.17384073 -0.0006566474 -0.17814678 -0.02091597 0.14736933 0.037806068 0.3332066 -0.039831005
-0.05860957 -0.11756916 -0.12416411 0.04353236 -0.014342107 0.0678033 0.07342946 0.1906751
0.12575217 -0.116322346 -0.102216 0.04678777 0.15193051 0.10239126 0.11853335 0.108938
0.05011639 -0.39772892 0.053418115 0.033563808 0.0380905 0.09837993 -0.2524444 -0.20225178
-0.04184902 -0.04993069 0.0672711 -0.16889489 0.08679987 -0.08608268 0.12565616 -0.16792996
0.071991704 0.27151075 -0.27721548 0.11945728 -0.021580705 -0.11133457 0.17254427 -0.1478616

static_encoder.conv.bias f4 [128]
00000000: 7507 abbe a8e6 ac3e ebb9 793e 348e e83d
00000010: aa50 6fbe 0b74 85be d094 84be b1e0 693e
00000020: ede9 643e 791d 0d3e d332 c63c f468 543d
00000030: 058c c03d 985f 9bbe d573 3b3d e0b6 bdbb
00000040: 9aac 5d3e beb8 9bbe 3856 2b3e 250a 88be
00000050: b493 81be bdf8 a43d 73ee d63c 104c 71be
00000060: 306b bc3d 4992 66bc 9635 0dbe 22e8 b73d
00000070: bad3 e93d 4b78 10bd 08d1 c7be 8e56 223e
00000080: 7aad 19be b2d3 873e cc27 963e 8a51 893d
00000090: 91fe 60be 1292 913e 9adf 88be 5a12 33b9
000000a0: 9626 e4bd f797 41be 86e9 8cbe 012e 8c3e
000000b0: ade6 82bd 8bcb 60bd c3d9 613e 212d 1ebe
000000c0: a177 d4bd 3abe bdbd 4352 8f3e c3e8 e4bd
000000d0: 8c79 85bc efa1 c4bd 0be6 b23c 7e13 42be
000000e0: 705c c63d d894 0a3e 3bce 82be 16a6 ea3d
000000f0: 361a 6dbe c6a2 b0be e743 753e c3fd a7be
00000100: 4b08 f2bd d2f1 61bd 5ace 303d 6d51 683c
00000110: 3f36 313d 7a7a 783e 2d0a bd3d 6a87 973d
00000120: a1ce a83e 98ca eabd 60ef 9a3b 7376 93be
00000130: cac5 303e 9a20 923d 2c8e f93d 9523 793e
00000140: a9c1 4bbe 8239 a3be bd3b 573e 1c40 73bd
00000150: 113a bfbe 7e4c a43e ae9d ee3d e870 03be
00000160: 5c42 b73e 4946 263e 3e5c 553e 7d88 2cbe
00000170: c0f5 b7bc c906 9e3c 0f53 19bd 88ec 143e
00000180: 5d83 45be 4c3d 75be 3f0e 4dbe acf1 96be
00000190: 5170 b63e 96b3 88be 3959 0f3d 25c9 323d
000001a0: 90fb a13c f5a7 8b3e 2beb 08be e9ca 613e
000001b0: 61af aa3c 3d71 7abe e1d1 273e fada 6ebe
000001c0: 4763 293e 7772 b23e 613a 8abd 6e45 883e
000001d0: 0904 01be 90af a83e 2c5b 39be 9093 623d
000001e0: 451b c33e 0e03 abbe 6c51 da3d ea7d b13e
000001f0: 1870 ed3d 14e3 15bc 2edc 7e3e b409 d83d
-0.33404127 0.33769727 0.24387328 0.11355248 -0.23370615 -0.26065096 -0.25894785 0.22839619
0.2235486 0.13780774 0.024194157 0.051857904 0.094017066 -0.3034637 0.045764763 -0.0057896227
0.21647874 -0.30414385 0.16732109 -0.2657024 -0.25308 0.080552556 0.026236748 -0.23564172
0.09200132 -0.014072963 -0.13789973 0.08979823 0.11417337 -0.03527097 -0.39026666 0.1585333
-0.15007582 0.26528698 0.29327238 0.067050055 -0.2197211 0.28431755 -0.26733094 -0.00017077607
-0.11140172 -0.18905626 -0.27521914 0.27378848 -0.06391654 -0.054881614 0.22055726 -0.15446903
-0.1037438 -0.092647985 0.27992448 -0.11177208 -0.01629331 -0.09601199 0.021838209 -0.18952748
0.096856 0.13533342 -0.25547966 0.1145746 -0.2315453 -0.34499186 0.23951684 -0.32810792
-0.11817988 -0.05516226 0.043165542 0.01417957 0.043264624 0.24265471 0.092304565 0.07398875
0.32970145 -0.11464423 0.0047282428 -0.28801307 0.1726295 0.071351245 0.1218532 0.2432998
-0.19898094 -0.31879812 0.21018882 -0.05938731 -0.3734899 0.3208961 0.11651169 -0.12836039
0.35792816 0.16237749 0.20835969 -0.16848941 -0.02245605 0.019290345 -0.037432726 0.14543355
-0.19288392 -0.23949164 -0.20024966 -0.29481256 0.35632566 -0.26699513 0.0349972 0.043648858
0.019773275 0.2727658 -0.1337096 0.2205006 0.02083558 -0.2445726 0.16388656 -0.2332572
0.16541778 0.34852955 -0.06749416 0.2661547 -0.12599196 0.32946444 -0.18101186 0.055316508
0.38106743 -0.33400768 0.10660061 0.34666377 0.11593646 -0.009148378 0.2488868 0.10548726

dynamic_encoder.conv.weight f4 [128, 1, 1]
00000000: 200a 9a3d 3c06 7dbd 56d2 22be 4ec1 543e
00000010: 3888 253e cc1e 3d3e 9021 2dbd 4032 033d
00000020: 70ec d6bc a04b d53d 686c 42be 70e9 583e
00000030: d8ee 773d 4b09 3dbe 3cd5 3fbd 8090 e8ba
00000040: 607d 183c 2ccc e63d ec3e a83d b8b0 05be
00000050: 98fa 923d f80d c43d afb3 03be 4035 7dbb
00000060: d0da 793d e479 9d3d 7fea 50be add2 d3bd
00000070: ac9d f93d 2629 1f3e c730 3bbe e010 23bc
00000080: aefb 463e 5a7b 12be c056 da3d 2d4a d5bd
00000090: c44f 8dbd d09e 373d 14fc 86bd 245f 973d
000000a0: 78ff edbc 8731 c4bd c002 cb3d a89c e63c
000000b0: d0a7 153d e828 613d c08d 3bbe 7c3a 5a3e
000000c0: c36a 59be 28d4 fc3c 1050 113e 9896 e33d
000000d0: 7868 b53d a0ab b63c 1890 603d c05d 14bc
000000e0: 2422 853d 3031 e43d 50f2 b13d 44ee 2b3e
000000f0: 5e19 29be fcee b8bd 74d2 0ebd b283 2a3e
00000100: d0a9 403d 5c2f f83d 9218 92bd 04b7 d23d
00000110: 80d6 9b3d 2867 3bbe 486b 0d3e 4026 643d
00000120: 8934 2abe dcfb 0dbe aff3 37be e8b1 e4bc
00000130: ccaf 15be 50d1 2bbe 7cc8 af3d 1236 dfbd
00000140: 23cc 1cbe 4078 b9bb 725e 293e ac83 2fbd
00000150: 1bff ddbd ce2e 0f3e c8e3 713d d8b1 be3d
00000160: f60e 58be 1060 17bc 9473 9d3d 01ec 4bbe
00000170: b473 253e 185c ec3d c0bc a0bb 5479 463e
00000180: 0013 633d bcd3 ccbd 42f1 593e bc77 b03d
00000190: 1c4c 873d 9e9a c3bd b848 353d 30e8 3f3c
000001a0: 2315 37be 8679 96bd f4a5 023d 620d b8bd
000001b0: ee5c 89bd 7476 113e 805d 963a 7cc9 553e
000001c0: 87f5 e2bd a4fc db3d 28b2 19be c4dd 9f3d
000001d0: 6ce2 e0bd a051 4fbd 3878 ac3d 34c9 d13d
000001e0: 24c2 533e c827 0f3e 00b5 fcbb 06fd a6bd
000001f0: 42b8 41be 9c26 b7bd bcc5 bc3d 9043 c53d
0.075214624 -0.061773524 -0.1590055 0.20776865 0.16165245 0.1846878 -0.042268336 0.032030344
-0.026235789 0.10414815 -0.18986666 0.211828 0.060530514 -0.18460576 -0.046834216 -0.001774326
0.0093072355 0.112694114 0.082151264 -0.13055694 0.07176703 0.09572977 -0.12861513 -0.0038636476
0.06099969 0.076892644 -0.20401953 -0.103429176 0.12188277 0.1554304 -0.18280326 -0.009952754
0.19431946 -0.14304867 0.106610775 -0.104145385 -0.0689998 0.04482919 -0.06591049 0.073911935
-0.029052481 -0.09579759 0.09912634 0.028150871 0.03653699 0.054970652 -0.18315792 0.21311373
-0.21232133 0.030862883 0.14190698 0.11112708 0.088578165 0.022298634 0.05482492 -0.009055555
0.065006524 0.11142194 0.086887956 0.1679011 -0.16513583 -0.09029958 -0.034868672 0.166518
0.047036946 0.12118408 -0.07133593 0.10288814 0.07609272 -0.1830107 0.13810456 0.05570054
-0.16621603 -0.13865608 -0.17964052 -0.027916864 -0.14617842 -0.16779065 0.08583161 -0.10898985
-0.15312247 -0.005660087 0.16539934 -0.04285018 -0.10839673 0.13982698 0.05905512 0.09311265
-0.21099457 -0.009239212 0.076880604 -0.19914247 0.16157418 0.11541003 -0.0049053133 0.1938222
0.05543804 -0.100013226 0.21283439 0.086165875 0.066063136 -0.09550975 0.044258803 0.011713073
-0.17879157 -0.073473975 0.031896546 -0.089869276 -0.06707178 0.14205343 0.0011471957 0.20877641
-0.11081987 0.10741547 -0.15009367 0.0780597 -0.109806865 -0.050614953 0.084213674 0.102434546
0.20679528 0.13980019 -0.0077120066 -0.08153729 -0.18917945 -0.08942911 0.09217402 0.09632027

dynamic_encoder.conv.bias f4 [128]
00000000: b9fa 36bf 92e5 11bf eb11 57bf 23e5 6ebf
00000010: 88f0 353f c482 753f bdb5 48be e64f 26bf
00000020: 65a5 1cbf ac6b 323f 6e41 82bf 4046 4dbf
00000030: 99c8 32bf 1c27 2d3e b94d ecbe 15a5 d4be
00000040: 091d 3c3f 6400 363f a710 503f 1694 1abe
00000050: eb3c 37bf 16b8 44bf e2d7 703e 5e3e 793e
00000060: b6d3 563f eb81 10bf 630e 00bf 6a91 853d
00000070: aace 40bf 63df 653f 7b46 02bf 03c5 783f
00000080: 2c6a 42bf 67f6 31bf 8eb1 cfbd 5324 ddbd
00000090: 14ce 443e d9a3 013f b60a 1b3f 5315 42bf
000000a0: d76b 54bf c3a6 cd3e 2d17 f73e 8725 99be
000000b0: bde1 03be 3af9 23bf d197 273e 84a9 6cbf
000000c0: d358 9ebd 579e 12bf 7c1b d43d c494 793f
000000d0: d746 283f d509 7cbf ab0d 4f3f cfe5 793f
000000e0: 18f9 b03d ca16 103f 1413 a5be dd14 0dbe
000000f0: 1239 51bd 9f6a 423f 288f 24be 388e 833f
00000100: 3374 8a3e d8fe 79bf ea51 5f3f 225d 90be
00000110: 3395 1f3f 75ba 76bf f21a 80bf e229 f93e
00000120: 9939 2ebe e2cd 4a3f b93e 64bf 7f80 603d
00000130: 6a9d 7dbf 1ae7 073e a995 d6be 7ed2 46bf
00000140: aaad 133d dc1e 28bf d9c2 abbd 576d 6c3f
00000150: 0d88 82be 67b7 98be 1144 ff3d 22a0 81bf
00000160: 16c7 273f f866 2b3e faea f2be 3651 2abe
00000170: 6905 7e3d 5b6c 37bf 94ff 70be ec78 0dbe
00000180: dc37 22bf 753f f33e 417c 203f f6e2 6c3f
00000190: 7233 263f f905 9ebd 7cda 2e3f c0eb 4ebf
000001a0: 6d2b 8c3d 628a 8d3e 3a2d 9dbe c566 243f
000001b0: c54b 6ebf dde0 413e d332 343f 64fd c5be
000001c0: 29dd edbd c958 40be b72c 893e 4611 d1be
000001d0: 2d99 fdbe c47f 45bf b6cd 6fbf 051f 6abf
000001e0: 3477 943e 9535 433f e9e6 7cbf bf5a 7a3f
000001f0: c553 9d3d f243 e63e d163 d83e 57f0 34bf
-0.7147632 -0.5699092 -0.84011716 -0.93318385 0.71070147 0.9590266 -0.19600578 -0.64965665
-0.6118987 0.69695544 -1.0176218 -0.8018532 -0.6983734 0.1690945 -0.46153048 -0.41532198
0.73481804 0.71094346 0.8127541 -0.15095553 -0.7157733 -0.7684339 0.23519853 0.24340197
0.83916795 -0.5644824 -0.5002195 0.06521876 -0.75315344 0.89793986 -0.50888795 0.97175616
-0.75943255 -0.69516605 -0.10141288 -0.10797944 0.19219238 0.50640637 0.6056322 -0.7581379
-0.8297705 0.40166292 0.4825987 -0.29911444 -0.12879081 -0.64052165 0.16366507 -0.9244616
-0.077317856 -0.5727286 0.10356805 0.97492623 0.65733093 -0.984525 0.8088023 0.97616285
0.08641261 0.56284773 -0.32241118 -0.1377749 -0.051079817 0.7594394 -0.16070235 1.0277777
0.27041778 -0.97654486 0.87234366 -0.28196055 0.62337035 -0.9637826 -1.0008223 0.48664767
-0.1701416 0.792204 -0.8915821 0.054810043 -0.9906832 0.13271752 -0.41911057 -0.77664936
0.03605429 -0.6567209 -0.083867736 0.9235434 -0.25494424 -0.29827425 0.124641545 -1.0126994
0.65538156 0.16738498 -0.47444898 -0.16632542 0.06201688 -0.7164971 -0.23534995 -0.1381566
-0.63366485 0.4750935 0.62689596 0.92533815 0.6492225 -0.07715983 0.6830213 -0.80828476
0.0684422 0.2764464 -0.30698568 0.64219314 -0.93084365 0.18933435 0.7039005 -0.38669884
-0.116144486 -0.18783869 0.26791927 -0.4083349 -0.49530926 -0.7714808 -0.93673265 -0.9145358
0.28997195 0.76253635 -0.9878984 0.9779472 0.076819934 0.44973713 0.42263654 -0.7067923

decoder.conv.weight f4 [128, 9, 1]
00000000: d4cf 3cbd 054d 0c3e 5143 2d3b 3130 e9bd
00000010: 982d 183b 240a 223e f117 c53d 39fe 163e
00000020: 3ed7 5dbd b688 1e3e e6c1 60be ff48 573c
00000030: 342a 14be bcec 01bd 4a22 e3bd d06b b4bd
00000040: 49a9 0b3e 0de5 c23d 3304 86bd 0cb8 9c3d
00000050: 3e80 273e 9c8e 20be 6ac2 04be 6158 cf3d
00000060: fa06 a83c b429 2d3d 9fd3 073e f821 9d3d
00000070: e457 da3d c056 3ebe 2d44 313e ffd4 993d
00000080: eba5 e3bd 5c2d f73c bb8d 5e3d 3f64 7e3c
00000090: ffb1 88be f8fd f7bc 51ff d4ba 5756 37be
000000a0: 428d 40be bf16 8dbc 0d04 883b a4a1 e53d
000000b0: c0b4 5dbe 1678 c73d 43b1 04be c1bf 87be
000000c0: 0c26 26be d1d4 e63d dd4c 64be 55d2 91bd
000000d0: 4418 9b3c 9e61 26bd 013f b3bd 5515 a0bd
000000e0: d234 ffbd 8307 b63d bb61 21be 67d2 51bd
000000f0: 7b14 503e 380c 0c3e 8dd6 0bbe 4b3a 18be
00000100: 46ce 6b3e 2968 2dbe 1eee 05be 8522 c83d
00000110: c730 0fbe bf2a b0bd 1384 913d 25b8 f43c
00000120: 09ec da3d 5575 47be cff4 c33c 5f0b bdbd
00000130: 4ce1 81be ce80 56be 0a8f a3bd c650 33be
00000140: 5d19 b4bd 60b2 7c3e 81f6 5c3e d7d1 d43d
00000150: dee7 8bbd 5802 9bbc 8f3b 333e c929 bb3d
00000160: ad96 563e 226d 11bd fc6e 513e 5492 3ebd
00000170: 66f7 11bd 9493 2e3e 31f9 22be ce6d 8fbd
00000180: e9a6 4ebe 4bff b4bd ef4e f3bd 53fd aebc
00000190: 2496 1cbe afd0 aabd 0188 ccbd 2e2f c3bd
000001a0: 5944 2fbe f937 4ebe 2b25 21bd 1c9b d5bd
000001b0: 56f9 b6bc f2e2 bfbd 69fe 383d f84d 643e
000001c0: 67a0 e83d 7761 b43d d0f1 3cbe f2b5 05be
000001d0: 88d1 a0bc e7fd 273e 9f76 adbd 4c56 393e
000001e0: c277 cf3c c601 2ebe feae 063d 5a6e 8cbd
000001f0: 2609 0a3e 1cc4 1bbe 5351 babd 6383 37bd
00000200: e5d3 033e ced0 2d3e 50d2 573e ba8b 26be
00000210: 84dc fdbd b4a1 d33d 3340 bf3d 73cc 003d
00000220: 0f44 57be 0b85 36be a2d4 293d 290e 6e3d
00000230: 64ac 0e3e 9d81 39be b4b8 a93d 16d9 233e
00000240: a6f7 21bd f237 c4bd f3e2 cabd 770f 23bd
00000250: 05eb 32be 8a0d d93d 2049 913d 88ed b0bd
00000260: 115b 143d 890b 053e 68fc eebd 7436 cb3c
00000270: aaea 4c3e 0f73 82bc 97e7 edbd 6e3c 93bc
00000280: 66f7 7d3e 7a2f 423d 57f6 62bd 627f 34be
00000290: 8a22 3f3e 9767 e43d 3b43 423e 124a 28be
000002a0: 2f9c 31be ff81 3b3e 8ed6 433d 0ab9 53be
000002b0: 11d9 b4bd eaaf 11be d20b f83d 0f45 3dbe
000002c0: 9db6 303d 1d5f 05be b2bd 173e 4f0f 163e
000002d0: af8d 803d 4f55 2dbe feda f4bd a570 5c3d
000002e0: 2c04 7fbc d3b8 c0bd 789f 88bd 00d0 d13d
000002f0: 5db7 183e 6157 e9bc d311 a8bd 7bf3 413d
00000300: 1f12 84bc 260f 713e a62f 363d 6dac 433d
00000310: e44e 743e 90f6 81bd c168 0a3e f5b4 653e
00000320: 7e34 eebd e28f 183e 41d0 063e ffe6 893d
00000330: e3d9 023e e0ea 07be e5fa 963d 572e 513d
00000340: 9fed f2bd e877 c6bd ee04 fabd c0be 42bd
00000350: 93a2 333e b739 063e 1ffb 4abe 9961 383b
00000360: 7aaf 303e 05b1 1ebe 7608 553d 57ee 603e
00000370: af2c 36be c3ef 9b3d 0578 5c3e a687 753d
00000380: 9079 1ebd b9ce d7bd 1f43 2e3d 13d0 a43c
00000390: 48b7 94bd eea2 133e 63aa 35be 8136 da3d
000003a0: 0972 133d 6fe0 2cbe 5c39 d8bd 4a05 643e
000003b0: a223 81bd f8ad 20be 501b 0dbe c939 093d
000003c0: 45cf bd3d 0907 cdbd 1f94 1d3d d30b 8dbc
000003d0: 9f01 1d3e 0a97 18be 8b02 20be 9b0b 4ebe
000003e0: 5d10 0b3d 853f 2dbe a02e 1d3e e7b4 dc3d
000003f0: f866 35be 71b8 28be ca33 3bbe 6bd1 debd
-0.046096638 0.13701256 0.0026437829 -0.11386145 0.0023220535 0.15824181 0.09623707 0.14745416
-0.05416035 0.15481839 -0.21948966 0.013139962 -0.14469224 -0.031719908 -0.110905245 -0.08809626
0.13638796 0.09516344 -0.0654377 0.07652292 0.16357514 -0.15679401 -0.12964788 0.10124279
0.02051114 0.0422761 0.13264321 0.07672495 0.10661295 -0.1858778 0.17311163 0.07511329
-0.11115631 0.030172996 0.054334383 0.01552683 -0.266983 -0.030272469 -0.0016250407 -0.1790403
-0.18803886 -0.01722276 0.0041508735 0.11212471 -0.21650982 0.097397014 -0.12958245 -0.26513484
-0.16225451 0.1127106 -0.22294946 -0.07120196 0.01893247 -0.04062044 -0.087522514 -0.07816569
-0.124612466 0.088881515 -0.15759937 -0.051226046 0.20320313 0.13676536 -0.13656063 -0.14865987
0.23027906 -0.16934265 -0.13079116 0.09772209 -0.13983451 -0.08601903 0.07105269 0.029872963
0.106895514 -0.19478352 0.023920445 -0.092306845 -0.253672 -0.20947573 -0.07986267 -0.17511281
-0.087939 0.2467742 0.21578409 0.10391586 -0.068313345 -0.018922016 0.17503189 0.09138829
0.20955916 -0.035504468 0.20452493 -0.046526268 -0.03563633 0.17048484 -0.15915371 -0.070033655
-0.20180859 -0.08837756 -0.1188029 -0.021361029 -0.15291649 -0.083405845 -0.09986878 -0.09530483
-0.17115916 -0.2013854 -0.039342087 -0.104299754 -0.02233569 -0.09369458 0.0451645 0.22295368
0.11358719 0.088076524 -0.18451619 -0.13057688 -0.019631162 0.1640545 -0.08469891 0.18099326
0.02532566 -0.16992864 0.03288173 -0.068569854 0.13480052 -0.15211529 -0.090975426 -0.044803035
0.128738 0.16974184 0.21076322 -0.16264239 -0.12395576 0.10333577 0.09338417 0.031444978
-0.21022056 -0.1782419 0.041462548 0.058118973 0.1393295 -0.1811585 0.082871825 0.1600078
-0.039542817 -0.09580983 -0.099065684 -0.03980967 -0.17472465 0.105982855 0.070940256 -0.086390555
0.03621966 0.12992682 -0.116692364 0.024806239 0.20011392 -0.015924005 -0.11616438 -0.017973151
0.24801406 0.04740856 -0.05541071 -0.17626718 0.1866552 0.11152571 0.18970959 -0.16434506
-0.17344736 0.18311308 0.047812037 -0.20676056 -0.08830465 -0.14227262 0.121116295 -0.18483375
0.043142904 -0.13024564 0.14818457 0.14654277 0.06277024 -0.16927074 -0.11955832 0.053818364
-0.0155649595 -0.094102524 -0.06671041 0.10244751 0.14913698 -0.028484048 -0.08206525 0.04735134
-0.016121922 0.23540935 0.044479035 0.04777186 0.2385822 -0.06345856 0.13516523 0.22432311
-0.11631106 0.14898637 0.1316538 0.06733512 0.1277843 -0.13273191 0.07372073 0.051069584
-0.11861729 -0.09690839 -0.122079715 -0.047545195 0.17542486 0.13107954 -0.19822358 0.0028134345
0.17254439 -0.15497215 0.052010022 0.2196592 -0.17790483 0.0761409 0.21530159 0.059943818
-0.03869015 -0.10537476 0.04254448 0.020118749 -0.072615206 0.14417621 -0.17740779 0.10654927
0.035997424 -0.1688249 -0.105578154 0.22267643 -0.063056245 -0.15691364 -0.1377995 0.033502374
0.09268049 -0.100111075 0.038471337 -0.017217552 0.1533265 -0.14901367 -0.1562597 -0.20121615
0.033951152 -0.16918762 0.15349817 0.10776692 -0.1771506 -0.16476609 -0.18281475 -0.10879787

decoder.conv.bias f4 [128]
00000000: f6d1 00be ec1d 51be aa63 843c 5962 3e3e
00000010: 191b 92be 0dc8 8dbd a56d 2b3e 8dd6 ae3e
00000020: 7c09 2fbe 72a8 57be 801a 2e3e 3096 7fbe
00000030: fed8 3bbd 6b81 b2ba 8793 eabd 3095 1b3e
00000040: 5627 133d 168e 893d 21a4 ec3d 8793 0e3e
00000050: f10a dfbc 7ecf 23bc f962 6e3e 55e4 04be
00000060: 02d6 203d d244 233e 09db f63d 1738 7f3d
00000070: 3b67 f8bc f70c 70be 1dcc 1abe 9afd a9bd
00000080: ff4b abbd ba3a 53be e8be a1be a9d0 193e
00000090: d21a 903e 079b 9d3d 6ee6 273e 5ce8 afbe
000000a0: 7dab cebd 484c a73d bb90 833e df24 1cbd
000000b0: 7502 953e cbaf 4ebe b14d 71be 8d9d 7b3e
000000c0: c8b8 9f3e 32b1 cf3d 6a1b fc3d f2ef a23e
000000d0: 26dd fe3d b7a2 9bbe fb3c 1cbb 045d 40bd
000000e0: 478e 143e fa4d 103e 80c9 3c3d b532 79be
000000f0: 8e71 a33d d996 ac3e 6f90 1dbe 3111 7337
00000100: 0b01 3dbe 4959 a3bd 39ff 303e 2acb 20bd
00000110: 81ff 6ebe 7a30 223e 8bfb 143d 2d14 043e
00000120: fcb2 5d3e 1675 03be 5aaa 00be 0523 213c
00000130: bfef 8fbe 0431 12bd 3ac2 b63c 6d8f bebd
00000140: ee48 ca3d 2b3b c6bd 6e2b 8fbe 5742 753e
00000150: 7a9c b7be 35e7 e03d 5d74 b0bd 648d 543e
00000160: ccfa 503d c2d2 953d 7afd 63be 114a 453d
00000170: 1f57 25bd 81ae b8bd 87cb 47be a286 0fbe
00000180: 5c0f 6ebe abd1 68bc 8f0f 743e 8117 aebd
00000190: 35f1 da3c 8720 53be 0357 27be 1c52 5a3e
000001a0: dd44 8bbe f007 6c3e 7f21 3d3e a637 2a3e
000001b0: 0bf7 f93d 8eac 9a3c 99dc 9bbe bb7b 333e
000001c0: 7538 113e b2b8 0dbd 5ce4 613d dd0c 87bd
000001d0: 87ca 733e 3b97 13bd cd96 4ebe 015c 113e
000001e0: 51f9 8e3e 055b 363e 0af0 2fbd 8889 8fbe
000001f0: e65d 0fbe be28 273e 1a09 7dbe cef8 6fbe
-0.12580094 -0.2042157 0.016160805 0.18592204 -0.285363 -0.06922922 0.16741045 0.34148064
-0.17093462 -0.2106035 0.17002296 -0.24959636 -0.045861237 -0.0013618892 -0.1145392 0.1519363
0.035926186 0.06716554 0.115547426 0.13923465 -0.027226897 -0.0099982 0.23279943 -0.12977727
0.039266594 0.15944222 0.120534964 0.06230935 -0.030322662 -0.23442446 -0.15116926 -0.08300324
-0.083641045 -0.20627871 -0.31590962 0.15021004 0.28145462 0.07695585 0.16396496 -0.34356964
-0.100913025 0.08168846 0.25696358 -0.0381211 0.29103437 -0.20184247 -0.23564793 0.2457182
0.31195664 0.10141219 0.12309916 0.3182369 0.124445245 -0.3039758 -0.0023840058 -0.046963707
0.145074 0.14092246 0.046090603 -0.2433575 0.07980643 0.33708838 -0.15387128 1.4487931e-05
-0.18457429 -0.07976014 0.1728486 -0.039256252 -0.23339655 0.15838805 0.036372703 0.12898321
0.21650308 -0.12837633 -0.12564984 0.009835009 -0.281126 -0.035691276 0.022309411 -0.093047
0.098771915 -0.09679254 -0.27962822 0.23951088 -0.3586157 0.10981599 -0.086159445 0.20757061
0.05102043 0.073155895 -0.22264662 0.04816634 -0.04036629 -0.09017659 -0.19511233 -0.14016202
-0.23248047 -0.014210145 0.2383406 -0.08500577 0.026726345 -0.20617877 -0.16341786 0.21320385
-0.27200976 0.23049903 0.18469809 0.1662279 0.12205323 0.018881109 -0.3044174 0.17527668
0.14181693 -0.034599967 0.05514942 -0.0659425 0.23807727 -0.036032896 -0.20174713 0.14195253
0.27924588 0.17808159 -0.04295353 -0.28034616 -0.14000663 0.16324136 -0.24710503 -0.23434755

pointer.v f4 [1, 1, 128]
00000000: ec32 bc3e 8b98 d0be eda2 b33e 248a 50be
00000010: e4a9 d0be 44fe ae3e a8d1 a03e f609 ccbe
00000020: 634e 673e 6665 f03e 4613 e53d 2633 803d
00000030: b905 8c3e 8243 7bbe 9521 a4be 5287 633e
00000040: 2289 66be e9ec 1e3e 4565 073e 48d6 bc3e
00000050: c7e2 cc3e 703b 55be 0e37 8c3e de5b 8ebe
00000060: f366 2d3e 6eed 943e 1b54 1bbb e4d3 94be
00000070: 2815 6b3e 4dff 993e e40d 91be 8129 c7be
00000080: 4ec4 bfbe c3be 643e 2278 7bbe ba44 c73d
00000090: 8afd a93d dd6c a93d 6f5a 4fbe e8a0 b0be
000000a0: 8ccb eabe dcb8 bebe fa77 e0be adab a03e
000000b0: 11c6 cbbe 4551 c9be f091 13be e07f 12be
000000c0: 9f73 823d e6be 413e fbce cc3e f3d4 b1be
000000d0: 4d5d 25be 59b3 b43e 2728 db3d 6229 933e
000000e0: 2444 823e cb53 d53e ceed d83d 8d9b bb3d
000000f0: 0e5c 663d 5bd4 71bd cf2a da3e 03b8 c43e
00000100: 204a 0b3e 7d70 be3e ae2f d13e a786 9ebe
00000110: 2b78 88be cb2f 053e 54dd 43be 869e afbe
00000120: f714 9a3e a004 d43e 3b8a 363e 3ed5 9abd
00000130: b97d 3b3d f9ac a73e 3457 e73e ed68 dc3e
00000140: 31ba 1cbe d7f7 4d3e 9e1e fcbd d5c2 7a3e
00000150: 2f69 d5be 6546 d03e 8a9b b63e 94eb 193d
00000160: 87f1 33be 923c 873e c579 c4be 91b5 2e3e
00000170: d6f6 d6be d956 7abe c86a 73be 83ae 093e
00000180: 9174 9e3e ec38 bfbd 6c2e cabe 4f42 ba3e
00000190: 6c25 bf3e 60c9 c1bd f982 b3be 43f3 ad3e
000001a0: c732 93bd 0be4 1bbe 8e12 11be 3efb 5f3e
000001b0: 8267 87be 0575 043e 2141 273e b32c db3d
000001c0: dcfd 86be e8c9 afbe e607 0abe db1f 753d
000001d0: b0ac 543e 563c 0bbe 9b95 97be dedc 53be
000001e0: 368d b2be 9217 04bd 679e d83e 9189 a6be
000001f0: 38ff 86be 1e14 68be ebe1 b8bd cc03 8fbe
0.367576 -0.4074138 0.3508524 -0.20365196 -0.40754616 0.34178364 0.31409955 -0.3985135
0.22588496 0.4695236 0.11185317 0.06259756 0.27348116 -0.24537471 -0.3205687 0.2221959
-0.2251325 0.15520062 0.13222225 0.36882234 0.40016767 -0.20823455 0.27385753 -0.27804464
0.16933803 0.29087394 -0.0023701254 -0.2906791 0.22957289 0.30077592 -0.2833091 -0.38898852
-0.37454456 0.22338395 -0.24557546 0.097299054 0.08300312 0.08272717 -0.20249341 -0.34497762
-0.4585842 -0.37250412 -0.43841535 0.31380978 -0.3979955 -0.39319816 -0.1441114 -0.14306593
0.06369709 0.18920478 0.40001664 -0.3473278 -0.16148873 0.3529308 0.10701018 0.2874251
0.25442612 0.4166549 0.10592233 0.09160528 0.056240134 -0.05904041 0.42610785 0.3842164
0.13602495 0.37195197 0.4085669 -0.30962107 -0.2665418 0.13006513 -0.19127399 -0.3430063
0.3009412 0.4140978 0.17826168 -0.07560204 0.045774195 0.32749155 0.45183718 0.43048802
-0.15305401 0.20114075 -0.12310527 0.24488385 -0.4168181 0.40678707 0.35665542 0.03757818
-0.17572604 0.264134 -0.38374153 0.1706145 -0.41985196 -0.24447192 -0.23771203 0.13445477
0.30948308 -0.09337029 -0.39488542 0.36378714 0.37333238 -0.09462237 -0.35060862 0.33974656
-0.071874194 -0.1522371 -0.14167234 0.21873185 -0.26446158 0.12935264 0.16333438 0.10701885
-0.26365554 -0.3433373 -0.13479576 0.059844833 0.20769 -0.13597235 -0.29606327 -0.20689723
-0.3487336 -0.03224904 0.4230835 -0.3252683 -0.2636659 -0.22663924 -0.090274654 -0.27932584

pointer.W f4 [1, 128, 256]
00000000: 1b68 7ebd db25 8cbc 7f3d 3a3d 1e9a 4bbd
00000010: 4a1d 2e3d 61b0 92bc b2ec 113d b33f e33d
00000020: 1915 71bd a352 f9bc dc1a 5e3d eb63 0abe
00000030: c349 e5bc 2cdb e4bd dfa4 e03c bed0 80bd
00000040: 56e2 7dbd 564a 7ebd 9954 83bb 19e5 16bc
00000050: ef05 6e3d 22da 98bc 99ab c9bc f9b3 36bd
00000060: 7563 ab3c 9350 733d 9d8e e0bd 73a2 dd3b
00000070: 7862 68bd 6a54 073e a3ff 313c eb1d 8b3d
00000080: 56bd ac3d 7c41 da3d 5eed 923c a1d4 e73b
00000090: 966d fe3c 6643 a53c 8a31 cd3d 2c83 943c
000000a0: b8b3 ce3c 0669 c03d 2370 d7bd e087 143d
000000b0: 6dbe 433d 7271 a6bd 4c32 403d bd8b 1c3d
000000c0: f7e8 12be 1e3c 2abc f5e6 523d f544 aa3d
000000d0: bbbb 84bd 2933 1039 3560 89bd b351 17bb
000000e0: f2ee c13b 96d1 e23d 48d8 dc3d 032f ad3d
000000f0: eb87 103c 177d d3bd 8b25 afbc 37f2 6bbd
00000100: a704 92bd 8c48 e23d 5850 103d a297 53bd
00000110: 1a36 49bd 2d70 c6bc 16c0 4d3d ad21 bcbd
00000120: 580d 5c3c 6c58 55bc 619b 873d 79fe 3dbd
00000130: 470b f2bc d3e7 04bb 1882 833d e14f 07bd
00000140: 92b5 cdbd fbd9 efbd ca31 adbd a92f 523d
00000150: a49f e5bc a101 5cbb e1cc 4bbd 5f3a 8c3c
00000160: f8ec 403d 1a5a 713c a671 b23d 0952 353c
00000170: 08d0 bcbc 84f8 923c d151 92bd 0824 4dbc
00000180: bad5 ac3d da7f a6bd 3a75 4bbc b4c7 e23c
00000190: 379f d73c b8b4 4c3d 0ccf 19be dea3 9d3b
000001a0: 7147 c8bd ca34 283c d59d ccbc 45a7 d3bc
000001b0: 43e1 99bd fed7 2dbc 1311 2c3d 2b8f 82bd
000001c0: 0aaf da3d f72c d93d 7550 763d 61cc 6a3c
000001d0: 0cfc 153d a160 843d d93b 6abd e3e4 54bd
000001e0: e90f 48bd 5655 f53d 57bc df3b 3212 2e3c
000001f0: dd7a 723b 918f 113d f491 23bd 3dd1 69bd
00000200: ba1b fe3b 6b10 1aba 07bb d0ba a4ce c7ba
00000210: 0b7d f03b 6792 a03c d0de b3bc 21dc 0c3a
00000220: adbd 3fbc cf1c 4c3c 8a0f 19bc 3a74 213c
00000230: 46b0 07bc b4e1 8b3c b61c 153c 6adf f73c
00000240: 0fc8 41bc a5c3 d23b 8e4b ca3b 07dd cd3c
00000250: 2130 abbb d97c bdbc 4718 e53c 2eca 3c3c
00000260: 9866 aa3c 450e 9cbc 4796 f93a 38a2 7e3c
00000270: 4f5a a7bc bf91 883c b6b9 51bb f113 7e3c
00000280: e8c0 d6bc 4a44 443c 736a 6f3b 2bb6 e8bc
00000290: 0dab b9bb c20a 1a3c ca76 35bc 3627 783c
000002a0: 3e67 05bd a5b5 b03c b610 bc39 a7c9 80bc
000002b0: 8bb1 11bd e4f0 83bb 3bbe 2c3c 3d9a 0cbc
000002c0: a9df acbc a063 383b f3f5 8a3b 672c 21bc
000002d0: a024 3bbc 3e2f e53c b1a6 b53c 2dd9 6dbb
000002e0: b03e 493c 59c2 3a3c 558b d3bb bed5 81bc
000002f0: 78c4 5abc 23c9 eb3a 735c 6ebb 7381 1c3c
00000300: e2b9 3a3c c1c3 4dbc 1013 ffbc 757b 1ebb
00000310: 191b 17bc d650 a7bb 5286 a53a 74f0 e6bb
00000320: 1c2a 1b3c 3c26 db3c 05eb b7bc bb4a abbc
00000330: f3a2 d2bc be7a a4bc eb7c b1bc 9887 d6bc
00000340: ebe5 5dbc 870e 0bbc 430c e8bc 726d 853c
00000350: 25e2 83bb 41f5 a4bc d759 42bc 3e09 e73b
00000360: 0041 3dbc 8d8a 253d a724 5d3b 3017 9e3b
00000370: 4c1e ce3c 9598 d4bb 53eb b33b 0a04 6e3c
00000380: 6ff4 ddbb 2a3f e3bc 90c0 e0bc 3c17 72b9
00000390: cf54 4fbc 0374 b3bc a5d0 3039 83ca 4ebc
000003a0: 1e0e 993c ce09 e4bb 20c4 f53c 4d02 e3bc
000003b0: 24ed d83c 60a3 d3bc 7613 a43c 4837 773a
000003c0: a61d 053c 5b8f e93c e91f a13c c47e bb3c
000003d0: 328b b43c c32a c83c f95c 023d 2a14 053c
000003e0: 8227 5cbb b787 123d 427e 393c 36be 23bc
000003f0: 1227 2dbb 2126 1a3c 10a9 fdbc a851 c4b9
-0.062111 -0.017107895 0.045468803 -0.049707524 0.0425084 -0.01790637 0.03562612 0.11096134
-0.05885801 -0.030434912 0.054224834 -0.13514678 -0.027989274 -0.11174616 0.027422367 -0.062898144
-0.06198343 -0.06208261 -0.0040078876 -0.009209895 0.058111127 -0.018658701 -0.024617957 -0.04460523
0.020921448 0.059403013 -0.10964701 0.00676375 -0.056734532 0.13215795 0.010864171 0.06792816
0.084345505 0.106570214 0.017935451 0.007074908 0.031058114 0.02017374 0.100192145 0.018128954
0.025232181 0.09395032 -0.10519435 0.036262393 0.047789026 -0.08127107 0.046922967 0.038219202
-0.14346682 -0.01039031 0.05148979 0.08313934 -0.06481119 0.00013751969 -0.06707803 -0.0023089468
0.005918377 0.110751316 0.1078344 0.084562324 0.008821468 -0.10326593 -0.021380207 -0.05760404
-0.071297936 0.110489935 0.03523287 -0.05165828 -0.04912386 -0.024223411 0.050232016 -0.09186111
0.013430916 -0.01302157 0.06621433 -0.046385262 -0.029546393 -0.002027978 0.06421298 -0.033035163
-0.100443974 -0.11711498 -0.08456762 0.051314984 -0.028030224 -0.0033570307 -0.049755935 0.017117677
0.04710099 0.014730955 0.08713083 0.011066922 -0.023048416 0.017940767 -0.071445115 -0.012520798
0.084392026 -0.081298545 -0.012418086 0.027683116 0.026321037 0.049977034 -0.15020388 0.0048107943
-0.09779251 0.010266492 -0.024977604 -0.025836596 -0.075136684 -0.010610579 0.04200847 -0.063749634
0.10677917 0.106042795 0.060135324 0.014330954 0.036617324 0.06463743 -0.05718598 -0.051976096
-0.048843298 0.11979167 0.006827872 0.010624455 0.0036999502 0.035537306 -0.039934114 -0.05708431
0.00775477 -0.000587708 -0.0015924879 -0.0015244079 0.007339125 0.01960106 -0.021956831 0.0005373378
-0.011702937 0.01245804 -0.009342084 0.009854371 -0.008281773 0.017075397 0.0091010835 0.0302579
-0.011827483 0.006432014 0.0061735576 0.025129808 -0.0052242433 -0.023130821 0.027965678 0.011522813
0.020800874 -0.019049773 0.0019041979 0.015541606 -0.020428805 0.01667106 -0.0032001561 0.015507684
-0.026215032 0.011979172 0.0036531955 -0.028407177 -0.005666143 0.009401979 -0.011075685 0.015146067
-0.032569163 0.02157099 0.00035870605 -0.015721155 -0.03556971 -0.004026519 0.010543401 -0.008581695
-0.021102743 0.0028135553 0.004240745 -0.0098372465 -0.011422306 0.027976628 0.022174211 -0.0036292777
0.012283012 0.011398875 -0.0064558187 -0.01584899 -0.013352506 0.001798902 -0.0036371022 0.0095523475
0.011396857 -0.012558878 -0.03113702 -0.0024182473 -0.009222769 -0.005106072 0.0012628532 -0.007047707
0.009470489 0.02675163 -0.022450933 -0.020909658 -0.025712466 -0.02007806 -0.02166601 -0.026187703
-0.013543586 -0.00848735 -0.02832616 0.01628754 -0.0040247613 -0.020136477 -0.01186224 0.0070506623
-0.011551142 0.040415335 0.003374377 0.0048245415 0.025160931 -0.0064879158 0.0054906993 0.01452733
-0.0067735235 -0.02774008 -0.027435571 -0.00023087574 -0.012654497 -0.021905905 0.00016862394 -0.012621525
0.01868349 -0.0069591766 0.030000746 -0.027711058 0.026480265 -0.02583474 0.020028811 0.000943054
0.0081247445 0.02851074 0.019668536 0.022887595 0.02203903 0.024434453 0.031826947 0.008122483
-0.0033592884 0.03577396 0.011321606 -0.00999408 -0.0026420993 0.009408505 -0.030964404 -0.00037444872

pointer.gru.weight_ih_l0 f4 [384, 128]
00000000: c52b af3d e0e1 9f3d 2815 dabc 62b0 7fbd
00000010: 85f9 e23d 46ca d83d fb59 293d a967 3c3d
00000020: 44e2 cd3d 34e4 4abd b195 febd 0117 ecbc
00000030: 2491 9fbd 2aaf a2bc 2b33 8e3d ba94 83bd
00000040: 9bbc 9abb da68 e8bd 7f4f 7fbb 25b6 fabd
00000050: 286f d8bd b97d 15be f4a7 4dbd 809e a83d
00000060: 9cda 68bd 5f97 d43d d530 23bd c29f da3d
00000070: a0bc f13d 67b2 0f3d 6a6c fb3d 9074 c6bd
00000080: f492 75bc de53 a3bc 88fb 9fbd 468d a8bd
00000090: 2688 a6bd 2c99 17bd 726c 57bc 1738 273d
000000a0: dd01 a0bd 0b10 71bd 6229 753b 3c2c f23d
000000b0: a25d b9bd 2dac e0bb fc98 09bc 25fe 253d
000000c0: 9c24 a73d 6eac ac3d 74db bb3d c349 c8bd
000000d0: ddea c63d 21c4 ab3d 1087 023e 0f06 08be
000000e0: 288e c73c a087 653d aceb c93d 8400 80bc
000000f0: eb75 f93c 6d8b b1bd f062 88bd 649a d8bd
00000100: 644b 1dbe 779b 0a3e 90d0 d23c 3b05 72bd
00000110: 409a f9bc 22fb 1a3d 2c23 89bd 3a81 e1bc
00000120: f917 03bd 916f f9bc fbbf 2cbd b1c0 ccbd
00000130: 46b1 0cbd 125d 87bd c10e a9bc 2eb8 99bd
00000140: d749 6abd 7ace a73a cdf6 933d 4409 2b3d
00000150: 6dd4 393c 32d8 b7bd 05c9 d63c 4e8e 373d
00000160: 44ae 06bc e8e6 76bb 576c 15be 2732 b8bc
00000170: 00e6 c9bd 5390 d4bc 86c6 783d 96e4 e83d
00000180: 3beb e13c 274c c03d c90a 993c 727c 103c
00000190: aff9 d13d 8896 bbbc 1073 4f3d 438f 83bd
000001a0: 2d97 c7bc 4811 2e3e 5a0f 393c b19e 4e3d
000001b0: 8484 bbbd be05 b4bd 57f7 093c ebe8 6bbd
000001c0: 2bd3 9cbd 825c e33c 9905 183d b6c5 efbd
000001d0: 40b3 fc3d 5712 3fbd cd3b 97bd c760 8b3c
000001e0: 2dba 2f3d 966f 0abc ccb5 18bd 29ae b33d
000001f0: 589e 21bc ba7d 853c 13a1 843d a6e2 723c
00000200: b816 ab3c 0a80 7e3d efd4 b93a 5471 f0bd
00000210: 26f9 42bd 16f4 52bd 1d82 d23d cae7 21bd
00000220: 5d95 243c 9cfd 1cbe 74ef b33d e37b 28bd
00000230: b697 bfbc 05d0 5c3a 0678 3ebd ee92 c93c
00000240: d58b 103d 90f2 7d3c ff82 dbbd 150f e7bc
00000250: 5ff9 243c ac8b 6cbd 8daa 36bd 45a8 123e
00000260: 92c9 debd dfb6 d03d f48f 603d b9e3 073e
00000270: 9788 273e cadc e4bd 90ce 56bc 73ca 0a3d
00000280: ad32 4bbc 3b04 193e a649 0bbe 300d d93d
00000290: 1ffd 5f3c 9e36 84bc 1998 afbc 874b cc3d
000002a0: 0154 b4bc 7e28 e13d 8a9b 78bd c04f 97bd
000002b0: 7571 d03d 02c1 06bd 9a78 f5bb 2d6f 03be
000002c0: 3573 08be 97f6 133d ad2c 9fbb c049 db3c
000002d0: 26eb 95bd 616f f93d 8dfe 3c3d a1ac f23b
000002e0: a16b bdbd e667 94bd a378 803c 3905 5d3c
000002f0: 9da1 54ba 0628 733d 62e8 8fbd 2e4d 8abd
00000300: f77c eabd f676 21bd 641e d23c ad6f 653d
00000310: 1f82 0e3d 9b40 bf3c 8a5b 7f3c c204 16bd
00000320: e634 453d 4d71 85bc 0bc6 9abd 72f5 2a3d
00000330: ce90 1dbe c45b a3bd dee8 0d3c 1de2 f3bd
00000340: 3e81 88bd de7b 873d 5daf c5bd 5d9d 0cbd
00000350: 50bb a3bb 701e 7bbd cb19 3dbc f8c4 0a3d
00000360: 9645 9c3c 6383 1a3a f29e b5bd f994 ab3c
00000370: 0494 ac3d dbd4 d2bc 4379 a8bd 9150 ec3d
00000380: faaf 8ebd ca1f 0d3e 9898 d13d 38b5 ae39
00000390: cdc8 c73d 8af7 e8bc e3c3 56bd 940a acbd
000003a0: a2cc 153e 0388 ec3d e8a2 733d 806e 703d
000003b0: 820e 6abc 1805 0e3e 14e5 8dbd a253 08be
000003c0: 8216 bcbc 028e 9bbd 8758 e0bc e676 1d3d
000003d0: 470b ac3d 6a9f 56bb 7d2b eebd 71af e9bb
000003e0: 06b8 9bbc 85e8 f9bc 952a 06bc 2fe7 cb3d
000003f0: 293e 143e 7fd1 0e3d 2a51 263e ff30 24bd
0.0855327 0.07806754 -0.026621416 -0.06242407 0.11082748 0.105854556 0.041345578 0.045997296
0.10052922 -0.049534038 -0.12430895 -0.028819563 -0.07791355 -0.019858915 0.06943353 -0.06424852
-0.0047221906 -0.11348124 -0.0038957295 -0.122417726 -0.10568076 -0.1459874 -0.050209 0.082333565
-0.056849107 0.10380434 -0.03984149 0.10675003 0.118035555 0.035082247 0.12276538 -0.09690201
-0.01498865 -0.019937452 -0.07811648 -0.08230071 -0.08131437 -0.03701131 -0.013148414 0.040824976
-0.078128554 -0.05885319 0.00374087 0.11824843 -0.09051062 -0.0068564625 -0.008398291 0.040525574
0.081612796 0.08431326 0.09172717 -0.09779694 0.09712765 0.08387018 0.12746835 -0.13283561
0.024359778 0.056037545 0.09859404 -0.015625246 0.030451735 -0.086691715 -0.06659496 -0.10576323
-0.1536079 0.13535868 0.025734216 -0.05908702 -0.03046906 0.037837155 -0.06696162 -0.02752744
-0.032005284 -0.030448707 -0.042175274 -0.099976905 -0.03434875 -0.06609549 -0.020636918 -0.075058326
-0.057199325 0.0012802624 0.07224808 0.041756883 0.01134215 -0.08976783 0.0262189 0.044813447
-0.008220259 -0.0037674252 -0.1459211 -0.022484852 -0.09858322 -0.025947725 0.0607362 0.11371724
0.027577987 0.09389525 0.0186819 0.008818733 0.102527015 -0.022898927 0.05064684 -0.064238094
-0.024364078 0.1699878 0.011295164 0.05044431 -0.09156135 -0.08790158 0.008420787 -0.057595175
-0.076574646 0.027754072 0.037114713 -0.11707632 0.12338877 -0.04664835 -0.07384453 0.01701392
0.04290216 -0.008449456 -0.03728275 0.08773453 -0.009864412 0.016295303 0.06476035 0.014824545
0.020884857 0.062133826 0.0014177839 -0.117403656 -0.047600888 -0.05150231 0.102787234 -0.039527692
0.010045377 -0.1533112 0.087859064 -0.041133773 -0.023387771 0.00084233313 -0.046501182 0.024606194
0.035289604 0.015499726 -0.10718345 -0.028205434 0.01006922 -0.05775039 -0.044596244 0.14322002
-0.1087829 0.1019113 0.054824784 0.13270463 0.16360699 -0.11174925 -0.013110772 0.033884477
-0.012402219 0.1494302 -0.13602313 0.105982184 0.013671189 -0.016139325 -0.02143483 0.09975343
-0.022012712 0.109940514 -0.06069521 -0.07388258 0.1017789 -0.03289891 -0.0074911835 -0.12835379
-0.13325198 0.03612384 -0.0048576207 0.026768565 -0.07320242 0.12179447 0.046141196 0.007405833
-0.09249044 -0.072463796 0.015682524 0.013490015 -0.00081112405 0.05936434 -0.070267454 -0.06753002
-0.114496164 -0.03942009 0.025649257 0.056014705 0.034792062 0.023346236 0.015585789 -0.03662563
0.04814615 -0.016289378 -0.07557305 0.04173798 -0.1538727 -0.07976487 0.008661477 -0.11908362
-0.06665276 0.06615423 -0.096525885 -0.03432976 -0.0049966946 -0.061308324 -0.011541794 0.03387925
0.01907615 0.0005894212 -0.08868207 0.02094506 0.08426669 -0.025736263 -0.08226254 0.11538804
-0.069671586 0.13781658 0.10234183 0.00033322885 0.097550966 -0.028438348 -0.052432906 -0.08400455
0.14628842 0.1154938 0.05948153 0.05869913 -0.0142856855 0.1386913 -0.06928459 -0.13313153
-0.022959951 -0.07595445 -0.027385963 0.03844347 0.084005885 -0.0032748827 -0.116293885 -0.00713151
-0.019008648 -0.030506382 -0.008188863 0.09956204 0.14476837 0.03486776 0.16241899 -0.04008579

pointer.gru.weight_hh_l0 f4 [384, 128]
00000000: eb03 923d 517d 5e3d 147f f0bd 2756 f93c
00000010: e68b 43bd 624c 523d 026a 363d bf97 6b3d
00000020: b24c 653d 8100 e4bd 667b 7e3d 5918 e53d
00000030: 855e 2f3d b244 8d3d 2646 9ebd ee40 2a3d
00000040: 2b26 64bd bcdb 4cbc 316d 81bd ec77 8ebd
00000050: aaf8 a2bd e700 71bd 7208 47bd 5889 23bd
00000060: 4a45 8abd 1f02 dcbd deef 523d 2bb2 4fbd
00000070: 4476 7abd 0747 dcbb b483 aebd 0308 05be
00000080: 6a09 1abe 02a5 35bd 03ab ffbb 6883 d73d
00000090: c0eb 14bd bc0d c73d 8891 723d 247e 843d
000000a0: fa5e 98bd ca30 223e d757 5abb 4862 90ba
000000b0: f2eb 20bc 98ee 033d a857 a13d 32c4 8cbd
000000c0: 1654 1f3e 9f68 8cbd 633c 7e3d 9046 9f3d
000000d0: aa6e 21be 3870 8b3b 0217 91b9 00f8 613d
000000e0: e57a 17be 064c 09be 4bab b33d 525f 613c
000000f0: dac8 d03c b7a9 113c d55c ca3d 6885 24be
00000100: a4f4 30bd 82b4 cfbc be96 23be da89 13bd
00000110: 1db9 9abc 7493 23bd bf58 30bc 47ff a03c
00000120: 6cd3 0a3e b0bb 5a3d d07a 423d 0eee 113d
00000130: 5c53 943c 3db0 283e fa8d e23d f8cb ab3c
00000140: a1c2 453d bf1b c2bd 8f87 d13b 9b84 2fbd
00000150: e506 ebbd 82de 99bd ef7f 7d3a 8d84 cb3c
00000160: 8eff 7b3c 421f 89bb 6227 d93d fd6b 5abd
00000170: 4450 803c 8373 5b3c 40cf 16bd 0748 08bd
00000180: e4b8 2f3d 0622 b83d ed9b 283d 8941 003d
00000190: 2006 083d 223c ddbd 4a55 e43c 63f7 2dbd
000001a0: 942c 84bc 46cf 083d 8b4d 013d 11f0 b63c
000001b0: ea93 45bd c1be 39bd 4eb0 c73b 5143 0dbe
000001c0: c07b adbb 5c3b 243e 0c8d c93d 2ce3 b53c
000001d0: 2c79 803d b609 4d3d 0f42 40bd 82ef 68bd
000001e0: 5293 bdbd 1eab dabc a026 adbb 799c a9bd
000001f0: d62f 243d e2bd e1bd dc87 87bd bba0 1cbd
00000200: 8bf0 693d ee7d c0ba 6a40 3ebd 20ba f4bd
00000210: ea66 ad3d 5006 03be dbca ffbd 4ae1 a03d
00000220: 8274 90bd 3fe0 8ebd 6423 353d 47ab 653d
00000230: 889b 183c 9c78 86bd 63af 893d 75a3 87bb
00000240: 9685 cebc a18b 99bd 4109 093d 9bbd 003e
00000250: d590 74bd 3d76 08bd fdb0 cabd ee72 d23c
00000260: 0295 9fbc 47ee 48bd b5fc 8ebd 1c0f f8bd
00000270: 4b63 1b3e bf05 a6bd c425 2a3d 186a a6bd
00000280: 8a77 283d e939 0bbe 2a77 36bd 286c e03d
00000290: 159e 903c 2b32 96bd 13c2 57bd 1a3f 493d
000002a0: e351 5cbb d36f 8ebd a292 aa3d 8f20 e83c
000002b0: fcdf f83c 9631 84bc ce67 c0bd eff8 db3c
000002c0: 6e8b e6bd 4f3c 5f3c 9755 90bd c241 5f3d
000002d0: 7c44 3fbc c0d7 b8bd 9cb8 b13a 41ea 68bd
000002e0: bb8c 693d 87c6 f03c a248 e4bd 6e35 843c
000002f0: d67e 8e3c e4aa 673d f63a e13c 52f9 12bd
00000300: 7366 38bd b8be 49bd e72a 3a3a 1dfb f7bc
00000310: d76b 663b 55ff c73d f360 903d 2a90 b33d
00000320: fc78 37bd d20c ecbc 22b7 c13d 6231 b7bc
00000330: f958 863d 1872 88bd 5fbe e83d 7cc6 0a3e
00000340: d3c8 363d ab46 913d bbce 763d 3932 77bd
00000350: 43d8 943d 6563 5b3c b8fc 863d 6c76 b53d
00000360: e133 0abe 33c2 35bd c170 86bd efc7 c7bb
00000370: 45db 123e 76af 4dbd e45c 43bc 91e7 8dbd
00000380: 1500 073d f09b 9dbd 93db 03bc cf0e 893d
00000390: 2dbb fc3c 8824 c8bd 8209 febc 08b8 5e3d
000003a0: 9771 97bd 5ed3 48bd b5ca 75bd 952e debc
000003b0: ab8e 26bb 6bc9 c7bd 8e50 51bd 0965 78bd
000003c0: 4965 7f3d a45e ad3d ffac 1e3e a1c4 363d
000003d0: da43 6a3d 0039 503b c1f4 413d d094 66bd
000003e0: bc71 04be 40ce 99bd 7aac aabd 8adf 25bd
000003f0: 76fa 56bc ae89 153d f30e 013d 7d38 233d
0.071296535 0.05431873 -0.11742988 0.030436588 -0.04774084 0.051342376 0.04453469 0.057517763
0.055981345 -0.111329086 0.0621294 0.111862846 0.04281475 0.06897868 -0.077282235 0.041565828
-0.055700462 -0.012503561 -0.06319655 -0.06956467 -0.07957585 -0.05883875 -0.04859204 -0.039925903
-0.06751497 -0.10742592 0.051498286 -0.050707024 -0.061147943 -0.0067223343 -0.08521214 -0.12991337
-0.15042654 -0.044346817 -0.0078023686 0.10523111 -0.03635764 0.097194165 0.05922082 0.06469372
-0.0743999 0.15838924 -0.0033316517 -0.0011015618 -0.009821879 0.032209963 0.07878047 -0.06873359
0.1555942 -0.068558924 0.062069308 0.077771306 -0.15764871 0.004255321 -0.00027673697 0.05516815
-0.14792974 -0.13407907 0.08772906 0.013755636 0.025486398 0.008890561 0.098809876 -0.16066515
-0.043202057 -0.025354628 -0.15975472 -0.036020137 -0.018887097 -0.039935544 -0.010763346 0.019652976
0.13557214 0.05340165 0.047480404 0.035627417 0.018106155 0.1647348 0.11062236 0.020971283
0.048281316 -0.094779484 0.0063943337 -0.04285107 -0.114759244 -0.07513143 0.00096702477 0.024843479
0.015380753 -0.0041846344 0.10603215 -0.053325642 0.015663274 0.013394239 -0.036818743 -0.033271816
0.042900935 0.089908645 0.041164327 0.0313125 0.033208966 -0.10802485 0.0278727 -0.042472254
-0.016134538 0.033400796 0.03156809 0.02233127 -0.048236765 -0.045347933 0.006094015 -0.1379521
-0.005294293 0.16038269 0.09841356 0.02220305 0.06273112 0.05005809 -0.046938 -0.056869037
-0.09256615 -0.026692923 -0.0052841455 -0.08281798 0.040084682 -0.110225454 -0.0661771 -0.038239222
0.057114165 -0.0014685967 -0.04644815 -0.11949563 0.08466895 -0.12795377 -0.124898635 0.078554705
-0.07053472 -0.06976365 0.044223204 0.056071546 0.009314425 -0.06565973 0.067229055 -0.0041393586
-0.025210183 -0.07497335 0.03345609 0.12572329 -0.059708435 -0.033315886 -0.09897039 0.025689568
-0.019480232 -0.049055364 -0.06981794 -0.12112257 0.15174596 -0.08106565 0.041539922 -0.081257045
0.041129626 -0.1359631 -0.044547237 0.10958129 0.017653504 -0.073337875 -0.052675318 0.049132444
-0.0033618144 -0.069549225 0.08328749 0.028335838 0.030380242 -0.016136926 -0.09394799 0.0268521
-0.11257063 0.0136252185 -0.07047575 0.05450607 -0.011674043 -0.09025526 0.0013559046 -0.056864027
0.057018977 0.02939154 -0.11146666 0.016138759 0.017394464 0.05655946 0.027493935 -0.0358823
-0.04501958 -0.04925415 0.000710173 -0.030271107 0.0035159492 0.097654976 0.070497416 0.087677315
-0.044793114 -0.028814707 0.09458758 -0.022362415 0.06559939 -0.06662387 0.113644354 0.13552278
0.044625115 0.07093557 0.060255747 -0.06035063 0.07267811 0.013390397 0.06591171 0.08860478
-0.13496353 -0.044374656 -0.06564475 -0.006096832 0.14341457 -0.05021616 -0.011924002 -0.069289334
0.032959063 -0.07695758 -0.008047956 0.06692278 0.030850971 -0.09772593 -0.031010393 0.054374725
-0.073947124 -0.0490297 -0.06000777 -0.027121821 -0.0025414627 -0.09755214 -0.051102214 -0.06064323
0.062352452 0.08465317 0.1549568 0.044621114 0.057193615 0.0031772256 0.047352556 -0.056294262
-0.12934011 -0.07510042 -0.083336785 -0.040496387 -0.013121238 0.036508255 0.031508397 0.039848793
