SoSDP/SoS/40/critic.pt (torch, 33543 bytes, 9 tensors)

static_encoder.conv.weight f4 [128, 13, 1]
000000 28 a8 fa bd b9 2d b6 3d 95 e8 28 3e c1 a1 29 be
       -0.122391045 0.0889544 0.16494973 -0.1656561
000010 f0 ad 14 3d be 56 44 3d 3d fe 21 3e 0b 99 03 3e
       0.036298692 0.047934286 0.1581964 0.1285135
000020 33 de 03 3e 96 b1 02 3e 71 65 01 3e 69 7d 24 bb
       0.12877731 0.12763056 0.12636353 -0.0025099164
000030 bf 2a 54 be 6f 21 c1 3d 00 30 30 3e 4f a8 c3 bd
       -0.20719431 0.09430205 0.1720581 -0.09553587
000040 42 9b 0f 3e 53 89 29 3e cf 14 d5 bc 0b a7 26 3e
       0.1402407 0.16556291 -0.026010899 0.1627466
000050 89 2b b3 3d 5d 35 49 be 6a b2 9e bd d7 dc bb bd
       0.08748538 -0.19649263 -0.077488735 -0.09172981
000060 a8 d3 15 3e 1e dd 25 3e 18 9e 3a be 68 f8 07 be
       0.14631522 0.16197631 -0.1822437 -0.13278353
000070 e7 0e 6e 3d 30 e9 11 be 48 28 54 3e 8a 21 15 bd
       0.05811968 -0.1424911 0.20718491 -0.03640894
000080 03 f2 00 3e d4 36 b5 3d 3f f0 b3 3d bd bc d5 3d
       0.1259232 0.08848348 0.08786058 0.104363896
000090 23 5d d5 3d 5c e8 d9 bd 83 40 09 3e 72 89 3a be
       0.10418155 -0.10640022 0.13403516 -0.18216494
0000a0 c6 18 3c bc 17 cf 1f 3e 47 b2 2e be 98 62 8f 3d
       -0.011480516 0.15606342 -0.17060195 0.07001227
0000b0 1d 79 d1 bd 78 a5 a4 bc 8e 95 ce bd 4b fb df bd
       -0.10228179 -0.020098433 -0.10087119 -0.10936602
0000c0 94 37 34 3e c0 4b 36 be 2f fa b4 bd ef ca 4a bd
       0.17599326 -0.17802334 -0.08836781 -0.04950994
0000d0 2f b1 b8 3c 9d ea 21 be e1 da 35 3d f3 da 7c 3b
       0.022545425 -0.15812154 0.044398192 0.0038582652
0000e0 e7 8f 2b 3e 10 24 44 3e 11 90 70 bc 5d 31 54 be
       0.16754113 0.19154382 -0.014682786 -0.20721956
0000f0 71 d1 67 3d 20 f3 04 3e 1b cf 58 be e5 be bc 3d
       0.056596223 0.1298337 -0.21172754 0.09216098
000100 e7 36 33 bd c4 1a f3 3c 01 87 38 be 0c 3d 9a 3a
       -0.04375353 0.029675849 -0.1802025 0.0011767461
000110 f8 e4 c8 3d 32 5a 45 be 0d a5 38 be ca c2 24 be
       0.09809297 -0.19272688 -0.18031712 -0.16089931
000120 c3 0f 3f 3e 8b 17 19 3d 82 69 fe 3d 98 48 4c be
       0.18658356 0.037375968 0.12422468 -0.19949567
000130 3b ec 60 3e 0d 96 17 be 19 0a 1a bd 09 19 c4 bb
       0.21965115 -0.14803334 -0.037607286 -0.0059844297
000140 25 3b a3 bd 86 83 f7 bc ea 6e e1 bd 38 ca fe bd
       -0.07970265 -0.030214082 -0.11007483 -0.12440914
000150 7d 7b 24 3d 41 dd f1 3d 59 a4 52 3e ba 87 0c be
       0.04015683 0.11809779 0.20570506 -0.1372365
000160 06 f1 68 3d 8f 3c cd 3d 44 8e 99 3d 07 4c 2d 3e
       0.056870483 0.10021316 0.07497838 0.16923533
000170 e4 66 06 3e df d4 2f bc 74 e4 ff 3d 3c 79 42 3e
       0.13125187 -0.010731905 0.12494746 0.1899156
000180 8f f0 2d be d5 36 08 be 51 6a 34 be 4b ae 32 3d
       -0.16986297 -0.13302167 -0.17618681 0.04362325
000190 7e 92 f8 3d a0 0b 82 3c 3f 42 4f 3d 0e ba 26 3d
       0.12137316 0.015874684 0.050600287 0.04070478
0001a0 a2 60 02 3e 40 bb 8a 3d fb c4 a9 bd 81 86 c1 bc
       0.12732175 0.06773996 -0.08289524 -0.023623707
0001b0 be 69 10 be 27 8c b7 bd 0f b5 7c bd 67 5b 96 3c
       -0.14102837 -0.08962279 -0.06169611 0.01835413
0001c0 d7 81 03 3d 05 a4 7b 3d c5 8d 9d bd b4 5c d4 bd
       0.032106247 0.061435718 -0.07693056 -0.10369244
0001d0 7f 15 80 bd 30 c4 8c 3d ec 56 77 bd eb 9c 54 3c
       -0.062541 0.06873357 -0.06038563 0.012976865
0001e0 6a d3 55 bd 03 9a 97 bd 8e 31 29 bc 3f 6c ae bb
       -0.052203573 -0.07402422 -0.010326756 -0.0053229625
0001f0 88 1c ab 3d f8 9c 00 be 55 45 98 3d 5e f7 b2 bd
       0.08355051 -0.12559879 0.07435099 -0.08738588
000200 12 21 53 3d 6c 62 56 3c 8a dc 46 3e ad 51 25 3e
       0.05154521 0.013084989 0.19420066 0.16144438
000210 0a 42 0e be 07 49 cf 3d 58 da 7a bd a9 7d f7 bd
       -0.1389238 0.10121351 -0.061243385 -0.12084515
000220 a0 51 bf bc d5 5d 4d 3d 8c 44 1c 3e 1d fd 3c be
       -0.023354352 0.050138313 0.15260524 -0.1845593
000230 ef 91 15 3c c5 41 b8 bd a8 5b bc bb fa d0 b2 bd
       0.009129032 -0.089969195 -0.005748231 -0.08731265
000240 bb 27 bb bd c1 dc 31 3e a1 d0 79 bd e9 7d 46 3e
       -0.09138437 0.17369367 -0.06098998 0.19383968
000250 34 8c c8 3d 11 85 ae 3d 45 83 d7 bd 79 04 20 be
       0.097923666 0.08521474 -0.105230846 -0.15626706
000260 ca bc b7 bd de ff 44 3d 37 2c 2e be c5 0d 10 bc
       -0.089715555 0.048095576 -0.17009054 -0.008792345
000270 5e 10 11 3e a7 40 8f 3d 90 41 e3 3b 6f 7f 19 be
       0.141664 0.06994753 0.006935306 -0.14990018
000280 e0 cf 9e 3d 7e e3 2d be 04 71 0b bd c7 81 d2 3c
       0.07754493 -0.16981313 -0.034043327 0.025696648
000290 88 b7 84 be fa 5a 64 bd 95 24 e5 bd bc a2 8c 3d
       -0.25921273 -0.055750825 -0.11188618 0.068669766
0002a0 ca 47 59 3d 87 d3 4a 3e 6b c6 a8 bd 6f e0 af bd
       0.05304698 0.19807254 -0.0824097 -0.08587729
0002b0 40 79 ab bd 73 4b ff bd 59 1a d7 bc f5 71 ea bd
       -0.08372736 -0.12465563 -0.02625768 -0.11447517
0002c0 a6 28 f4 bd 4a 1d 1f 3e f7 ba 0b be a3 8f 2a 3d
       -0.119218156 0.15538517 -0.1364554 0.04164089
0002d0 41 a8 9a 3d b9 7b 28 bc 91 88 12 3e da 57 0e 3d
       0.07551623 -0.010283404 0.14309908 0.03475175
0002e0 24 87 1e 3e c8 c1 91 bc f4 ba 95 3d f5 b6 4a be
       0.1548124 -0.017792597 0.07311049 -0.19796355
0002f0 ce 3c 48 be 3d 9d fb bd 6a c3 2e 3e a9 80 4a bd
       -0.19554445 -0.1228585 0.17066732 -0.049439106
000300 67 27 85 3d f8 38 0d be 52 ae 8b bd 9e 71 2a 3e
       0.06501656 -0.13791263 -0.06820358 0.16644904
000310 7c 6a a4 3d 1c fa 85 bc be a1 dd 3b 94 b7 d2 bc
       0.08028123 -0.016354613 0.006763666 -0.025722302
000320 e6 fd c7 bd fe b5 91 bd c1 78 e0 3d 06 11 57 3d
       -0.09765224 -0.071147904 0.10960532 0.05250647
000330 cf 85 a1 bd 03 9c 7a 3c 28 4f 0a bc 86 4d 0c bd
       -0.0788685 0.015295985 -0.008441724 -0.03425362
000340 e1 47 bf 3d fa cf b2 bd 5d e7 46 bd 68 dd 2f be
       0.09339882 -0.08731075 -0.04856049 -0.17174304
000350 67 fa 96 bd 37 04 b1 bd 86 69 bd 3d cf 9d 13 be
       -0.07371979 -0.08643382 0.092486426 -0.14415668
000360 6d cb 22 3e f9 23 1f 3e f8 b9 1f be 06 17 0f be
       0.15897913 0.15541066 -0.15598285 -0.13973626
000370 7e b5 19 3e 12 6e 16 be 1f 77 26 3e b2 31 fe 3d
       0.1501064 -0.14690426 0.16256379 0.124118224
000380 ac a1 7d bd 1d 74 3b 3e 0b a7 a9 bd 0d 6a eb 3d
       -0.06192176 0.18306012 -0.08283814 0.11494837
000390 fb a1 cf 3b ab 0a 29 bd 5a 38 0f 3e ae 7e e8 3d
       0.0063364482 -0.04126994 0.1398634 0.11352287
0003a0 1d 28 22 be eb d5 2b 3e 94 79 ab 3d a2 91 3b be
       -0.15835615 0.16780822 0.083727986 -0.18317273
0003b0 0d 00 50 3c a0 f1 2b be db 7b 0e 3e 8a fd fb bd
       0.012695325 -0.16791391 0.13914435 -0.12304218
0003c0 a8 61 20 be 5f 2a 4d 3b 34 2b 6d bd 01 09 cf 3d
       -0.15662253 0.0031305773 -0.05790253 0.10109139
0003d0 61 f6 0e 3e f0 6d 90 bd b7 79 ad 3d 2c 4a 25 3d
       0.13961174 -0.07052219 0.08470481 0.04035394
0003e0 d4 c6 5a bd 7d a1 16 bc 6a 10 db 3d bd ab c5 bd
       -0.053412274 -0.009193775 0.1069649 -0.09651897
0003f0 78 63 d8 3b 2b 7e cc bd 94 b1 a0 3c c3 08 2e 3e
       0.0066036545 -0.09985002 0.019615926 0.1699553

static_encoder.conv.bias f4 [128]
000000 c7 7c 47 bd c1 ab 36 3e c9 71 78 3e de 60 1f bc
       -0.04870298 0.17838956 0.24262156 -0.009727685
000010 23 95 78 3e 01 e8 c7 bd 08 b2 3c 3d d9 28 70 be
       0.24275641 -0.09761048 0.04606822 -0.23453082
000020 fb a0 3e be a3 17 ee 3d a3 f1 3d 3d c8 6b d7 bc
       -0.18616097 0.11625602 0.04637302 -0.026296511
000030 b6 71 98 3d ba ae 73 be b2 36 c0 3b 56 b9 1f be
       0.07443564 -0.23797122 0.005865895 -0.15598044
000040 0c c2 1a 3d e8 1c 5a be 6b 1f b1 bd 5d 5e a6 bd
       0.037782714 -0.2130009 -0.086485706 -0.08123467
000050 a9 32 45 3e 32 c2 96 bb 83 6a 92 be 9b 4c 28 be
       0.19257607 -0.0046007866 -0.28596887 -0.16435473
000060 74 7b 89 3d 62 bf 2d 3e 7f ad 00 bd ea f8 94 3e
       0.06713 0.16967538 -0.03141546 0.29096156
000070 04 02 29 be ad 3b 85 be bf 35 18 be c9 e0 93 be
       -0.16504675 -0.26022092 -0.14864253 -0.28882435
000080 d3 bc 04 3e e5 d1 a8 bd 37 21 ff bd e4 38 e7 bc
       0.12962656 -0.08243159 -0.12457507 -0.02822537
000090 55 c7 e9 3d f0 6c ae 3d 80 dc 90 be 86 83 e5 3d
       0.11414973 0.08516872 -0.28293228 0.11206727
0000a0 49 75 a6 3d 44 93 de bc bc cf 56 3d f0 b3 22 3e
       0.08127839 -0.027169831 0.052444205 0.15888953
0000b0 ec c6 a4 be 5a f3 7b 3e 34 7a 80 3e 54 a3 06 3d
       -0.32183015 0.2460455 0.25093234 0.032870606
0000c0 15 81 54 3e 2d 0d 15 3e a1 8b dd bd 7b 59 6b 3e
       0.20752366 0.14555807 -0.10817648 0.22983353
0000d0 1b 57 5d be e6 36 87 3d d7 87 1c 3e 1e 19 51 bc
       -0.2161526 0.06602268 0.15286194 -0.012762336
0000e0 d7 27 c8 bc ea 0a 81 be b7 1d e0 3c 79 ef 2b be
       -0.02443306 -0.2520364 0.02735792 -0.1679057
0000f0 d6 6f 55 be 2c c0 a8 3c 8f ef 4f bd 64 e1 0f 3e
       -0.20843443 0.020599447 -0.05076557 0.14050823
000100 c0 0f 60 be 38 c1 27 be 5f f9 ba 3c cb 08 79 3e
       -0.21881008 -0.16382301 0.022823988 0.2431976
000110 6a 5a 28 3e 47 20 88 bc d4 87 f2 bd 34 78 28 3e
       0.1644074 -0.016616954 -0.118423134 0.16452104
000120 31 8f af bc 4a f7 52 3e 46 b5 83 3e ad 3c 68 be
       -0.021430584 0.20602146 0.25724238 -0.22679396
000130 a5 ce 68 3e 33 35 0f be 69 a3 58 be dd 33 62 bd
       0.22735079 -0.13985138 -0.21156086 -0.055225242
000140 00 3c 75 be aa 90 eb 3d a0 6c 7b 3e 22 aa 94 3e
       -0.2394867 0.11502202 0.24553156 0.2903605
000150 a5 89 6f be 42 df 5b 3c 7a e0 61 3e 92 d7 9d 3e
       -0.23392351 0.013419928 0.22058287 0.3082853
000160 af 18 8c be 4f 68 69 3e ad 20 6d 3e ee cc 81 bc
       -0.27362582 0.22793697 0.23156996 -0.015844788
000170 3b 96 04 be 22 13 2f be cb 06 66 3e b3 d0 3f 3e
       -0.12947933 -0.17097142 0.22463529 0.18731956
000180 77 ff 11 3d f7 ff 1e be 06 76 27 3e 99 33 6b 3d
       0.03564402 -0.1552733 0.16353616 0.057422254
000190 07 a9 38 bd ee 1a 4e 3d 5b e6 96 bd 4c f5 19 be
       -0.045083072 0.05031865 -0.073681556 -0.1503498
0001a0 44 09 8e bd d8 db 29 3e fc 62 20 be 8a b9 e0 bc
       -0.06935361 0.1658777 -0.1566276 -0.027432222
0001b0 b8 e0 9a 3e 84 93 3f 3e 8a d0 45 be b9 e3 03 3e
       0.30249572 0.18708616 -0.19317833 0.12879838
0001c0 29 b2 66 3e 85 74 76 bd 2b fa 6c 3e 13 9d 3d be
       0.225289 -0.060169715 0.23142307 -0.1851695
0001d0 dc da 76 3e c2 07 37 bd 58 ea fd bd 88 5d 5f be
       0.24106926 -0.044685133 -0.12398213 -0.21813023
0001e0 a4 1c b9 3d 5d 7a c9 3c ee 98 41 3d b6 50 b4 bd
       0.09038666 0.02459448 0.047264986 -0.08804457
0001f0 fe a0 f9 3d cf a0 6e 3e 50 de ab bd d8 e6 18 3e
       0.1218891 0.23303531 -0.08392012 0.1493181

dynamic_encoder.conv.weight f4 [128, 1, 1]
000000 68 0e bf 3d b0 7a fe 3d 9b be 34 be ba 91 2e 3e
       0.0932892 0.124257445 -0.17650835 0.17047778
000010 30 e1 25 bd 1a 99 ac bd 18 95 95 3c 3b 56 c4 bd
       -0.04049796 -0.08427639 0.01825957 -0.0958676
000020 03 17 ba bd 8c f9 a7 3d ba 54 44 3e c0 d4 4b 3e
       -0.090864204 0.08201894 0.19172946 0.19905376
000030 54 e6 e9 3d 00 0f 82 3d 5b a3 f0 bd 8c 70 3d 3e
       0.11420885 0.06350517 -0.117499076 0.18499964
000040 68 cf e6 3d b2 67 a5 bd da be 35 3e 84 74 f1 3d
       0.11270028 -0.08076419 0.17748585 0.11789802
000050 29 7c 28 be ee 14 f1 bd 20 2c 59 3d e6 65 e1 bd
       -0.16453613 -0.1177157 0.053020597 -0.11005764
000060 78 1f 34 3e 8e ed b3 bd 0c 44 2b bd 66 f4 01 3e
       0.1759013 -0.08785544 -0.04181294 0.12690887
000070 80 8b 7e bd 24 9d 36 3e d0 04 19 3e 60 f1 20 3c
       -0.062144756 0.17833382 0.14943242 0.009823173
000080 0b cb e1 bd f8 71 6b bd f8 9e 28 3d 48 53 9f 3d
       -0.110250555 -0.057481736 0.04116723 0.077795565
000090 3c f5 d1 bd 43 73 fb bd a8 2c 5c be 7e a3 0d be
       -0.10251853 -0.12277844 -0.2150141 -0.13831899
0000a0 96 d4 55 3e 68 e1 41 3d 60 b8 27 3d 51 3f c1 bd
       0.20881876 0.047334105 0.040947318 -0.09435905
0000b0 00 be 29 3b b4 9b 2c be a1 62 43 be 11 a8 be bd
       0.0025900602 -0.16856271 -0.19080593 -0.093094
0000c0 de 5a 59 3e 04 a6 4c 3e c6 bc 3d 3e 00 db 71 bc
       0.2122607 0.19985205 0.18529043 -0.014761686
0000d0 94 f9 32 bd cc 4b 1a bd f0 71 f3 3d a0 29 a1 bc
       -0.043695047 -0.03766994 0.11886966 -0.019673169
0000e0 ed 27 17 be 16 c6 42 be e0 76 55 bd 40 78 b9 3b
       -0.14761324 -0.19020876 -0.05211532 0.005660087
0000f0 82 c8 90 bd 24 d6 3a 3e 3c 7e 41 3e c0 06 4c 3e
       -0.07069494 0.1824575 0.18895811 0.1992445
000100 82 d4 27 3e 42 38 40 3e 48 2e 54 bd 14 62 b9 bd
       0.16389659 0.1877146 -0.05180195 -0.0905191
000110 58 7b c6 bc 60 65 53 3c 98 84 10 3e b4 f1 ba 3d
       -0.024228737 0.012902588 0.1411308 0.091281325
000120 70 83 1a bc d7 8b c1 bd 20 21 9c bc 88 f1 bc 3c
       -0.009430751 -0.094505005 -0.019058764 0.02306439
000130 f0 cd f4 3c 52 df 49 3e c0 e1 79 3b 80 c3 97 3c
       0.029883355 0.19714096 0.0038128942 0.018525839
000140 d8 c7 84 3d f0 b1 ea 3c e8 fb 15 3e e4 8d 0e be
       0.0648343 0.0286493 0.14646876 -0.13921314
000150 44 cc 98 3d d8 a1 33 be 7a 53 2a be 40 38 08 bd
       0.074608356 -0.17542207 -0.16633406 -0.03325677
000160 54 64 b9 bd 9e f3 04 be 56 e7 39 be 09 85 24 be
       -0.09052339 -0.12983558 -0.18154654 -0.16066374
000170 54 17 3c 3e 58 e4 cc bc d1 dd ed bd 3a 33 53 3e
       0.18368274 -0.025011227 -0.11614574 0.2062501
000180 4e 0a 16 3e 1c 68 eb 3d f8 0d 94 bc 72 8b 2f 3e
       0.14652368 0.11494467 -0.018073067 0.17143038
000190 ec f4 80 bd 40 8d 16 3d 58 f7 64 3d 5a 6c e7 bd
       -0.06296715 0.0367558 0.055899948 -0.11299963
0001a0 dc 5b e8 bd 8e 96 24 3e c0 e0 3f 3b f8 c6 1f 3d
       -0.11345646 0.16073057 0.0029278249 0.03900811
0001b0 14 b3 94 3d b0 04 49 bd b0 1c 6b 3d 5a a4 3b be
       0.07260719 -0.049076736 0.057400405 -0.18324414
0001c0 30 2d b3 3d 83 85 27 be c8 55 b5 bd 60 60 21 3d
       0.08748853 -0.16359524 -0.08854252 0.03939855
0001d0 c2 e8 42 be 38 41 81 3d 0c b6 96 3d a0 c5 d4 bb
       -0.19034103 0.063112676 0.073589414 -0.0064932853
0001e0 2e cc bd bd aa 78 97 bd b0 79 00 be 0e 47 1c 3e
       -0.0926746 -0.07396062 -0.1254642 0.1526148
0001f0 c8 7d dd 3d 46 78 c5 bd 00 be 07 3c db 7a 32 be
       0.108150065 -0.09642081 0.008285046 -0.17429678

dynamic_encoder.conv.bias f4 [128]
000000 fe ea 22 be 50 9f e0 3e 03 ac 46 bf b6 d6 c0 be
       -0.15909955 0.43871546 -0.7760622 -0.3766381
000010 77 25 48 bf e0 01 6d 3f 81 4e c2 3e 40 0d 38 3e
       -0.78182167 0.92580986 0.3795052 0.17973804
000020 2e 87 01 3f b6 9a e2 3d a8 8a 21 bd 4b 9e 28 be
       0.5059689 0.11064665 -0.039438874 -0.16466634
000030 19 03 46 3e d8 45 4a bf 50 38 1b 3f b4 87 a3 3e
       0.19337119 -0.79012823 0.606328 0.3193947
000040 3d d0 84 3d 06 bb 03 bf 4b 3e 66 be d7 d0 d1 be
       0.06485031 -0.5145725 -0.224847 -0.40979645
000050 56 49 56 3f f5 00 21 3f f0 8d 60 3e e4 ec 9c be
       0.8370565 0.62892085 0.21929145 -0.30649483
000060 17 32 e0 bc 76 f1 60 bd 2c 3c 31 3f 3a 8a 32 bf
       -0.027367635 -0.054917775 0.6923244 -0.69742167
000070 ad 87 c8 3e 3c 55 43 bf 7d 18 b0 be 41 ab de be
       0.39166012 -0.7630193 -0.34393683 -0.4349003
000080 86 0d 70 bf 2d 9b 2b 3f 12 2e 02 3e ac 95 2d 3f
       -0.93770635 0.67033654 0.12712887 0.67806506
000090 4d 28 ad 3e 5d 61 6b 3f 08 e0 bf 3c 21 70 88 be
       0.3381981 0.9194544 0.023422256 -0.26648048
0000a0 bb 2b e9 bd 46 43 c6 3c 82 86 4c 3f 75 1a 69 be
       -0.11385294 0.024202 0.7989274 -0.22763999
0000b0 13 17 3b 3f bb 14 1c bf 53 ed 27 3f ef 32 0d bf
       0.73082083 -0.6096913 0.65596503 -0.55155843
0000c0 aa a0 c7 be a1 f0 aa 3c 09 e4 dc 3e ac ff c0 bd
       -0.38989764 0.020866694 0.43142727 -0.094237655
0000d0 08 ac a8 3d 65 26 cf bd 1b cf 3b bf f7 02 aa be
       0.08235937 -0.10114745 -0.7336289 -0.33205387
0000e0 ea 7b 19 be da 13 aa be 7e 31 d0 be e8 12 54 bf
       -0.14988676 -0.3321827 -0.4066276 -0.8284135
0000f0 d6 56 b3 bd 86 95 b2 3e 6b 7e 89 3e a2 a9 37 be
       -0.08756797 0.34879702 0.26854262 -0.17935804
000100 b6 12 74 be 96 3a df be 95 a7 45 bf 8f 12 8f 3e
       -0.23835263 -0.43599385 -0.77208835 0.27943847
000110 0b 5f 73 bf f1 6b f5 3e 55 55 f6 bd 54 34 3b bf
       -0.950669 0.47933915 -0.120279945 -0.7312672
000120 4c 54 00 3f 42 81 6d bf 17 0a 24 bf 0e ce c7 3e
       0.50128627 -0.92775357 -0.64077896 0.39024395
000130 85 1c de 3e c0 f4 ba be 61 a0 e8 be c0 fe 2e 3e
       0.43381134 -0.36514854 -0.4543486 0.17089367
000140 df 8c d0 3e 07 00 e6 be a7 45 37 3f fb 16 b6 be
       0.40732476 -0.44921896 0.71590656 -0.35564408
000150 c7 9a 7d 3f 5c 28 c4 3d 7e 13 1b be 22 35 6a 3f
       0.99064296 0.095780104 -0.15144154 0.91487324
000160 38 38 3b bf d9 be 08 3f 5c 01 1c 3f df 9c 21 be
       -0.7313266 0.5341621 0.60939574 -0.15782498
000170 29 e8 31 3f ee 36 b6 be c8 aa 57 bf c9 02 6c 3f
       0.69494873 -0.35588783 -0.84244967 0.9219175
000180 12 64 44 bf 80 b6 55 3e 64 45 48 3f 81 f9 1d 3f
       -0.76715195 0.208704 0.7823088 0.6170884
000190 c0 ea c8 3e cb bc 24 3e 4f 5c 07 be 31 37 dc be
       0.392416 0.16087644 -0.13218807 -0.43010858
0001a0 91 55 13 bf 36 37 9f bc 93 e2 70 bf 52 e6 08 bd
       -0.5755244 -0.019435506 -0.94095725 -0.033422776
0001b0 32 2f df 3c 58 a0 67 bf 0c 9b 63 bf 89 7c 1c 3d
       0.027244184 -0.9047904 -0.8890846 0.038204703
0001c0 82 50 7e bf 39 79 c4 be 2f a5 0f bf 4d 65 d8 3c
       -0.99341595 -0.38373736 -0.56111425 0.026415491
0001d0 52 a2 01 3f 1f 14 52 bf 46 f1 5c bf 3c 51 16 3f
       0.50638306 -0.8206195 -0.86305654 0.58717704
0001e0 a5 25 54 3f d0 e9 51 3e 59 c9 cd be 36 f3 3d bf
       0.8286994 0.20499349 -0.4019268 -0.74199235
0001f0 db c7 49 3e e1 42 24 bf 83 30 32 3e 58 bb 1d be
       0.19705145 -0.6416455 0.17401318 -0.15403497

fc1.weight f4 [20, 256, 1]
000000 4f 49 ed bd 85 51 c4 3c 3f 0c cf 3d 73 48 05 be
       -0.11586248 0.023964653 0.10109758 -0.13015918
000010 0b 59 95 3d 1a 01 17 3e 7d ce 42 3b 56 e0 a3 bd
       0.07292374 0.14746514 0.0029725127 -0.08001773
000020 18 f0 d8 3d 0e 3a 93 3c 3c 1a 36 bb 12 a5 99 bd
       0.10592669 0.017972019 -0.0027786633 -0.07502188
000030 bc c1 b8 3d 73 db a8 3d 98 d4 f6 3d 48 b0 cd bd
       0.09021327 0.082449816 0.12052268 -0.100433886
000040 31 e5 07 3d ba fd 62 bd 13 32 01 be e0 28 d7 bd
       0.03317756 -0.055417754 -0.12616758 -0.10505843
000050 82 bb 0a 3e 19 d8 07 3e 56 9f 0f 3e 55 7e d9 bd
       0.13548091 0.13266028 0.14025626 -0.10619799
000060 7f 2b 4a bd ff 3a 31 bd 90 42 52 3d da 60 af 3d
       -0.049357887 -0.043269154 0.05133301 0.08563395
000070 c3 c4 d4 bd 2e 20 d9 bc da 25 46 3d 2b c4 e0 3d
       -0.10389092 -0.026504602 0.04837594 0.10974916
000080 fb ac c1 bd 4a e1 10 3c ef 3f e6 bc 87 a7 06 bd
       -0.094568215 0.008842776 -0.028106658 -0.03287461
000090 b5 1d 07 3e c1 17 9e bd 3b ab 1b 3d be b9 96 bc
       0.13194926 -0.077193744 0.038005095 -0.018399116
0000a0 13 47 c8 3d f6 df 8b 3d b9 33 c9 3d 7e 21 05 be
       0.09779181 0.068298265 0.098243184 -0.13001058
0000b0 b3 a8 03 3e f5 8d 0c be a9 41 d9 3d de 82 e6 3c
       0.12857322 -0.13726027 0.10608227 0.028138574
0000c0 2a 9c 9c 3d 52 50 93 3d 19 7f 4d bd 38 3a d5 3d
       0.076469734 0.07193054 -0.050170038 0.10411495
0000d0 12 39 ed 3d 6f f4 12 3e c9 d1 4f bb a7 3e c6 3d
       0.11583151 0.14351057 -0.0031710735 0.09679919
0000e0 7b 55 f7 3d d1 88 c4 3d 7f fb 66 bd 28 7d 12 3d
       0.12076851 0.09596408 -0.05639219 0.03576389
0000f0 e7 c8 96 bd 4d ba cf 3c ea 8b 56 bd 48 d9 88 bd
       -0.07362538 0.02535739 -0.052379526 -0.06682068
000100 9a c7 78 3d b0 4a dc bd da a9 13 3e 71 a7 38 3d
       0.06073723 -0.10756433 0.14420262 0.04508156
000110 66 4e cc 3a 09 68 c9 3d 06 78 dd bc a4 a0 56 bd
       0.0015587329 0.09834296 -0.02703477 -0.052399293
000120 7f f2 23 be 7b bf 61 bd 74 d3 23 bd e9 75 0a be
       -0.16010474 -0.05511425 -0.03999658 -0.13521542
000130 be cb 1b be 34 84 c7 bd 3e f7 ad 3c f7 93 d0 3d
       -0.1521444 -0.097420126 0.021236058 0.10184472
000140 df d2 3c 3d 21 c7 5d bd 4f 12 e6 3d 15 1c ff bd
       0.04609954 -0.054144982 0.11233961 -0.12456528
000150 84 fd 24 3c 52 93 7f bd 81 10 1a be d7 55 8d bb
       0.010070208 -0.062396355 -0.15045358 -0.0043132114
000160 c1 bc 1a 3e 2b a2 09 be 40 d2 de 3d e9 ae e7 3c
       0.15111066 -0.13440768 0.10879946 0.028281646
000170 ae c4 5a 3c 89 d0 b7 bd e9 49 1e 3d 85 b5 3b bd
       0.013352556 -0.08975322 0.038644705 -0.045827407
000180 60 ca da 3d b9 9d 5f 3d dd 32 d2 bb 9a d1 33 bd
       0.10683131 0.054593775 -0.006414755 -0.043901064
000190 61 7e 80 3d af 75 04 3e 0d 68 d0 bd 4b c2 14 be
       0.06274105 0.12935518 -0.10176096 -0.14527242
0001a0 cb 24 cf 3d 4a a0 c8 3d 86 ff 92 3d 1c 72 5e 3d
       0.101144396 0.09796198 0.071776435 0.054308042
0001b0 0b 5b 7d 3d df cc 0c 3b 36 13 2b 3d 4c 10 13 be
       0.061854403 0.0021484417 0.041766368 -0.14361686
0001c0 93 f9 a8 bd f5 1f 96 3d 68 99 96 bd 0e ed c8 bd
       -0.082507275 0.07330314 -0.07353479 -0.098108396
0001d0 19 79 16 be 1c df ec bc 27 27 f1 3d d1 81 be 3d
       -0.14694633 -0.02891498 0.11775046 0.09302104
0001e0 11 e7 d6 3d f7 88 0c be 1d 9e de bb 9c 3a 75 3d
       0.10493291 -0.13724123 -0.006793751 0.059870347
0001f0 11 0a de 3d 36 04 82 3d e8 ec c4 bd 15 34 ee 3d
       0.10841764 0.063484594 -0.09615499 0.116310276
000200 2f d8 bf 3d 4a 87 a3 3d 22 24 02 3c 22 33 9b 3d
       0.093674056 0.07984789 0.007943185 0.07578112
000210 ff 25 41 3d 02 01 dc 3d 53 76 9f bd fa 78 1a bd
       0.047155377 0.1074238 -0.077862404 -0.03771303
000220 4f 2c ae 3d a2 3a 1c be f5 92 29 3e ea 2b 03 be
       0.08504545 -0.15256742 0.16559966 -0.1280972
000230 8e ee 9f 3d 89 af d0 3c c9 03 cc 3b ef 64 d8 bd
       0.078091726 0.025474327 0.006226037 -0.105661266
000240 28 42 8c bd 66 cc bd bd 70 68 dc 3d 98 6b 27 3d
       -0.06848556 -0.092675015 0.10762107 0.040874094
000250 27 1a 00 bd 68 eb 52 bd fd 84 11 be 41 65 45 3d
       -0.03127494 -0.051494032 -0.14210887 0.048192266
000260 2a 6f cc bd f3 b2 bb bd d1 08 09 bd c5 db 14 3e
       -0.0998214 -0.09164991 -0.033455674 0.1453696
000270 1a 9d 14 be 94 81 d5 3d 45 bc b1 3d 07 b0 5c 3d
       -0.14513054 0.10425106 0.08678488 0.05387881
000280 fa 1c 03 3d dd 3a 17 3a 05 9e 23 bd 1a 35 f8 3d
       0.032010056 0.0005768964 -0.03994562 0.12119503
000290 1a 09 cb 3d 8b 92 93 3d 34 d5 af bd 31 a3 bb bc
       0.09913845 0.07205685 -0.08585587 -0.022904964
0002a0 d3 85 b5 3d d5 07 27 be 68 67 6c bc 1b 7c 03 3d
       0.088634156 -0.16311581 -0.014428951 0.032100778
0002b0 a1 d3 28 bd ab ad 93 3d f2 f8 ff bd 27 e9 95 bd
       -0.04121745 0.07210859 -0.124986544 -0.07319861
0002c0 15 c5 da bc 8b 68 0a 3c 99 ee fd bc 16 ac 05 3e
       -0.026705304 0.008447777 -0.030997561 0.13053927
0002d0 ca d2 03 bd 45 7e 30 3d 19 98 8a bc ab ff b9 3d
       -0.032183446 0.04308917 -0.016918229 0.09081968
0002e0 bb 32 f4 3d 4a 9b 42 3c 82 7e 56 3b 2a f3 eb 3d
       0.119237386 0.011877844 0.0032729213 0.11520989
0002f0 07 5c d8 3d f8 af 54 bd 29 d2 83 3d a7 18 18 3d
       0.10564428 -0.05192563 0.06436569 0.037132885
000300 85 2a 87 3d c9 cf 0c 3e d6 da 71 3c a8 74 8f bd
       0.06599907 0.13751139 0.014761647 -0.07004672
000310 70 8b c1 bb 67 6d d6 3d a6 91 31 3d 6f 6f e5 bd
       -0.005906515 0.104700856 0.04335179 -0.11202895
000320 93 8f 1c 3d 92 e1 9e 3d 4c 48 07 3e 67 8b fe 3d
       0.03822286 0.07757868 0.13211173 0.12428933
000330 5d 56 81 3d 08 bc 1a 3e 46 ea cb 3d 12 5e f7 bc
       0.063153006 0.1511079 0.099567935 -0.030196223
000340 da 54 f6 bd 69 dd 0f 3e 97 7e 22 3b f1 30 33 bd
       -0.12027903 0.14049305 0.0024794692 -0.043747846
000350 01 8d 2f bc e2 79 97 bd 60 d8 45 3d 7d 06 41 bc
       -0.01071477 -0.07396294 0.048302054 -0.011781332
000360 2e 16 e6 3d f4 68 09 bc ae 3b 81 3c 00 26 05 3e
       0.11234699 -0.008386839 0.015775528 0.13002777
000370 0f ba 58 3d ba bd 42 3d 71 4e 29 3e ac 80 d2 3d
       0.052911814 0.04754422 0.1653383 0.102784485
000380 72 5d 12 3d 8f 40 c3 bd bb ca f2 bd 06 55 6f 3d
       0.035733648 -0.09533798 -0.11855074 0.058430694
000390 d0 50 7f bd 7f 2a 1f 3c 51 c6 4e 3b 1d 7e 15 3e
       -0.06233293 0.009714722 0.0031551311 0.1459889
0003a0 c8 e7 17 bb 81 0c a3 3d dd ca c6 3d fd 40 96 bd
       -0.0023178924 0.07961369 0.09706662 -0.07336614
0003b0 80 30 b1 bd 00 85 7b 3d 21 68 24 3e 5d 98 cf 3d
       -0.08651829 0.061406136 0.16055347 0.10136483
0003c0 46 9d 09 3e 0d 13 88 3d 86 2e 02 be 68 ce cf bd
       0.13438901 0.06644259 -0.1271306 -0.10146791
0003d0 17 20 e5 3d 3b c3 31 3d 7c 4e 21 3e 6c b3 df bd
       0.11187761 0.043399077 0.15752596 -0.10922894
0003e0 93 af 8c 3d 49 ed fd bb 39 81 d5 3b 1b 2a b2 3c
       0.068694256 -0.007749234 0.0065156487 0.021748593
0003f0 6b 58 22 be 6a 45 01 be 69 5e 4d bd b3 d9 87 bd
       -0.15854041 -0.12624136 -0.050138865 -0.0663332

fc1.bias f4 [20]
000000 c0 87 4c bc 08 bb 31 3d 5b 30 dd bc 0e df be bc
       -0.012483537 0.043391258 -0.027000597 -0.02329972
000010 aa 9d 71 bd 07 f1 cf bc 19 59 24 bc d6 d3 50 bd
       -0.05898825 -0.025383485 -0.010031008 -0.050983272
000020 2d 6a d7 bc 07 d9 f2 3c 37 53 8a bc 1a e1 7a bc
       -0.026295746 0.029644502 -0.016885383 -0.015312457
000030 d9 ab 8b 3d 77 ac 8b 3d 3a fa 6a bb ea e3 ec ba
       0.06819887 0.068200044 -0.0035854713 -0.0018073295
000040 50 cc 4c 3d 03 53 66 bd 89 a6 9c ba 47 a2 9e 3c
       0.049999535 -0.05623151 -0.0011951487 0.01936449

fc2.weight f4 [20, 20, 1]
000000 9d 6a 01 be fe 3a 2b 3d 43 06 54 3b 0b 9c bb 3e
       -0.12638326 0.041804306 0.0032352365 0.3664249
000010 33 12 d9 3e f0 bc a6 be 6e 31 60 bd bd f0 97 3e
       0.42396697 -0.32566023 -0.05473464 0.29675856
000020 77 5d 8e 3c 48 d6 95 be f6 e6 8d be 8d 98 4a 3e
       0.017378552 -0.29265046 -0.27715272 0.19784756
000030 76 59 ba 3e 7d 06 3b 3e dc 98 db 3d dd e0 b7 be
       0.36396378 0.18264194 0.10722515 -0.35913745
000040 f4 de 98 3d 8c 00 7c 3e 69 e4 98 be c6 4d f1 bd
       0.074644 0.24609584 -0.29861763 -0.11782412
000050 5c de 73 3d 59 3f c3 bd a4 46 11 be 16 54 a1 be
       0.05953823 -0.09533567 -0.14187104 -0.31509465
000060 fa 73 96 bd 84 3f 8b bd 18 31 3a 3e b7 86 9e be
       -0.073463395 -0.06799224 0.1818279 -0.30962154
000070 30 d2 15 be 88 85 c9 3c 39 d0 a3 3e fc e9 aa be
       -0.14630961 0.024599805 0.319948 -0.3338164
000080 cc f5 43 be 4b 89 96 be 99 3d 6a 3e 3e 13 43 be
       -0.19136733 -0.2940162 0.2287506 -0.19050309
000090 cc 57 92 be f3 3c 4d bb a0 c2 8f bc 07 d2 46 3e
       -0.2858261 -0.0031316846 -0.01754886 0.19416057
0000a0 fa 37 97 bb a6 05 76 3e b6 33 a2 3e ca ea ad be
       -0.004614827 0.24025592 0.31680077 -0.33968192
0000b0 00 bd 73 be 5b 03 c0 be 12 a0 bf be ba 65 80 3e
       -0.23802567 -0.3750256 -0.3742681 0.2507761
0000c0 65 f9 92 3e 2e df 8d be 43 55 87 be a1 38 8f 3e
       0.28705898 -0.27709335 -0.26432237 0.27972892
0000d0 52 cb 0a be a3 50 72 be 63 90 40 be be 3b 96 3e
       -0.13554123 -0.23663573 -0.18805079 0.29342455
0000e0 88 87 28 3d 57 0c e5 bd f5 c0 d2 3d 35 4b a7 3e
       0.041144878 -0.11183994 0.1029071 0.32674566
0000f0 ec dd 68 3e 4f b7 02 3e a6 c8 89 be 68 36 87 be
       0.22740906 0.12765239 -0.26910895 -0.26408696
000100 11 90 a5 be d2 a8 a2 3e a7 c9 99 be 7a 5b 29 bd
       -0.32336476 0.31769425 -0.3003666 -0.041347004
000110 72 07 ad 3e 2d f0 5f be 7f 77 de bd a7 30 c3 3e
       0.33794743 -0.21868964 -0.10862636 0.38123056
000120 33 8b 25 3d 91 fe 9c be 37 3d b1 3d 05 56 87 be
       0.040415954 -0.3066297 0.08654254 -0.26432815
000130 16 23 42 be bc 2d 81 be 10 5f 61 be 1a 63 b6 be
       -0.18958697 -0.25230205 -0.2200892 -0.35622483
000140 74 c0 f2 3d fb 37 45 be d1 23 5a be ce 68 08 be
       0.11853114 -0.19259636 -0.21302725 -0.1332123
000150 44 cb 7e be dc 51 4c 3e 2d 40 56 be 45 2f 99 3d
       -0.24882227 0.19953102 -0.20922919 0.07479719
000160 15 f8 7c be 72 b2 95 3d c8 e4 82 3e 41 71 13 3e
       -0.24704011 0.07309426 0.2556517 0.14398672
000170 89 b6 af be 3c 6f 11 be 1a 60 dc bd 61 0d 64 be
       -0.3431895 -0.14202589 -0.107605174 -0.22270729
000180 bb ce ba 3e 27 b7 87 3e 22 fe ff 3d 53 17 27 3d
       0.36485848 0.26506922 0.12499644 0.040793728
000190 1a 28 0f 3e 34 87 97 bc 9e 48 a9 bc 85 d6 1c be
       0.13980141 -0.018497087 -0.02066451 -0.15316208
0001a0 f2 54 b0 be e5 f7 b4 3e ab 7c 0e bc e6 63 44 3c
       -0.34439808 0.3534538 -0.008696715 0.011986708
0001b0 b3 82 6e bd 51 25 c9 bd 91 7d 9e 3e 18 14 be 3e
       -0.058230113 -0.09821571 0.30955175 0.37124705
0001c0 7f 1c 52 3e 51 d1 c2 be 8a 27 c3 be 6a a2 81 bd
       0.20518683 -0.3805032 -0.38116103 -0.06329806
0001d0 30 8d 9d 3e 42 22 13 3e dd 81 ce bd 75 4a 80 3d
       0.3077178 0.14368537 -0.10083363 0.062642016
0001e0 a0 1a b6 be dd f2 b6 be d6 1c ad be e9 6f 9e 3e
       -0.35567188 -0.35732165 -0.33811063 0.30944756
0001f0 21 b9 ba 3e 1d 22 0c be ef bb 46 bc a2 27 8c 3e
       0.36469367 -0.13684888 -0.012129768 0.27373987
000200 27 c7 a7 3e 41 99 de bd 3c 8e 7d bc 6a d1 4a bd
       0.3276913 -0.108690746 -0.015475806 -0.04951612
000210 6c ab 49 be 40 51 09 3e 9d 61 fa 3d e9 bd 76 3e
       -0.19694299 0.134099 0.122256495 0.24095882
000220 91 d3 dd bd a3 1d 11 be b3 de dd bc a3 99 ec 3b
       -0.10831369 -0.14171462 -0.02708373 0.0072204634
000230 85 06 32 be 81 65 b8 3c a7 82 9d be d0 a4 4b be
       -0.173853 0.022509338 -0.30763742 -0.1988709
000240 0a a0 ca bd c2 8a 9a bd 4d b9 2a 3e f6 1a 18 be
       -0.09893806 -0.07545997 0.16672249 -0.14854035
000250 05 0b 82 be a4 fc 78 3e 3b 73 12 3e ed 33 ae 3d
       -0.25399032 0.24315125 0.1430177 0.08505998
000260 a6 86 67 3e 9a 8c 60 3e e4 0a b4 be a5 21 87 3e
       0.22609958 0.21928635 -0.3516456 0.26392856
000270 a9 04 b8 be 70 c1 91 bd 09 0b 1f bd d3 00 e3 3c
       -0.35941055 -0.071169734 -0.038828883 0.027710354
000280 a2 14 9e bc cd 01 b7 be a2 2a f6 3c 91 83 9b 3e
       -0.019296948 -0.3574356 0.030049626 0.30373815
000290 9e c6 25 be 29 1c 8f be 57 a4 82 3e 7f b2 0d 3e
       -0.16189048 -0.27951172 0.25516006 0.13837622
0002a0 bd c3 6e bc 8d 84 51 3d 43 9b 6e bd 79 8b 5d 3e
       -0.014573035 0.0511518 -0.058253538 0.21635236
0002b0 3b ac d8 bc 3b 8f 23 bd 89 6a 4c be 91 10 95 3e
       -0.026449313 -0.039931517 -0.19962515 0.29114202
0002c0 7a 47 6d 3e 6d b2 52 be c8 32 61 3e bc 0c 99 3e
       0.23171797 -0.20575877 0.21992028 0.29892528
0002d0 50 30 92 be 03 a0 91 3e 26 9b 9b 3e cc 4c 74 be
       -0.28552485 0.28442392 0.30391806 -0.2385742
0002e0 cf 3f e9 bd cf c3 81 bd cb 22 65 3e 8b d1 27 3e
       -0.11389124 -0.06336176 0.22376554 0.16388528
0002f0 0d 7b c9 3c 18 dc ad be 61 ad 55 be bd 6f 17 3e
       0.024594808 -0.3395698 -0.2086692 0.14788719
000300 ae b3 a7 be 49 5e 8f be c4 3f ab 3d 78 77 08 3e
       -0.32754272 -0.2800162 0.08361772 0.13326824
000310 12 6d 86 3e 81 95 af be 58 65 bd be 4b 28 70 3e
       0.2625509 -0.3429375 -0.36991382 0.2345287
000320 90 04 4c 3e 8a 20 9c be 19 e0 ad bd 1a cf b0 be
       0.19923615 -0.30493575 -0.08490009 -0.34533006
000330 b8 02 62 3d fd 31 05 bc d6 aa 1e be 7c b1 dc 3d
       0.055178374 -0.008129594 -0.15494856 0.1077604
000340 93 be d4 3c a3 4d 3d be 88 e6 18 bd 87 d9 02 3e
       0.02596978 -0.18486647 -0.037329227 0.12778293
000350 26 ad 96 3e 21 ec 9b ba 98 7f 8a be fa ce 5f be
       0.29428977 -0.0011895933 -0.2705047 -0.21856299
000360 f8 28 64 3e 43 da b3 be 4c b8 b7 3d 77 24 a0 3e
       0.22281253 -0.35127458 0.08970699 0.3127782
000370 89 d8 24 3e 5b c6 b5 3e ac 96 2b 3e b1 67 93 3e
       0.16098227 0.35502896 0.16756696 0.28790048
000380 61 0a b2 be 12 8b 45 3e dc 8f 8d be 05 89 18 3e
       -0.34773543 0.19291332 -0.27648818 0.14896019
000390 a6 fe b4 3e 7b 54 98 bc e3 fb b8 3e b8 8c 96 3b
       0.3535053 -0.01859497 0.36129674 0.0045944117
0003a0 9c 29 b5 be 65 0b 9a 3d f7 89 74 3e b7 4f c7 be
       -0.35383308 0.075217046 0.23880754 -0.38928005
0003b0 0a 1a 95 be 68 32 1d be bf 0a d8 3d c9 c6 a6 3e
       -0.2912143 -0.1535126 0.10548925 0.32573536
0003c0 7d 4d 9e 3e ee 1d 90 be 9a eb 6f 3d 84 10 63 3e
       0.30918494 -0.28147835 0.058574297 0.22174269
0003d0 49 f1 80 be 84 ac b7 3e e0 fb 81 be 03 28 41 be
       -0.25184086 0.35873806 -0.25387478 -0.1886292
0003e0 6b 66 83 be cc 46 8a be 1c ad 37 3e 00 38 f3 3b
       -0.25664076 -0.2700714 0.1793713 0.007422447
0003f0 d4 cd b5 be d9 80 38 be 68 83 49 3e 39 a2 40 be
       -0.35508597 -0.18017901 0.19679034 -0.18811883

fc2.bias f4 [20]
000000 7e 5b de 3c ef be cc 3d 85 61 0b be 8d ff 56 3d
       0.027143236 0.09997355 -0.1361142 0.052489806
000010 75 53 be 3d cb fc 83 be ac 0d 0e be 1a 21 fa 3d
       0.09293262 -0.25778803 -0.13872403 0.12213345
000020 1f 25 51 3d 8f 79 0f 3e 95 14 7d bd 95 d1 55 3d
       0.051060792 0.14011215 -0.061787207 0.052201826
000030 3f 53 17 be 07 9c 0e be 5c a6 d6 bd cb cb 58 be
       -0.1477785 -0.13926707 -0.10480949 -0.21171491
000040 df 71 02 be 95 5d 7e be 59 bb 41 be 66 9c ba bd
       -0.12738751 -0.24840386 -0.18919124 -0.09111862

fc3.weight f4 [1, 20, 1]
000000 d5 7c e7 bd 99 3a ff 3e 33 e5 a3 3e b6 ae 1e 3e
       -0.11303107 0.49849394 0.32010803 0.15496334
000010 cb 08 65 bc bb 76 78 be 62 99 4e be 94 a4 2d be
       -0.013979147 -0.24264042 -0.20175698 -0.16957313
000020 06 7f 24 be 7b 3d cc be 5d 08 5c 3e 61 b7 89 be
       -0.1606408 -0.39890656 0.21487565 -0.2689772
000030 01 14 32 be 98 c4 cb 3e da 0e 3f 3e ae f0 ac be
       -0.17390443 0.39798427 0.18658009 -0.33777374
000040 47 9f 04 be cf 5d b1 3d 71 5e 67 3d a3 a2 e2 bd
       -0.12951384 0.08660471 0.05648655 -0.11066177
