SoSDP/actor.pt (torch, 739908 bytes, 14 tensors)

static_encoder.conv.weight f4 [128, 9, 1]
0	0xbe02504c	-0.12725943
1	0x3e06ff37	0.13183294
2	0x3dca8110	0.09887898
3	0xbd459055	-0.04823335
4	0x3c8d0dc1	0.017218472
5	0xbe5f184f	-0.21786617
6	0xbe2ab6a1	-0.1667123
7	0xbcba4f0e	-0.022742774
8	0xbd22c09d	-0.03973447
9	0x3cb83ae7	0.022489024
10	0xbc4e0014	-0.012573261
11	0x3c704466	0.014664745
12	0x3e151a2d	0.14560767
13	0x3dfb62a9	0.12274677
14	0x3e43e29e	0.19129416
15	0xbea59a0d	-0.32344094
16	0xbda4aaa3	-0.08040359
17	0xbe7f7c9a	-0.24949875
18	0x3dd338c2	0.1031356
19	0xbdff720a	-0.12472923
20	0xbe02d422	-0.12776235
21	0x3cb3c613	0.021945035
22	0xbd34ad3e	-0.04411053
23	0xbcb2dbfb	-0.02183341
24	0x3e953877	0.29144642
25	0x3d9f51dd	0.07779286
26	0xbe5b1a47	-0.21396743
27	0x3dcf7a0b	0.101307
28	0xbb8a9cae	-0.0042301035
29	0x3dcd223a	0.10016294
30	0xbdb67c1b	-0.0891039
31	0x3cb5c1f2	0.022187207
32	0xbd72619e	-0.059175126
33	0xbe6fb0e6	-0.23407325
34	0xbdc229cd	-0.09480629
35	0x3e5ce46e	0.21571514
36	0x3b630229	0.0034638739
37	0x3dba6810	0.091018796
38	0xbe5898c5	-0.21152027
39	0x3dc83806	0.097763106
40	0x3df93170	0.121676326
41	0x3e2bd4ff	0.1678047
42	0x3cf5a5ea	0.02998634
43	0x3d8d7a33	0.06908073
44	0x3cc08861	0.02350253
45	0xbe298bf5	-0.16557296
46	0x3d38c054	0.045105293
47	0x3e2fbdf6	0.17162308
48	0x3db8a93f	0.09016656
49	0x3e2018f1	0.15634514
50	0xbe1abf78	-0.15112102
51	0xbe8109ed	-0.25202885
52	0xbe8451f9	-0.2584379
53	0x3e81c350	0.25344324
54	0xb9719094	-0.0002303741
55	0xbcba713b	-0.02275907
56	0xbe058f41	-0.13042928
57	0xbdf813ef	-0.12113177
58	0x3e8e9af5	0.27852598
59	0xbe58da35	-0.2117699
60	0x3b8079d8	0.003920775
61	0x3e55bada	0.2087206
62	0x3e29ee54	0.16594821
63	0xbc8e20cc	-0.017349623
64	0xbdde2c4f	-0.10848295
65	0x3b75a978	0.0037485044
66	0x3dc2d674	0.0951356
67	0x3e117728	0.14205611
68	0x3e48a8b8	0.19595611
69	0x3e5f6d20	0.21818972
70	0xbc148013	-0.009063738
71	0xbe9c5d65	-0.30540004
72	0x3dcb5223	0.09927776
73	0x3d28377d	0.041068543
74	0xbe12ffce	-0.14355394
75	0x3da572c0	0.080785275
76	0x3dbb4daf	0.09145676
77	0x3d9bc43e	0.076057896
78	0x3d315ed4	0.043303326
79	0xbe593419	-0.2121128
80	0xbd505643	-0.050863516
81	0xbe34ab80	-0.17643547
82	0x3dfb2a2e	0.122639045
83	0x3cfbc639	0.030734168
84	0xbc9e35f0	-0.019312829
85	0xbe6ebe3e	-0.23314759
86	0x3e129620	0.1431508
87	0x3e122d97	0.14275204
88	0x3e6648c9	0.22488703
89	0x3e241422	0.16023305
90	0x3e1fbb5d	0.15598817
91	0xbdb6f4d3	-0.08933415
92	0xbda375f9	-0.07981486
93	0xbdd51e9c	-0.10406229
94	0x3e8f4378	0.27981162
95	0x3d5142aa	0.051088966
96	0xbe6faf26	-0.23406658
97	0xbe028eeb	-0.12749831
98	0xbce345af	-0.027743189
99	0x3e10e27a	0.14148894
100	0x3dd1372c	0.10215601
101	0x3e033c68	0.12816012
102	0xbe127345	-0.14301784
103	0x3d423b86	0.047420047
104	0x3dee080a	0.11622627
105	0xbe67524c	-0.22589988
106	0x3e204169	0.15649952
107	0xbe9d29ba	-0.30695897
108	0x3d6e36e5	0.05815782
109	0xbc54a3da	-0.012978518
110	0x3d8417a5	0.06449822
111	0xbb2985c2	-0.002586708
112	0x3e080efa	0.13286963
113	0xbe3d2cba	-0.18474093
114	0x3c3d1c22	0.011542352
115	0x3d432b0c	0.047648475
116	0x3e2b5638	0.16732109
117	0xbe2ff547	-0.1718341
118	0xbe0686a4	-0.13137299
119	0x3df43156	0.119234726
120	0x3dab24c6	0.08356623
121	0x3e458150	0.1928761
122	0x3dcb6360	0.09931064
123	0x3cf537d3	0.029933846
124	0xbe1d4b9b	-0.15360872
125	0x3e29f204	0.16596228
126	0xbe43e797	-0.19131313
127	0xbd3208b8	-0.043465346
128	0x3e0690c5	0.13141163
129	0x3e088f8f	0.13336013
130	0x3a34072b	0.0006867523
131	0xbe17c564	-0.14821392
132	0xbdfd55bd	-0.12369869
133	0xbc65d172	-0.014026986
134	0x3e86471b	0.26226124
135	0x3d93d667	0.072186284
136	0x3dd1826a	0.10229953
137	0xbdce4be6	-0.1007307
138	0xbcdcd810	-0.026958495
139	0xbdee8e38	-0.1164822
140	0x3e05d901	0.13071062
141	0x3dd0bb2b	0.101919495
142	0x3e38be2e	0.18041298
143	0xbeb25b07	-0.34835073
144	0x3b9b510d	0.0047398866
145	0xbcf73922	-0.03017861
146	0x3b03c2cf	0.0020105129
147	0xbc29299d	-0.010324863
148	0x3d19a1d7	0.037507858
149	0x3d30c991	0.04316098
150	0xbe859f6b	-0.2609819
151	0x3e789df8	0.2427901
152	0x3e1515b8	0.14559066
153	0x3e0047d1	0.12527396
154	0x3d94badd	0.07262204
155	0xbd350d37	-0.044202056
156	0xbdf00758	-0.11720151
157	0x3df777bf	0.12083387
158	0x3d73bdc8	0.05950716
159	0xbd498e25	-0.049207825
160	0x3d2d100b	0.042251628
161	0xbea88117	-0.32910988
162	0xbd795cf9	-0.06087968
163	0xbe22fc24	-0.15916497
164	0x3e269a2b	0.16269748
165	0xbd8a4c1a	-0.067527965
166	0xbde6e6b7	-0.11274474
167	0x3e9e1ea2	0.30882746
168	0xbe706c56	-0.23478827
169	0x3e52e4a2	0.20595029
170	0xbc6fc279	-0.014633768
171	0xbcc8c573	-0.024508214
172	0xbdaf3829	-0.085556336
173	0x3daee025	0.08538846
174	0x3d9a6c64	0.07540205
175	0xbd242b42	-0.040080316
176	0xbd93e710	-0.07221806
177	0xbd20f3af	-0.039294895
178	0xbe7bbbc7	-0.2458335
179	0x3ee04a57	0.43806717
180	0x3e05b6db	0.13058035
181	0x3e1b6159	0.15173854
182	0xbce4db11	-0.02793649
183	0xbe146fdc	-0.14495796
184	0xbe3de365	-0.18543775
185	0x3cdf3b69	0.027250009
186	0xbe80c56f	-0.2515063
187	0xbe2a02f5	-0.1660269
188	0x3e7edb8f	0.24888442
189	0x3d7746c1	0.06037021
190	0xbd48c8dd	-0.049019683
191	0x3e0bd772	0.13656405
192	0xbd9f6da1	-0.07784582
193	0xbead1571	-0.3380542
194	0x3d70aaf1	0.058756772
195	0xbd73353c	-0.05937694
196	0x3e8e45e3	0.27787694
197	0x3cb31166	0.021858882
198	0xbe1cb215	-0.15302308
199	0x3e019d56	0.12657675
200	0x3d6b51c1	0.057451013
201	0xbdc03254	-0.09384599
202	0x3e7c4a98	0.2463783
203	0xbead2e0b	-0.3382419
204	0xbe4297f5	-0.1900328
205	0x3e92bf7e	0.28661722
206	0x3c51893f	0.01278907
207	0x3dcd0213	0.10010161
208	0xbd8749f1	-0.066059
209	0xbdf18e3c	-0.11794707
210	0x3ba9e793	0.0051850765
211	0x3cd6ffcb	0.026245018
212	0xbbdaebb4	-0.00668093
213	0x3e4e5fd3	0.20153742
214	0xbe851db3	-0.2599922
215	0x3ddf8c98	0.10915488
216	0xbc88314e	-0.016625073
217	0x3da3c791	0.07997049
218	0x3d876de7	0.06612759
219	0xbdef251f	-0.11677002
220	0x3e2aa949	0.1666614
221	0xbea703ff	-0.32620236
222	0xbe23566d	-0.15950938
223	0x3e0a5450	0.13508725
224	0x3e669ade	0.22520015
225	0x3e055c44	0.13023478
226	0xbda44176	-0.08020298
227	0xbdd57b88	-0.10423952
228	0xbd2e4abd	-0.042551745
229	0x3e790fb5	0.24322398
230	0x3e791d7f	0.24327658
231	0x3e191e51	0.14952971
232	0x3db6928f	0.089146726
233	0xbebcfc04	-0.36911023
234	0x3e046abe	0.12931344
235	0x3d566f38	0.05235216
236	0xbe26c8e5	-0.16287573
237	0xbdeed004	-0.116607696
238	0xbe26bbb6	-0.16282544
239	0x3e80cafa	0.2515486
240	0x3e127e1a	0.14305916
241	0xbe11cb4f	-0.14237712
242	0xb815d66d	-3.5724068e-05
243	0x3d12de8d	0.035856772
244	0xbdba2cd9	-0.09090585
245	0xbdd85fb1	-0.10565127
246	0xbdacab21	-0.08431078
247	0x3e951c61	0.29123214
248	0xbdf434e5	-0.11924151
249	0x3e1900be	0.1494169
250	0xbe42c660	-0.19020987
251	0x3e39dc23	0.18150382
252	0x3db65ba4	0.08904198
253	0x3d7f2d07	0.0622988
254	0x3d8cf426	0.06882505
255	0xbd7d6592	-0.061864443

static_encoder.conv.bias f4 [128]
0	0x3e83fcd2	0.25778824
1	0xbe1aa6d6	-0.15102705
2	0x3e4fb23d	0.20282836
3	0x3dd7fca2	0.10546233
4	0xbe136edc	-0.14397758
5	0x3e8fe6cc	0.28105772
6	0xbd5ff094	-0.054672793
7	0xbe288220	-0.16455889
8	0xbea91d56	-0.33030194
9	0xbe3c0e24	-0.18364769
10	0x3e1c8d2f	0.15288232
11	0x3e155878	0.1458453
12	0xbeba94f1	-0.36441758
13	0x3e368b05	0.17826469
14	0xbe0dccb1	-0.13847615
15	0x3cff2a0b	0.031147977
16	0xbe60cf83	-0.2195416
17	0xbe7ee98c	-0.24893779
18	0xbcf6abb9	-0.03011118
19	0xbe266fc1	-0.16253568
20	0xbe8a9db3	-0.2707344
21	0xbea4d5f9	-0.32194498
22	0x3e778dad	0.24175139
23	0xbd827d1e	-0.063715205
24	0x3d8364ce	0.06415711
25	0x3c989f51	0.018630655
26	0xbe818461	-0.2529631
27	0x3e98287c	0.29718387
28	0xbe6660ea	-0.22497907
29	0x3da51ab2	0.08061732
30	0x3dd3afcd	0.10336266
31	0xbe54911c	-0.2075848
32	0xbe18978f	-0.14901565
33	0xbe201f15	-0.15636857
34	0xbdec1fd0	-0.11529505
35	0x3e844ed5	0.25841394
36	0xbcc3fb2f	-0.023923485
37	0x3ea9168c	0.33025014
38	0xbe347cad	-0.17625685
39	0xbe176053	-0.14782839
40	0xbd7cca7a	-0.061716534
41	0x3d8041dc	0.06262562
42	0x3ea3f592	0.32023293
43	0x3daf1fb6	0.0855097
44	0x3e961d7d	0.29319373
45	0x3bace0d9	0.0052758274
46	0x3e6159da	0.22006932
47	0xbdfd61d0	-0.12372172
48	0xbe282555	-0.16420491
49	0x3e8d6b0e	0.2762074
50	0x3e9e451e	0.30912107
51	0x3e7ca7fd	0.24673457
52	0xbd65c2b7	-0.056093898
53	0xbe33b457	-0.17549263
54	0x3e3c5efb	0.18395607
55	0x3de31334	0.11087647
56	0x3d75e4da	0.060032703
57	0xbdd1d431	-0.102455504
58	0x3dab364d	0.083599664
59	0xbe962a12	-0.29328972
60	0x3d9438ae	0.07237373
61	0xbeadba5b	-0.3393124
62	0xbdb91826	-0.09037809
63	0x3e77e0f9	0.24206914
64	0x3e88fe7d	0.2675666
65	0xbeafb275	-0.3431584
66	0x3e93db8c	0.28878438
67	0xbc6698e4	-0.014074538
68	0xbe3b57d4	-0.18295223
69	0x3dfd16df	0.12357878
70	0xbe7ff3ff	-0.24995421
71	0xbddc0a55	-0.10744158
72	0x3e63331e	0.22187468
73	0xbeac2caa	-0.33627826
74	0x3d09107f	0.033462998
75	0x3e51aaa5	0.20475252
76	0xbe360c97	-0.1777824
77	0x3e67111d	0.22565122
78	0x3d9d9cd2	0.07695927
79	0x3cea959e	0.028635796
80	0xbe2546af	-0.16140245
81	0x3cb2ce3f	0.021826861
82	0xbddbd935	-0.10734788
83	0x3e92f89e	0.28705305
84	0xbeb5c4b3	-0.35501632
85	0x3cbf42d9	0.023347305
86	0xbd8da26b	-0.069157444
87	0xbe82c406	-0.2554018
88	0x3cc9b213	0.024621045
89	0xbe539776	-0.20663247
90	0xbdc7302b	-0.09725984
91	0xbe20774d	-0.1567051
92	0x3e4fd721	0.20296909
93	0x3e682eac	0.22674054
94	0xbde1dba9	-0.11028225
95	0x3e969f6e	0.2941851
96	0x3e1412db	0.14460318
97	0x3e042900	0.12906265
98	0x3e43e3ca	0.19129863
99	0xbe184aa0	-0.14872217
100	0x3d87a3a7	0.06623011
101	0x3dafacb4	0.085778624
102	0x3d48bcf4	0.049008325
103	0x3c1c03df	0.009522407
104	0xbdf521e4	-0.11969355
105	0x3e7d0478	0.24708736
106	0xbe8358a6	-0.2565357
107	0xbd7ed9cd	-0.06221943
108	0x3d20f96e	0.039300375
109	0xbdc22bee	-0.09481035
110	0xbe8d458a	-0.27592117
111	0x3e881848	0.26581025
112	0xbd4675b2	-0.048452087
113	0x3e745b58	0.2386297
114	0x3ea197e1	0.31561187
115	0x3db28a9e	0.087178454
116	0xbe5efc05	-0.21775825
117	0x3dc3cb4c	0.0956026
118	0x3ca0d697	0.019633574
119	0x3d05d43f	0.032673117
120	0x3e3ec15e	0.18628451
121	0xbd1bf9a0	-0.038079858
122	0xbe3d6430	-0.1849525
123	0xbe6d8d15	-0.2319835
124	0xbd9e5280	-0.077305794
125	0xbe83c8bb	-0.25739083
126	0x3e6785a7	0.22609578
127	0xbd85d6bf	-0.065351

dynamic_encoder.conv.weight f4 [128, 1, 1]
0	0x3dcabba0	0.09899068
1	0x3dd19ee8	0.10235387
2	0x3ad7a980	0.0016453713
3	0x3e1d4de4	0.15361744
4	0x3d1279f8	0.03576085
5	0x3e4cc846	0.19998273
6	0xbe365973	-0.1780756
7	0x3dae3960	0.08507037
8	0xbe0ee0c3	-0.13952927
9	0x3d8fd51c	0.07023069
10	0x3e135cd4	0.1439088
11	0x3e1b8c7a	0.15190306
12	0x3dcc0a48	0.099628985
13	0x3e45744a	0.19282642
14	0x3d7c0af8	0.061533898
15	0xbe0bacc8	-0.1364013
16	0x3d70ec28	0.058818966
17	0x3d78c620	0.06073582
18	0x3da5553c	0.08072898
19	0xbd05af0c	-0.03263764
20	0xbca0c4d8	-0.019625112
21	0x3e228fbc	0.15875143
22	0xbe0f85b6	-0.1401585
23	0x3e328cf2	0.17436579
24	0x3dd7de0c	0.10540399
25	0x3d0c6564	0.03427638
26	0x3e192714	0.14956313
27	0x3e0f5140	0.13995838
28	0x3dd14a34	0.10219231
29	0x3dd1512c	0.102205604
30	0x3dcc00ec	0.09961113
31	0x3dec57a8	0.115401566
32	0xbe46555e	-0.19368502
33	0x3dc31834	0.09526101
34	0xbe4af873	-0.19821338
35	0xbe45794b	-0.19284551
36	0xbdc949b9	-0.098285146
37	0xbe12f74a	-0.14352146
38	0xbe4361db	-0.19080298
39	0x3cc395c8	0.023875132
40	0x3d931a38	0.07182735
41	0x3d4afac0	0.04955554
42	0xbe2fd58c	-0.17171305
43	0x3dbd7234	0.09250298
44	0x3cfe7bf8	0.031064972
45	0x3d905cfc	0.07048985
46	0x3c860928	0.016361788
47	0xbd8f5014	-0.069976956
48	0xbaee9380	-0.0018201917
49	0xbda21d88	-0.07915789
50	0x3da395d0	0.07987559
51	0x3e3a606e	0.18200848
52	0xbce140b8	-0.02749668
53	0xbd5b4f7c	-0.0535426
54	0x3d062984	0.032754436
55	0x3e00fe1e	0.12596938
56	0xbdf57321	-0.1198485
57	0xbe15c23d	-0.14624877
58	0xbd84541c	-0.06461355
59	0xbe170012	-0.1474612
60	0xbdd3d9ce	-0.10344277
61	0xbe151052	-0.14557007
62	0x3cfa79c8	0.030575648
63	0x3dcf10b4	0.10110608
64	0x3e59e580	0.21278954
65	0xbe03dd2c	-0.12877339
66	0x3c939560	0.018015563
67	0xba959a00	-0.0011413693
68	0xbe576fb6	-0.21038708
69	0xbd8256a8	-0.063641846
70	0x3db38948	0.08766419
71	0xbd52b730	-0.051444232
72	0x3e43157c	0.19051164
73	0xbe05f123	-0.13080268
74	0x3d15a0a0	0.036530137
75	0xbd5520b8	-0.052033156
76	0x3db26790	0.08711159
77	0x3e54f5bc	0.20796865
78	0x3dc72d70	0.097254634
79	0x3dce58e4	0.10075548
80	0xbdaaf136	-0.083467886
81	0x3c29b660	0.010358423
82	0x3e25c934	0.16190034
83	0xbd2e2640	-0.042516947
84	0x3e52f972	0.20602968
85	0x3cb10a10	0.021611243
86	0x3d9e4b18	0.07729167
87	0x3e4752a0	0.19465113
88	0xbda33422	-0.07968928
89	0x3d918310	0.07105076
90	0xbe1e51f2	-0.15460947
91	0xbdc43ee6	-0.095823094
92	0x3e5c12d0	0.21491551
93	0xbd6fe454	-0.05856736
94	0x3e1d7072	0.15374926
95	0x3e32a9b6	0.17447552
96	0x3e4e6fc4	0.20159823
97	0x3d29e020	0.041473508
98	0x3d287540	0.041127443
99	0x3c15d570	0.009145126
100	0x3e35e204	0.17762
101	0xbc844f80	-0.01615119
102	0x3db8fdf0	0.0903281
103	0x3d385950	0.04500705
104	0xbae54500	-0.0017491877
105	0x3af22e00	0.0018476844
106	0x3ddc0e84	0.10744956
107	0xbdc61efc	-0.096738786
108	0x3d8484d4	0.064706475
109	0xbe357120	-0.17718935
110	0x3e570472	0.2099779
111	0x3c040d90	0.008059874
112	0xbe13e22a	-0.14441743
113	0xbd9dfc76	-0.07714169
114	0x3df41ff4	0.11920157
115	0x3e4b69f4	0.19864637
116	0x3cd6ba30	0.026211828
117	0x3e376314	0.17908889
118	0xbd6a4e34	-0.057203487
119	0xbd934738	-0.07191318
120	0x3c186300	0.009300947
121	0xbc5db430	-0.01353173
122	0x3d9f6a88	0.07783991
123	0x3cd2d228	0.025734976
124	0xbd163ac0	-0.036677122
125	0x3d9727c4	0.073806316
126	0x3ded2d70	0.11580932
127	0x3e1f0060	0.15527487

dynamic_encoder.conv.bias f4 [128]
0	0x3ea3a634	0.3196274
1	0xbf7d1c12	-0.98870957
2	0xbe23c1a7	-0.15991841
3	0xbf229f67	-0.6352448
4	0xbf36ce6f	-0.7140874
5	0x3f4d9a12	0.8031322
6	0xbe1ca999	-0.15299071
7	0xbf662de5	-0.8991378
8	0xbed6b107	-0.41931936
9	0xbeca6f05	-0.39537826
10	0xbf32ead2	-0.6988956
11	0x3f2b2a9f	0.6686191
12	0xbe454588	-0.19264805
13	0x3ebed840	0.3727436
14	0x3f706df6	0.9391779
15	0xbdf49d1f	-0.11944031
16	0x3eb7a516	0.35868138
17	0xbec8937e	-0.39175028
18	0xbf40a782	-0.75255597
19	0x3d9dab8e	0.07698737
20	0xbeb5ba75	-0.35493818
21	0xbe7d596e	-0.24741146
22	0x3f4021d1	0.750516
23	0xbe3e1b14	-0.18565017
24	0x3e908ebb	0.28233895
25	0x3d82f54f	0.06394445
26	0x3d3452a0	0.04402411
27	0xbdafc78f	-0.08582985
28	0x3f47b0e1	0.7800427
29	0x3efbb9e2	0.49165255
30	0xbf819c0e	-1.0125749
31	0xbf26dd59	-0.651815
32	0xbebcae1b	-0.36851582
33	0xbef7a964	-0.48371422
34	0xbea4ce15	-0.32188478
35	0xbd7352e4	-0.059405223
36	0xbe47856f	-0.19484495
37	0xbeecf8d2	-0.46283585
38	0x3eb05312	0.34438378
39	0x3d8a0e48	0.06741005
40	0xbf7a54ee	-0.9778584
41	0xbe2d4667	-0.16921388
42	0x3f121a59	0.57071453
43	0x3d823e05	0.063594855
44	0x3f774faf	0.9660596
45	0x3d597316	0.05308827
46	0xbf729ae1	-0.94767576
47	0xbd8080de	-0.062745795
48	0x3ec78d8c	0.3897518
49	0xbf1a5c44	-0.60297036
50	0xbef0e4a1	-0.4704943
51	0xbf4dbb1e	-0.80363643
52	0x3edaf8d9	0.4276798
53	0x3deb0c16	0.114769146
54	0x3e5b4ec0	0.2141676
55	0x3f270508	0.6524205
56	0x3f0ca512	0.5493938
57	0x3f434f54	0.7629292
58	0xbf0c6353	-0.54839057
59	0xbe44d3e0	-0.19221449
60	0x3f4b001a	0.7929703
61	0xbf252013	-0.64502066
62	0x3e935223	0.28773603
63	0x3e5a83cc	0.21339339
64	0x3f32b828	0.6981225
65	0x3f27953e	0.654621
66	0x3f4e4fdf	0.80590624
67	0xbeb51acd	-0.3537201
68	0xbe52f62e	-0.20601723
69	0x3e0878b3	0.13327293
70	0x3f593c78	0.84857893
71	0x3f6a0bb7	0.91424125
72	0x3f80a949	1.0051662
73	0xbe96aaf6	-0.29427308
74	0xbf51974c	-0.81871486
75	0x3ddbebd5	0.10738341
76	0x3e0c3f34	0.13695985
77	0x3f6aa5b4	0.9165909
78	0xbf60e7b6	-0.8785356
79	0x3ecbfb73	0.39840278
80	0xbe23fd8f	-0.16014694
81	0xbf19afca	-0.6003386
82	0xbdb059a9	-0.08610851
83	0x3ee3868f	0.44438598
84	0x3f6bd321	0.9211903
85	0x3f7627b0	0.9615431
86	0x3f2654a1	0.64972883
87	0xbf763994	-0.9618161
88	0x3f0abe6d	0.54196817
89	0xbf2c3c1a	-0.6727921
90	0xbea3222e	-0.31862015
91	0xbf1af64b	-0.60532063
92	0x3f348748	0.7051892
93	0x3e863e45	0.26219383
94	0xbf7177f7	-0.94323677
95	0x3d5e4527	0.054265168
96	0xbf38b8d7	-0.72157043
97	0x3f80f70c	1.0075393
98	0x3f134e41	0.5754128
99	0xbeb76369	-0.3581803
100	0xbf74f974	-0.95693135
101	0x3f566dff	0.8376159
102	0x3f26d517	0.651689
103	0x3f199d39	0.6000553
104	0x3e74a903	0.23892598
105	0xbe13d88f	-0.1443808
106	0x3e6d6f9a	0.23187104
107	0x3f34203a	0.70361674
108	0x3f68db40	0.9095955
109	0xbf149950	-0.58046436
110	0x3f7f12e3	0.99638194
111	0xbef1d818	-0.4723518
112	0x3f0f8585	0.5606311
113	0x3ef30340	0.47463417
114	0xbea73cd0	-0.32663584
115	0xbebd8e68	-0.3702271
116	0x3f1e1f34	0.6176636
117	0x3d943543	0.07236721
118	0xbf364d84	-0.7121203
119	0x3f4694cd	0.775708
120	0xbf13f904	-0.5780184
121	0xbf7bb0dd	-0.98316747
122	0x3ed667e1	0.41876128
123	0x3d6db5ad	0.058034588
124	0xbf3d384b	-0.7391402
125	0xbf3eb804	-0.74499536
126	0x3ee4c679	0.44682673
127	0x3e192420	0.14955187

decoder.conv.weight f4 [128, 9, 1]
0	0x3d565c0c	0.052333876
1	0x3c0eba7b	0.008711453
2	0x3e28f1c0	0.1649847
3	0xbcd86f29	-0.026420193
4	0x3d884b5e	0.06655
5	0x3c76a03d	0.015052852
6	0x3d824ba1	0.06362081
7	0x3da38971	0.07985199
8	0xbdb23b42	-0.08702709
9	0xbe3fbd88	-0.18724644
10	0xbd89dafe	-0.067312226
11	0xbe1dc432	-0.15406874
12	0x3dae7e65	0.085202016
13	0x3c0c197b	0.008550997
14	0x3d5cc519	0.053898904
15	0xbc42afdb	-0.0118827475
16	0x3c6cf8c2	0.014463605
17	0xbe6b0cf7	-0.22954164
18	0x3c1bccce	0.009509278
19	0x3e234c82	0.15947154
20	0xbd65ae17	-0.05607423
21	0xbdcbab7c	-0.099448174
22	0x3d5e56fa	0.054282166
23	0x3d37a227	0.044832375
24	0xbe34966b	-0.17635505
25	0x3c3cc3cd	0.011521292
26	0x3c1c49e5	0.009539102
27	0x3d32fca7	0.04369798
28	0x3d98b6a4	0.07456711
29	0xbdcc20ab	-0.099671684
30	0x3e188fe8	0.14898646
31	0x3e290a81	0.16507913
32	0xbd855334	-0.0651001
33	0x3e4d4324	0.20045143
34	0x3ddcbdd1	0.10778392
35	0x3d99ac07	0.07503515
36	0x3e6ab43e	0.2292032
37	0x3d8f8426	0.07007627
38	0xbe04d1fc	-0.12970728
39	0x3e20af5c	0.15691894
40	0x3d89c70b	0.067274176
41	0xbbf45dad	-0.007457456
42	0xbdff7559	-0.12473554
43	0x3dde2166	0.10846214
44	0xbdc778ee	-0.097398624
45	0xbe50598e	-0.20346662
46	0xbd2a8c96	-0.04163798
47	0x3daba26e	0.083805904
48	0x3e0006fe	0.12502667
49	0xbdfae3e0	-0.12250495
50	0x3d25bd9a	0.04046402
51	0xbd4f7ccf	-0.050656136
52	0x3b1eb2e3	0.0024215512
53	0xbdc61a39	-0.0967297
54	0x3d4d95a4	0.050191537
55	0xbe3ceaba	-0.18448916
56	0x3c9a9637	0.018870456
57	0xbd8a4d7b	-0.067530595
58	0x3db27899	0.087144084
59	0x3e45501f	0.19268845
60	0x3d53c823	0.051704537
61	0x3e35667f	0.1771488
62	0x3e056d12	0.13029888
63	0x3df8fdd5	0.121577896
64	0x3e0f6f0f	0.14007209
65	0xbde4206f	-0.11138999
66	0x3dfd021c	0.12353918
67	0x3d90e47e	0.070748314
68	0xbc2c41de	-0.010513751
69	0x3e114abc	0.14188665
70	0x3ddf5dd5	0.10906569
71	0xbe6febae	-0.23429748
72	0x3e370068	0.17871249
73	0xbc169a36	-0.00919204
74	0x3e011d29	0.1260878
75	0x3dd7f928	0.1054557
76	0x3de0ffe3	0.109863065
77	0xbe0e980e	-0.13925192
78	0xb94a529d	-0.00019294997
79	0x3db12b32	0.08650817
80	0xbdef4113	-0.11682334
81	0xbe252991	-0.16129138
82	0x3e4742e1	0.19459106
83	0xbdd020ea	-0.10162528
84	0xbe492c93	-0.1964591
85	0x3e14d584	0.14534575
86	0x3e3f0bb2	0.18656805
87	0xbe30cce8	-0.17265666
88	0x3e1e4bf3	0.1545866
89	0x3d6928c7	0.056923654
90	0xbe3db640	-0.18526554
91	0xbd66f5c7	-0.056386735
92	0x3e545c9b	0.20738451
93	0x3dfe6f3a	0.124235585
94	0xbdffbf59	-0.124876685
95	0x3d7567f1	0.05991358
96	0x3df9f1b2	0.12204303
97	0xbd8e1499	-0.069375224
98	0xbe05cd39	-0.13066567
99	0xbd96a5fd	-0.073558785
100	0x3cde6a77	0.027150376
101	0xbe33f9bb	-0.17575733
102	0xbd60638e	-0.054782443
103	0x3e0b47fe	0.13601682
104	0xbe0e6daf	-0.13909028
105	0xbced5433	-0.028970813
106	0xbe536938	-0.20645607
107	0x3d63484f	0.05548888
108	0xbdf4e7ec	-0.11958298
109	0xbd82dd8c	-0.06389913
110	0x3a957400	0.0011402369
111	0x3c8cb441	0.017175796
112	0x3b2ffe27	0.0026854367
113	0x3dc60169	0.09668238
114	0x3dacffbe	0.084472165
115	0xbd50de92	-0.05099351
116	0xbe1357a7	-0.14388905
117	0x3e065e28	0.13121855
118	0x3d0df4a9	0.034657154
119	0xbddfd23b	-0.1092877
120	0xbd98a996	-0.07454221
121	0x3e5c1922	0.21493962
122	0xbc0db79f	-0.008649736
123	0xbd493f29	-0.0491325
124	0xbda7a3e8	-0.081855595
125	0xbd2852df	-0.041094657
126	0x3e0ff3be	0.14057824
127	0xbe5a92be	-0.2134504
128	0xbd9c1404	-0.07621005
129	0x3dac9d85	0.08428482
130	0x3d0ab56a	0.033864416
131	0xbe0343a5	-0.12818773
132	0x3df4c7b7	0.11952155
133	0xbe0ff94f	-0.14059947
134	0x3cd18808	0.02557756
135	0xbdb934bf	-0.09043264
136	0xbe01b633	-0.1266716
137	0xbe40470f	-0.18777107
138	0x3e17a6f9	0.14809789
139	0xbdad48c9	-0.08461148
140	0xbe1f0715	-0.15530045
141	0xbbbd7b76	-0.00578254
142	0x3e4bf263	0.19916682
143	0xbe37559e	-0.17903754
144	0xbe5ec473	-0.21754627
145	0x3d2709ec	0.040780947
146	0x3dd5ae3b	0.104336224
147	0x3de51698	0.1118595
148	0xbe013961	-0.12619545
149	0x3e3f7c9f	0.18699883
150	0x3e3fc777	0.18728434
151	0x3d077019	0.03306589
152	0x3de2ba3d	0.110706784
153	0xbe393291	-0.18085696
154	0xbe0ea067	-0.13928376
155	0xbe5ef387	-0.21772586
156	0x3de34ca9	0.11098606
157	0xbdc406b1	-0.09571589
158	0x3a4a232b	0.0007710929
159	0xbd73c291	-0.059511725
160	0xbde2d6c0	-0.110761166
161	0x3d89e888	0.06733805
162	0x3e4dd763	0.20101695
163	0x3dce83d6	0.100837395
164	0xbc08a7ac	-0.008340757
165	0x3e1b04b0	0.15138507
166	0xbd9ffd61	-0.07812
167	0x3bdcfc21	0.0067439233
168	0x3e402483	0.18763928
169	0x3de27ec7	0.11059337
170	0xbdde5e06	-0.10857777
171	0x3d59d9c9	0.05318621
172	0xbcc9927d	-0.024605984
173	0x3e25e6c1	0.16201307
174	0x3da9e3c1	0.08295394
175	0x3de15cb5	0.110040106
176	0x3e4f44f6	0.2024115
177	0x3e7bef4f	0.24603008
178	0x3e404c17	0.18779026
179	0x3dc7546f	0.09732901
180	0xbde71a8d	-0.11284361
181	0xbd76ebb4	-0.060283378
182	0xbddc142c	-0.10746035
183	0x3d953325	0.07285146
184	0xbbb298d1	-0.005450346
185	0xbd26b621	-0.040701035
186	0xbe17e526	-0.14833507
187	0x3e18769a	0.14888993
188	0x3cfdcd37	0.030981643
189	0x3e350530	0.1767776
190	0xbdceef02	-0.10104181
191	0xbca2b5e2	-0.01986212
192	0x3ca13fbb	0.01968371
193	0x3e0c3006	0.13690194
194	0x3de35f17	0.11102121
195	0xbd2f7219	-0.04283342
196	0xbdd142eb	-0.10217842
197	0xbc291e00	-0.010322094
198	0x3d9086bc	0.070569485
199	0x3e3e37a5	0.18575914
200	0xbe06378b	-0.13107125
201	0x3e3d36fc	0.18478006
202	0xbe483b2a	-0.1955382
203	0x3e3ba478	0.18324459
204	0x3e183517	0.14864002
205	0x3d7f6536	0.06235238
206	0x3e477a48	0.1948024
207	0xbd56383e	-0.05229973
208	0x3c657c4a	0.014006684
209	0x3e1b5870	0.15170455
210	0x3d596f4b	0.053084653
211	0xbe3fc8e4	-0.18728977
212	0x3c0a024b	0.008423398
213	0xbe6c6d81	-0.23088647
214	0xbd8eca99	-0.06972236
215	0x3e058a78	0.13041103
216	0x3da04953	0.078264855
217	0xbe08b2ca	-0.13349453
218	0x3d8eed08	0.06978804
219	0x3d9d2a74	0.07674113
220	0x3e1bd825	0.15219171
221	0xbc6dba54	-0.014509756
222	0xbdc0545a	-0.09391089
223	0xbe1fd60a	-0.15608993
224	0xbe031203	-0.1279984
225	0xbd811f86	-0.06304841
226	0x3cf74abf	0.030187009
227	0x3e4370de	0.19086024
228	0xbdcff3e4	-0.1015394
229	0xbdefbe60	-0.11706233
230	0xbe136aff	-0.14396285
231	0xbd6221c8	-0.055207998
232	0x3c1ba9a3	0.009500894
233	0xbda1dfbd	-0.07904003
234	0xbd6a1d89	-0.057157073
235	0xbd994b58	-0.07485074
236	0xbdc95f5b	-0.09832641
237	0xbe3b0620	-0.18264055
238	0x3e04a78b	0.12954538
239	0xbe2a8dc8	-0.16655648
240	0xbdaaee5c	-0.08346245
241	0x3c0dedbf	0.00866264
242	0x3e282d4c	0.1642353
243	0xbe1250db	-0.14288656
244	0xbe252181	-0.16126062
245	0xbd685907	-0.056725528
246	0x3d19925c	0.037493095
247	0xbe8219c4	-0.25410283
248	0xbc8ab556	-0.01693217
249	0xbe6b4e53	-0.22979097
250	0x3e1e83fc	0.15480036
251	0x3d93cb69	0.07216532
252	0x3c400bfc	0.011721607
253	0xbc93744b	-0.017999789
254	0x3bfbf90f	0.007689602
255	0x3dfbe3af	0.122992866

decoder.conv.bias f4 [128]
0	0xbcf5c6c1	-0.030002
1	0x3cc016bf	0.023448346
2	0x3d4dcf30	0.050246418
3	0x3e8b84ff	0.27249905
4	0xbd446283	-0.04794551
5	0xbdaeaf3a	-0.085295156
6	0x3c506136	0.012718489
7	0x3e82c7ba	0.25543004
8	0xbd5015d8	-0.05080208
9	0xbbeb8db5	-0.0071885237
10	0xbe617cc1	-0.22020246
11	0x3dd7686d	0.105179645
12	0x3e4f4cb6	0.20244107
13	0x3e2ebef7	0.17065035
14	0xbe106cca	-0.14104
15	0xbc6d8682	-0.014497401
16	0x3e062646	0.13100538
17	0xbe1f5158	-0.15558374
18	0x3e4a6fba	0.19769183
19	0xbe31dd0b	-0.17369477
20	0xbea239c4	-0.31684697
21	0xbe2ace60	-0.16680288
22	0xbd5bee76	-0.05369421
23	0x3e8d717d	0.27625647
24	0x3ea442da	0.32082254
25	0xbe481248	-0.19538224
26	0xbe302f4c	-0.17205542
27	0x3d93f121	0.07223726
28	0xbe8af7f8	-0.2714231
29	0xbc76dfc0	-0.015067995
30	0xbd377ab7	-0.044794764
31	0xbe7fc9f6	-0.24979386
32	0x3e954753	0.2915598
33	0x3dd0a80f	0.10188305
34	0xbe8a4c3a	-0.2701128
35	0x3b03a12a	0.0020085075
36	0x3dbb926f	0.09158789
37	0xbe501c7d	-0.20323367
38	0x3e6a2c5d	0.22868486
39	0xbe52216f	-0.20520566
40	0x3c147a3b	0.009062345
41	0xbea4e089	-0.32202557
42	0xbe4d73c5	-0.20063694
43	0xbdf8b6c2	-0.12144233
44	0xbe4b8ba0	-0.19877481
45	0xbe9f784f	-0.31146476
46	0xbdf08e7d	-0.117459275
47	0x3d1cdea4	0.038298264
48	0xbe0aae0d	-0.13542958
49	0xbe1180b6	-0.14209256
50	0x3e9355e1	0.28776458
51	0x3e85087c	0.25983036
52	0xbe72a013	-0.23693876
53	0xbd3d77d5	-0.04625686
54	0xbeb22ca7	-0.34799692
55	0xbdc84d7e	-0.097804055
56	0xbb654bcb	-0.0034987803
57	0xbe97ac2e	-0.2962355
58	0x3e3ff029	0.18743958
59	0xbcdd432c	-0.02700957
60	0x3d308205	0.043092746
61	0x3d46dcee	0.04855054
62	0x3e8d565c	0.2760495
63	0x3dafee26	0.08590345
64	0x3e139faa	0.14416376
65	0xbe4ac164	-0.19800335
66	0xbce2aac9	-0.027669327
67	0xbdc08557	-0.094004326
68	0x3de600fa	0.11230655
69	0x3ea48e58	0.3213985
70	0xbe5ef8b9	-0.21774568
71	0xbe9f9220	-0.31166172
72	0xbead3686	-0.3383066
73	0x3eae526e	0.34047264
74	0xbe065e8e	-0.13122007
75	0xbea7e252	-0.32789856
76	0x3e944ab9	0.2896326
77	0xbdfcfd30	-0.12352979
78	0x3de1f8ab	0.11033758
79	0x3c1421a7	0.0090412265
80	0x3e2189a8	0.15775168
81	0xbe9237dc	-0.28558242
82	0x3ea9468a	0.3306163
83	0x3e110b5f	0.14164494
84	0xbdcab95b	-0.09898635
85	0x3e4e37e4	0.20138508
86	0x3df1e274	0.11810771
87	0xbd6c252a	-0.05765263
88	0x3e2188a2	0.15774778
89	0xbdbb04d2	-0.09131779
90	0xbd6cf1d0	-0.057847798
91	0x3cb3c867	0.021946145
92	0x3dcb0d7b	0.099146806
93	0x3d828d39	0.06374592
94	0xbe11e5ef	-0.14247869
95	0xbdf23751	-0.11826957
96	0xbe65dc96	-0.22447428
97	0xbe6ea421	-0.23304798
98	0xbd834964	-0.064104825
99	0x3d1a621a	0.037691213
100	0xbe9ceab3	-0.3064781
101	0xbea933cf	-0.3304734
102	0x3e6f107c	0.23346132
103	0x3dd4bdd3	0.103877686
104	0x3e17a25e	0.14808032
105	0xbe9e5fa5	-0.30932346
106	0xbea237ca	-0.3168319
107	0xbe584e5d	-0.21123643
108	0xbde3338d	-0.11093817
109	0x3e41a777	0.18911539
110	0x3e392975	0.18082221
111	0xbe2195e3	-0.15779833
112	0x3da44a04	0.0802193
113	0xbe8cd193	-0.27503642
114	0x3e1d7b67	0.15379106
115	0xbddec461	-0.108773
116	0xbd832166	-0.064028546
117	0xbe92b1d8	-0.2865131
118	0xbe90eb9f	-0.28304765
119	0x3e7a31ab	0.2443301
120	0x3ea66695	0.3250014
121	0xbe1e313e	-0.15448472
122	0xbeb3d00a	-0.3511966
123	0x3d13189f	0.035912152
124	0x3de43cc5	0.11144403
125	0xbe1c9ba0	-0.15293741
126	0xbe857fff	-0.26074216
127	0x3b80de2e	0.003932736

pointer.v f4 [1, 1, 128]
0	0x3e960fa2	0.29308802
1	0xbe169670	-0.14705825
2	0x3e86dae5	0.26338878
3	0xbe85fea6	-0.26170844
4	0xbeaa1f88	-0.3322718
5	0x3e8f80a3	0.2802783
6	0x3da186ae	0.07887016
7	0xbe949ca6	-0.29025763
8	0x3e36c5e3	0.17848925
9	0x3e3791c8	0.17926705
10	0x3e71ee49	0.23626055
11	0xbe41fe62	-0.18944696
12	0x3e7fe5f7	0.24990068
13	0xbddfa78a	-0.109206274
14	0xbe1708b7	-0.14749418
15	0x3e4d55c0	0.20052242
16	0xbe4ab49a	-0.19795457
17	0x3dc9acf3	0.098474406
18	0x3e88ccf9	0.26718882
19	0x3df1ccb9	0.11806626
20	0x3e6d88d3	0.23196726
21	0xbe70397d	-0.2345943
22	0x3e04d67e	0.12972447
23	0xbe059310	-0.13044381
24	0x3ebea034	0.372316
25	0x3e5a62e9	0.21326794
26	0x3d92ff98	0.07177657
27	0xbeb12ae4	-0.34603035
28	0x3dc080c0	0.09399557
29	0x3df78f0f	0.12087833
30	0xbe7fc04c	-0.24975699
31	0xbea6481c	-0.3247689
32	0xbdd54f17	-0.10415476
33	0x3e776959	0.2416128
34	0xbe8fea2d	-0.2810835
35	0x3e87c92a	0.26520663
36	0xbd495789	-0.049155746
37	0x3e087f33	0.13329773
38	0xbe2ce27d	-0.16883273
39	0xbe426014	-0.18981963
40	0xbe5539cb	-0.20822828
41	0xbe1c1dba	-0.15245715
42	0xbe9500db	-0.29102215
43	0x3e8ca37a	0.27468473
44	0xbe4b455e	-0.1985068
45	0xbe2d1603	-0.16902928
46	0xbdbe4f8e	-0.092925176
47	0xbe72e0bf	-0.23718546
48	0x3e2f7e30	0.1713798
49	0x3e2afacb	0.16697232
50	0x3e32ebb6	0.17472729
51	0xbe2ddb4c	-0.16978186
52	0xbdd53ffe	-0.10412596
53	0x3e20e006	0.15710458
54	0x3da96828	0.08271819
55	0x3e63fae4	0.22263676
56	0x3e1ec9fe	0.15506741
57	0x3e5d4332	0.21607664
58	0x3e151378	0.14558208
59	0x3e3bd490	0.18342805
60	0x3da68abc	0.0813193
61	0x3e86fa38	0.26362777
62	0x3e778e4a	0.24175373
63	0x3e0907f0	0.13381934
64	0x3d7abd16	0.061215483
65	0x3e793ccc	0.24339598
66	0x3e57035e	0.20997378
67	0xbe80739c	-0.25088203
68	0xbe8024cb	-0.2502807
69	0x3d6f77fc	0.058464035
70	0xbea6cc86	-0.32577914
71	0xbe0dae2c	-0.13835973
72	0x3e2ea865	0.17056425
73	0x3e869c4d	0.26291123
74	0x3dc83ee2	0.09777619
75	0xbe62c079	-0.22143735
76	0xbdd01c51	-0.10161651
77	0x3dad4e4e	0.08462201
78	0x3e745655	0.23861058
79	0x3e50cba3	0.20390181
80	0xbddd2a5d	-0.10799096
81	0x3e3ab652	0.18233612
82	0xbdcdf18f	-0.10055839
83	0x3eb3092d	0.34967938
84	0xbdf30690	-0.11866486
85	0x3e563f5c	0.20922607
86	0x3dbb94da	0.091592506
87	0x3e607d7b	0.21922867
88	0xbe36a26b	-0.17835395
89	0xbe2aa2b0	-0.16663623
90	0xbe2b3467	-0.16719209
91	0x3e18538d	0.14875622
92	0xbe362d78	-0.17790782
93	0xbe639bb4	-0.22227365
94	0xbe66e284	-0.22547346
95	0x3e40e3c0	0.1883688
96	0x3d64a02f	0.055816825
97	0xbe1094f7	-0.14119326
98	0xbe0f6a74	-0.14005452
99	0x3df2f611	0.1186334
100	0x3e8d0e1b	0.27549824
101	0xbe5d878f	-0.21633743
102	0xbe549c37	-0.20762716
103	0x3e8f33dc	0.27969253
104	0xbe841a47	-0.25801298
105	0xbdb462fc	-0.08807942
106	0xbd42a036	-0.04751607
107	0x3db0dba7	0.08635645
108	0xbd7c4aba	-0.061594702
109	0x3e0dd78f	0.1385176
110	0x3e47909b	0.19488756
111	0x3e5ee3a1	0.21766521
112	0xbe914a66	-0.28377074
113	0xbe5288c5	-0.20559986
114	0xbe4aaf5a	-0.19793454
115	0x3dbae80e	0.09126292
116	0x3eb135e2	0.34611422
117	0xbe359373	-0.17732029
118	0xbe0a6ac0	-0.13517284
119	0xbe7d9a9b	-0.24766009
120	0xbe75f9c2	-0.24021056
121	0xbdbf493b	-0.093401395
122	0x3dee7726	0.116438195
123	0xbe7ab40a	-0.24482742
124	0xbe67188a	-0.22567955
125	0x3e1463e5	0.14491232
126	0xbda0db1a	-0.0785429
127	0xbe87b882	-0.26507956

pointer.W f4 [1, 128, 256]
0	0xbc8ce35f	-0.017198263
1	0x3dd29e81	0.102841385
2	0xbd0217a6	-0.031760834
3	0x3d279342	0.04091192
4	0x3c6f4771	0.014604435
5	0x3d64b6e2	0.055838473
6	0xbd858892	-0.06520189
7	0x3d91efcf	0.07125818
8	0x3ba98682	0.0051735053
9	0xbc3cabd6	-0.011515578
10	0x3c553719	0.013013625
11	0x3d3aad52	0.045575447
12	0xbc19ba13	-0.009382742
13	0x3d6d484f	0.057930287
14	0x3a36fa80	0.00069800764
15	0x3bf27538	0.0073992275
16	0x3ce16df5	0.027518252
17	0x3b80a794	0.003926227
18	0x3d6a524d	0.057207394
19	0x3ca9e847	0.020740641
20	0x3b0450ac	0.0020189686
21	0x3b63d50d	0.003476444
22	0xbd86bc97	-0.065789394
23	0xbd17adb7	-0.0370309
24	0xbd85391d	-0.06505034
25	0x3d18ea36	0.037332736
26	0xbcb66eab	-0.022269567
27	0xbcca876c	-0.024722777
28	0xbce3a47f	-0.027788399
29	0xbc88cd70	-0.016699523
30	0x3d82a9b3	0.06380024
31	0xbd7c6ff5	-0.061630208
32	0xbd301ba9	-0.04299513
33	0x3d3609af	0.04444283
34	0x3bfaec3d	0.0076575563
35	0x3d92aaa8	0.07161456
36	0x3c4d2743	0.012521568
37	0xbd6ad67f	-0.057333466
38	0xbd253020	-0.0403291
39	0x3d5ac39b	0.0534092
40	0x3d448e49	0.047987256
41	0x3d1df035	0.038559157
42	0xbd990adc	-0.074727744
43	0x3c016a10	0.007898822
44	0x3c1a2635	0.009408523
45	0x3d45d57e	0.048299305
46	0xbb00b972	-0.0019641784
47	0x3cb2e066	0.021835517
48	0xbbb98ab9	-0.005662289
49	0x3b7b15b0	0.0038312487
50	0xbc94abe0	-0.018148363
51	0xbc19cb3f	-0.009386837
52	0xbc0333ce	-0.008007957
53	0x3c3c5d99	0.011496925
54	0xbc9f1e9a	-0.019423772
55	0xb8507dc4	-4.9708193e-05
56	0xbc0d7bd2	-0.008635478
57	0xbdaaf726	-0.08347921
58	0x3c6b30ba	0.014354879
59	0xbc972285	-0.018449077
60	0xbbff742d	-0.0077958317
61	0xbd1a7dd4	-0.037717655
62	0xbcc43722	-0.02395207
63	0xbbf003b8	-0.007324662
64	0xbc8bb80a	-0.01705553
65	0x3ddb8a61	0.10719753
66	0x3ce230e9	0.027611213
67	0xbd903acf	-0.07042467
68	0x3d2975ec	0.041372225
69	0xbd358be1	-0.044322852
70	0xbd987aa4	-0.07445267
71	0x3bb0bca2	0.0053935805
72	0x3c79e9d2	0.015253501
73	0x3d91d934	0.07121506
74	0xbcdf200a	-0.027236957
75	0xbd4b1474	-0.049580052
76	0xbcaf9d1f	-0.021437226
77	0xbd3ba4d6	-0.045811497
78	0x3d38f4f1	0.04515547
79	0xbd0c6c26	-0.034282826
80	0x3c316925	0.010828291
81	0xbceca344	-0.028886445
82	0xbc668442	-0.014069619
83	0xbc1893d4	-0.009312589
84	0x3ccc8cd8	0.024969503
85	0x3c5e679e	0.013574509
86	0x3d1494b0	0.036274612
87	0xbccf02dd	-0.02526992
88	0xba8851c5	-0.0010400346
89	0x3d6e4c89	0.05817846
90	0x3c94432e	0.01809844
91	0xbc8d54d5	-0.017252365
92	0x3d2080e8	0.039185435
93	0x3d628226	0.0552999
94	0x3d6aaa1a	0.057291128
95	0x3d80123b	0.06253477
96	0xbc1b8283	-0.009491566
97	0xbc23bafb	-0.00999331
98	0x3cc26d05	0.023733625
99	0xbd646071	-0.055756036
100	0xbd584bf0	-0.052806795
101	0x3c206a8b	0.009791027
102	0xbb7f2a0d	-0.0038934976
103	0x3c9f60cc	0.019455336
104	0x3b1b1ae4	0.002366715
105	0x3d97e45c	0.07416603
106	0x3c36483f	0.011125623
107	0xbc97738d	-0.018487716
108	0x3d149fa4	0.036285058
109	0xbd79634e	-0.06088572
110	0x3cf5a0e8	0.029983953
111	0xba50d8b5	-0.0007966862
112	0x3d9a1c76	0.0752496
113	0x3d3b4d4a	0.045728005
114	0x3c2e666d	0.010644537
115	0x3d88b26e	0.06674658
116	0x3d3fc131	0.0468151
117	0x3cc3bd7d	0.023894066
118	0x3b69db98	0.0035683867
119	0xbc9f4bdf	-0.019445358
120	0xbc6a1bfc	-0.014288899
121	0xbd81033a	-0.062994435
122	0xbd7badb9	-0.06144497
123	0xbd983300	-0.074316025
124	0x3ca95901	0.020672323
125	0xbd80315c	-0.062594146
126	0xbcecf822	-0.028926913
127	0xbdac0027	-0.083984666
128	0xbc584523	-0.013200077
129	0x3ce4b6f4	0.02791927
130	0xbcb51ec3	-0.022109395
131	0x3c951e0e	0.018202808
132	0x3d04d1bc	0.03242658
133	0xbbe566fd	-0.0070008026
134	0xbd011161	-0.031510714
135	0x3cab418a	0.020905275
136	0x3c879eb3	0.016555166
137	0x3c414bae	0.011797829
138	0xbcdf44d5	-0.027254501
139	0x3d121143	0.035660993
140	0x3bbbe4d2	0.0057340646
141	0xbbb52553	-0.005528131
142	0xbc975dd1	-0.018477352
143	0x3d000ca5	0.03126206
144	0x3b70b84f	0.003673095
145	0xba9cefeb	-0.0011973357
146	0xbbc542b6	-0.0060199155
147	0x3b3c186e	0.0028701085
148	0xbc6c4841	-0.014421524
149	0x3cadb9d7	0.02120678
150	0xbc5e12ed	-0.013554317
151	0xbbe2d4bd	-0.006922333
152	0xbb89a95d	-0.004201098
153	0x3c9940fa	0.018707741
154	0xbc2026d3	-0.009774881
155	0xbc153ac4	-0.009108249
156	0x3c918108	0.017761722
157	0xbc88df95	-0.016708175
158	0x3c85259d	0.016253287
159	0xbc8c3a97	-0.017117782
160	0x3b921234	0.0044577364
161	0x3c2c0500	0.010499239
162	0xbcbc0312	-0.022950683
163	0xbc2c8d65	-0.010531758
164	0xbc773d7b	-0.015090342
165	0xbcf9e3b2	-0.030504081
166	0xbca3b248	-0.019982472
167	0x3c9aa69a	0.01887827
168	0xbb6d40f6	-0.003620205
169	0x3ceeb09d	0.02913695
170	0xbd0e922b	-0.034807365
171	0xbc0350c7	-0.008014864
172	0x3ad54e94	0.0016274028
173	0x3cb94b32	0.022618864
174	0x3c05f489	0.0081759775
175	0xbc928af5	-0.017888526
176	0x3c80607c	0.015671007
177	0xbb5a3df9	-0.0033301099
178	0x3ca30af9	0.019902693
179	0xbcbd4c6b	-0.023107728
180	0xbce124f1	-0.027483435
181	0xbc1f2510	-0.009713426
182	0x3ca7f5fe	0.02050304
183	0xbcb4771b	-0.02202945
184	0xbc11ff4a	-0.008910963
185	0xbc7fa9b0	-0.0156044215
186	0x3ce62018	0.028091475
187	0xbc37048c	-0.011170518
188	0x3b38bc65	0.0028188464
189	0xbc1d378e	-0.009595765
190	0xbb80684d	-0.0039186836
191	0x3c3b795d	0.0114425095
192	0xbab691c7	-0.0013928943
193	0xbc379c2e	-0.01120667
194	0x3c92e83f	0.01793301
195	0xbc59589e	-0.013265757
196	0x3ad59fae	0.0016298199
197	0xbc200f99	-0.009769344
198	0xba6433de	-0.00087052386
199	0xbc8f7153	-0.017510092
200	0x3c894c86	0.016760122
201	0x3c1a3875	0.0094128745
202	0xbbe5590b	-0.00699914
203	0xbbb1a755	-0.005421559
204	0x3c57a766	0.0131624695
205	0xbca98052	-0.02069107
206	0xbcd9bb80	-0.026578665
207	0xbce4959c	-0.02790337
208	0x3bc8ea77	0.006131466
209	0xbc3084f1	-0.010773883
210	0x3baaf875	0.0052176067
211	0x3c7e76c4	0.015531246
212	0x3b4ab9c4	0.003093348
213	0xbce2743c	-0.027643315
214	0x3c6ab4c7	0.014325327
215	0x3c19f060	0.009395689
216	0xbcb69255	-0.022286573
217	0x3d22b773	0.039725732
218	0x3d049065	0.032364268
219	0x39341007	0.00017172108
220	0x3cc89e4d	0.024489546
221	0x3c9c135c	0.0190522
222	0xbcae45e5	-0.021273563
223	0x3cb73623	0.022364682
224	0x3c21a943	0.009867015
225	0x3c04ae0a	0.008098135
226	0xbcca97ce	-0.02473059
227	0xbd08e167	-0.033418085
228	0xbcccc78d	-0.024997497
229	0xbcc85b69	-0.02445765
230	0x3cbbe576	0.022936564
231	0xbc501fd8	-0.012702905
232	0xbc99e5db	-0.018786361
233	0xbbb9e8f0	-0.0056735203
234	0xbaa2db78	-0.0012425026
235	0xbc920c18	-0.017828032
236	0x3c791a5e	0.01520404
237	0xbce86294	-0.028367318
238	0xbc4ecdd9	-0.01262232
239	0xbc80028c	-0.015626214
240	0x3ca6973b	0.020335784
241	0x3ce7e6a1	0.028308215
242	0xbbc3e5db	-0.0059783286
243	0x3c13dfb5	0.009025504
244	0xbbf4a5b1	-0.007466041
245	0x3cdacc0d	0.026708627
246	0x3c673caa	0.0141135845
247	0xbbee6280	-0.0072749257
248	0x3d0b60a7	0.03402772
249	0xbc5c87bb	-0.013460095
250	0xbcceb6cf	-0.025233654
251	0xbc05a154	-0.008156139
252	0xbb9dbf31	-0.0048140516
253	0xbcd85e02	-0.026412014
254	0xbc393035	-0.011302997
255	0xbc81c9e6	-0.015843343

pointer.gru.weight_ih_l0 f4 [384, 128]
0	0xbcb13de3	-0.021635955
1	0x3d679c6c	0.05654566
2	0xbd9ff063	-0.07809522
3	0x3d64ab99	0.05582771
4	0x3cfe19b0	0.031018108
5	0x3d8981a1	0.06714178
6	0x3cedbc50	0.029020458
7	0xbd2b8307	-0.041873004
8	0x3b99bc8b	0.0046916655
9	0x3d02b3b6	0.031909667
10	0xbadfc6e8	-0.0017072828
11	0x3dac887e	0.08424471
12	0xbc9d7a29	-0.01922329
13	0x3d35061b	0.044195276
14	0xbdb3b1b5	-0.08774129
15	0xbdc440b9	-0.09582657
16	0x3d182482	0.03714419
17	0xbd10b8b3	-0.035332393
18	0xbcc079b2	-0.023495529
19	0xbd6b2d40	-0.0574162
20	0x3da3ab0d	0.0799161
21	0x3db1f7d8	0.086898506
22	0x3da02e11	0.078212865
23	0xbd56cfe6	-0.05244436
24	0x3d37d3bf	0.04487967
25	0xbc37ca5e	-0.011217682
26	0x3de6a7fe	0.11262511
27	0xbcc0f0bc	-0.023552291
28	0xbd0e18af	-0.03469151
29	0xbd8f1ef4	-0.06988326
30	0xbdad2d99	-0.08455963
31	0x3d9af9b7	0.075671606
32	0x3df6f5d9	0.120586105
33	0x3d2fdfb5	0.042937953
34	0x3df08f40	0.11746073
35	0x3de449ce	0.111468896
36	0x3db62cd4	0.08895269
37	0xbd706c2a	-0.058696903
38	0x3dd4448a	0.10364635
39	0xbc34f84d	-0.011045528
40	0x3d1bb5f9	0.03801534
41	0x3dba3f06	0.09094052
42	0x3d2ad5aa	0.041707672
43	0xbda9e046	-0.0829473
44	0x3d9e6a6b	0.07735141
45	0xbdeea4c6	-0.11652522
46	0x3c762717	0.015023968
47	0x3dbd352a	0.09238656
48	0xbd9a5718	-0.07536143
49	0xbd46b4ec	-0.048512384
50	0xbdf10795	-0.11769024
51	0xbd3bdc8c	-0.045864627
52	0x3db5204e	0.08844052
53	0x3d46ce49	0.048536573
54	0xbda9ec9f	-0.08297085
55	0x3b3fb6a6	0.0029253154
56	0xbcb353ca	-0.02189054
57	0xbda23501	-0.07920266
58	0x3aed1b34	0.0018089772
59	0x3d33d9ef	0.04390901
60	0xbdd8a79b	-0.10578843
61	0x3ca4c758	0.020114586
62	0x3dcef28d	0.10104857
63	0xbdab9230	-0.083774924
64	0xbc1d1bb0	-0.009589121
65	0xbdae255e	-0.08503221
66	0xbcdfc7ec	-0.02731701
67	0xbce6704c	-0.02812972
68	0xbb89f627	-0.004210252
69	0x3dae1820	0.08500695
70	0x3c72d1d1	0.014820532
71	0x3dc74624	0.09730175
72	0x3d9397ab	0.07206663
73	0x3d3aadeb	0.045576017
74	0x3dcbda86	0.099537894
75	0xbdef2bdc	-0.116782874
76	0xbdd263f4	-0.10272971
77	0xbd8ca29b	-0.06866952
78	0xbccf0e2f	-0.025275318
79	0xbdd10c97	-0.102074794
80	0xbdbacb7a	-0.09120841
81	0x3dba2d83	0.09090712
82	0xbd5a4010	-0.05328375
83	0xbdb3a699	-0.0877201
84	0xbdcdc073	-0.100464724
85	0xbd166a84	-0.036722675
86	0xbd6d0040	-0.057861567
87	0xbd7871fd	-0.060655583
88	0xbd96527c	-0.073399514
89	0x3da2dfb8	0.07952827
90	0x3da6de53	0.08147874
91	0xbd8f55d3	-0.069987915
92	0xbd4bf332	-0.049792476
93	0x3dba30e5	0.09091357
94	0x3ccb1c3c	0.024793737
95	0x3d35b001	0.044357304
96	0xbd8af603	-0.06785204
97	0xbb7c3cd4	-0.0038488405
98	0x3bf7024d	0.007538116
99	0x3cd505f1	0.02600381
100	0xbda1a4d9	-0.0789277
101	0xbd84483c	-0.0645909
102	0xbdd9da57	-0.10637348
103	0xbbf7f1e3	-0.007566677
104	0x3d0a8184	0.033814922
105	0xbd27ae52	-0.04093773
106	0xbd59e30c	-0.053195044
107	0x3d36f9b2	0.04467172
108	0x3cb28627	0.021792484
109	0x3d2d25e6	0.04227247
110	0xbdca1748	-0.09867722
111	0x3ddb8cc3	0.107202075
112	0xbd1d6372	-0.038424917
113	0x3ca30d27	0.019903732
114	0x3d87ddb4	0.066340834
115	0xbb2f7807	-0.0026774423
116	0x3de3aae0	0.11116576
117	0xbd862da1	-0.06551672
118	0xbc671870	-0.014104947
119	0xbdebc659	-0.11512441
120	0xbda53319	-0.08066387
121	0xbc9a5078	-0.018837199
122	0x3dbb57e0	0.0914762
123	0xbdafdb1a	-0.08586712
124	0xbcc350fb	-0.023842325
125	0x3ca0472a	0.019565184
126	0xbd3fedfa	-0.04685781
127	0x3c3eaf57	0.011638484
128	0x3d7b24b2	0.061314292
129	0x3d9e0b94	0.07717052
130	0x3d8620ae	0.06549202
131	0x3dcfdcbd	0.10149524
132	0x3ddeb3a6	0.10874109
133	0x3d12d215	0.03584488
134	0x3de33c71	0.11095513
135	0x3db2cc2f	0.08730351
136	0x3d68f8c2	0.05687786
137	0xbda93256	-0.08261554
138	0xbd9303eb	-0.07178482
139	0xbd552243	-0.052034628
140	0x3c10aacb	0.008829783
141	0xbd21df69	-0.0395197
142	0xbd8b6c96	-0.068078205
143	0xbc5f5a2a	-0.013632337
144	0x3de12a89	0.10994441
145	0xbdaf3bdc	-0.08556339
146	0x3d4015c1	0.046895746
147	0x3dbc6c4c	0.092003435
148	0x3cae89a8	0.021305874
149	0x3b819c5d	0.0039554075
150	0x3cc57ab7	0.024106367
151	0x3d2a432f	0.041567978
152	0x3d5e495d	0.054269183
153	0x3cfcaac6	0.03084315
154	0x3d80a251	0.062809594
155	0xbdaa0188	-0.08301073
156	0x3d3c2b26	0.045939587
157	0xbb437f0c	-0.0029830365
158	0xbd35d9c7	-0.04439714
159	0x3c29d3e7	0.010365463
160	0xbd82abbc	-0.06380412
161	0xbd4971ed	-0.049180914
162	0x3d9e12f5	0.077184595
163	0xbce5e494	-0.028063096
164	0xbda3c46f	-0.07996451
165	0x3dacab2c	0.08431086
166	0xbdb61206	-0.088901564
167	0xbcd735a9	-0.026270704
168	0xbd4a8bc7	-0.04944971
169	0xbd93c09b	-0.07214471
170	0x3de85b94	0.11345592
171	0x3cd5f867	0.026119424
172	0xbd16c052	-0.036804505
173	0x3de880cd	0.11352692
174	0x3d277e84	0.04089214
175	0xbc33a0df	-0.010963648
176	0xbdaec930	-0.08534467
177	0x3db07406	0.0861588
178	0x3d6da6d6	0.058020435
179	0xbd8b1f4d	-0.067930795
180	0xbd7ff359	-0.062487934
181	0xbdbc345e	-0.09189676
182	0x3d881831	0.06645239
183	0x3d611f98	0.05496177
184	0x3cf6ed5f	0.030142484
185	0xbd85fcc5	-0.065423526
186	0x3be43101	0.0069638495
187	0x3dd56c8c	0.10421094
188	0x3ded25ad	0.11579452
189	0x3d879a10	0.06621182
190	0x3d2567ca	0.040382184
191	0xbd313bb5	-0.04326983
192	0xbdc88b48	-0.09792191
193	0xbdae6498	-0.085152805
194	0x3dee9f7c	0.11651513
195	0xbc9a5c27	-0.01884277
196	0xbd84c9b0	-0.06483781
197	0xbdae2085	-0.08502296
198	0xbdd9cf27	-0.10635214
199	0x3c12f601	0.008969785
200	0x39d7b293	0.00041141044
201	0x3b0a9943	0.002114848
202	0xbcfa1a16	-0.030530017
203	0xbd6af4b7	-0.057362285
204	0x3d9bc250	0.076054215
205	0xbcdf424e	-0.027253296
206	0x3d9d9102	0.07693674
207	0x3cf4d3f8	0.02988623
208	0x3c7d6eb1	0.015468285
209	0xbd475baa	-0.048671402
210	0x3d990adf	0.074727766
211	0x3d33a7d7	0.043861236
212	0x3dea844f	0.11451017
213	0x3d72292a	0.05912129
214	0xbd232912	-0.03983409
215	0xba85387a	-0.0010163926
216	0x3de4f224	0.11178997
217	0x3d029707	0.031882312
218	0xbccc9545	-0.024973521
219	0x3d3eb733	0.04656143
220	0x3dade9db	0.0849187
221	0x3d8fafc5	0.07015947
222	0xbdd4f862	-0.10398938
223	0xbd3a934f	-0.04555064
224	0x3da52c60	0.080651045
225	0xbdee62ef	-0.11639964
226	0xbd8a6961	-0.06758381
227	0xbde4ccd0	-0.111718774
228	0x3dac416b	0.08410915
229	0x3c77588f	0.015096798
230	0xbc9ec5d7	-0.019381447
231	0xbd3c0643	-0.04590441
232	0x3cb526b3	0.02211318
233	0x3de49fe1	0.11163307
234	0xbccb1c93	-0.024793899
235	0xbdece643	-0.115673564
236	0xbdfd12e5	-0.123571195
237	0x3cd4123b	0.0258876
238	0x3df4b0c5	0.119477786
239	0xbcb25605	-0.021769533
240	0x3cd6e116	0.026230376
241	0xbd32ab6d	-0.043620516
242	0xbcfd3edc	-0.030913763
243	0x3d0ff632	0.0351469
244	0x3c4ddd80	0.012565017
245	0xbd33f86f	-0.043938097
246	0x3db7fa08	0.089832366
247	0xbdcd26ba	-0.10017152
248	0x3cd195bc	0.025584094
249	0xbdd91304	-0.1059933
250	0x3da70cb6	0.08156721
251	0x3d07a83b	0.03311942
252	0xbcc46ea2	-0.023978535
253	0x3c1c20b7	0.009529284
254	0x3d92b5a1	0.07163549
255	0xbc92a6ae	-0.017901745
