SoSDP/critic.pt (torch, 33543 bytes, 9 tensors)

static_encoder.conv.weight f4 [128, 13, 1]
0	0x3e0bd32f	0.13654779
1	0xbd71743a	-0.058948733
2	0xbe2d0cfc	-0.16899484
3	0xbda94cac	-0.08266577
4	0xbdcca6ec	-0.09992775
5	0xb84a5c76	-4.8246664e-05
6	0x3c98b0f6	0.018639069
7	0xbe28f7a6	-0.1650072
8	0x3dcd0689	0.10011012
9	0x3d3d2f74	0.046187833
10	0xbda35e85	-0.079770125
11	0xbe14c76b	-0.14529197
12	0x3d5b718d	0.053575087
13	0x3da298cc	0.079393
14	0x3e278a4e	0.16361353
15	0x3cdec28e	0.02719238
16	0xbc8cac5f	-0.017172037
17	0x3d8a3c7e	0.06749819
18	0x3e583ee4	0.21117741
19	0xbdf3b51a	-0.11899777
20	0xbe1f0bcb	-0.15531842
21	0xbc546d32	-0.012965487
22	0x3e2ba783	0.1676312
23	0x3e53fd99	0.20702209
24	0x3da73a1c	0.0816538
25	0x3d7c797f	0.061639305
26	0xbe19823e	-0.1499109
27	0xbd7b3383	-0.061328422
28	0x3d6c5b36	0.057704173
29	0x3de4d038	0.11172527
30	0xbd9f3dea	-0.07775481
31	0x3e14770a	0.14498535
32	0xbd68bb72	-0.056819387
33	0xbe06a121	-0.13147403
34	0xbc67e936	-0.014154723
35	0xbe43db56	-0.19126639
36	0xbcb51509	-0.022104757
37	0x3dd38521	0.10328127
38	0x3e3d93e5	0.18513449
39	0x3e19a46e	0.15004131
40	0x3e29dd34	0.16588289
41	0xbd92ea3d	-0.07173584
42	0xbe32e3eb	-0.17469756
43	0x3e24e664	0.16103512
44	0xbdfabed9	-0.122434326
45	0xbe38f18e	-0.18060896
46	0x3e13ee61	0.14446403
47	0x3e0b74b1	0.13618733
48	0xbe3c0cca	-0.18364254
49	0x3ccec39b	0.025239756
50	0x3dcbf75c	0.099592894
51	0xbb8c4ebd	-0.0042818473
52	0xbd24f2b1	-0.04027051
53	0xbd084f66	-0.033278845
54	0xbe515269	-0.20441593
55	0xbbccc702	-0.0062493095
56	0x3e0c99d0	0.1373055
57	0xbd8696a6	-0.06571703
58	0xbda156fa	-0.078779176
59	0x3e05b48e	0.13057157
60	0x3e3850a3	0.1799951
61	0x3e172699	0.14760818
62	0x3e1ce1a5	0.15320452
63	0x3e1a1da5	0.15050371
64	0x3e516c9b	0.20451586
65	0x3de8ddec	0.11370453
66	0xbe481226	-0.19538173
67	0x3e39f19e	0.18158576
68	0x3c648757	0.013948283
69	0xbe17296b	-0.14761893
70	0x3db54a78	0.088520944
71	0xbe0ecd5f	-0.1394553
72	0x3db38770	0.08766067
73	0x3e36aee6	0.17840156
74	0xbd8f666d	-0.07001958
75	0x3da28ab3	0.07936611
76	0xbcd76f99	-0.026298331
77	0xbd8c387d	-0.06846712
78	0x3e11c9d8	0.14237154
79	0x3c4c5650	0.01247175
80	0x3d45c4ff	0.048283573
81	0xbe2ba1fe	-0.16761014
82	0xbe1783f1	-0.14796425
83	0x3e315a7d	0.17319675
84	0x3dd864f0	0.10566127
85	0xbdd9ea90	-0.10640442
86	0xbd469124	-0.04847826
87	0x3ced5a19	0.028973626
88	0x3e29e220	0.16590166
89	0xbe0a4f4f	-0.13506816
90	0x3dbcc70a	0.09217651
91	0x3ce70386	0.028199922
92	0xbce98ab9	-0.02850853
93	0xbe0dd93e	-0.13852403
94	0xbdf4a4b3	-0.119454764
95	0xbe0ece9c	-0.13946003
96	0x3e4c4ae8	0.1995045
97	0x3df58dc3	0.119899295
98	0x3dc9ebba	0.098594144
99	0x3e2d46b0	0.16921496
100	0x3df358ba	0.118821576
101	0x3da21280	0.07913685
102	0xbe3ec3ce	-0.18629381
103	0x3e5dd79c	0.2166428
104	0x3e4747d6	0.19460997
105	0xbe2574c3	-0.16157822
106	0xbe4af67c	-0.19820589
107	0xbde9df26	-0.11419515
108	0x3d4016cb	0.046896737
109	0xbdf9cf9e	-0.12197803
110	0x3e25e14e	0.16199228
111	0x3d98feab	0.07470449
112	0x3d98141a	0.07425709
113	0xbe278319	-0.16358604
114	0xbe46d7ef	-0.1941831
115	0xbdb5b52e	-0.08872448
116	0xbdf804d3	-0.12110295
117	0xbe2952db	-0.16535513
118	0x3dc2a081	0.0950327
119	0x3ddaa07a	0.1067514
120	0x3dbbe959	0.09175367
121	0x3d51b9eb	0.051202696
122	0xbdc9089b	-0.098160945
123	0x3e3d4dc0	0.1848669
124	0xbe4418b0	-0.19150043
125	0x3e0f8f1d	0.14019437
126	0xbe04f849	-0.12985338
127	0xbd2f60e8	-0.042817026
128	0xbe348950	-0.17630506
129	0x3de47938	0.11155933
130	0xbdf37ff2	-0.11889638
131	0x3e2bc0e3	0.16772799
132	0x3bacb489	0.005270545
133	0xbe306897	-0.17227398
134	0x3cdf8459	0.027284788
135	0x3e397fbd	0.18115135
136	0x3dcb1759	0.099165626
137	0xbd920b76	-0.07131092
138	0xbe154986	-0.14578828
139	0xbe17876c	-0.14797753
140	0xbdd627b9	-0.10456795
141	0x3e4c7c05	0.19969185
142	0x3e0e82b0	0.13917041
143	0x3e23deca	0.16002956
144	0xbd612d5d	-0.054974902
145	0x3e440708	0.19143307
146	0x3db4c644	0.08826879
147	0x3e23f9d7	0.16013275
148	0xbd200813	-0.0390702
149	0x3e08c7be	0.13357446
150	0xbd0d47df	-0.03449237
151	0xbe1df977	-0.15427195
152	0xbe08442f	-0.1330726
153	0xbca817eb	-0.020519217
154	0xbe31cf6d	-0.17364283
155	0x3d1c333b	0.038134795
156	0xbd1820dc	-0.037140712
157	0x3dae5440	0.08512163
158	0x3e0f9b2b	0.14024036
159	0x3e5931dc	0.21210426
160	0x3dc3264c	0.09528789
161	0xbb92d575	-0.0044810125
162	0xbddcbef2	-0.107786074
163	0xbdbd406f	-0.09240805
164	0x3d1dea15	0.038553316
165	0x3d1dff12	0.038573332
166	0xbe03f407	-0.12886058
167	0x3e031b0e	0.1280329
168	0xbd5cf90a	-0.05394844
169	0x3c45b19f	0.012066274
170	0x3dbdb568	0.09263116
171	0xbc66532c	-0.014057916
172	0xbe35bb42	-0.17747214
173	0xbd1a4496	-0.037663065
174	0x3df9f2a5	0.12204484
175	0xbe07e07a	-0.13269225
176	0xbcfe39a8	-0.031033352
177	0xbdc2d2bc	-0.09512851
178	0xbdc83bf7	-0.097770624
179	0xbd7bfb4c	-0.061518952
180	0x3de6e05d	0.11273263
181	0x3e5a8a77	0.21341883
182	0xbe44dceb	-0.19224899
183	0x3c8aefb1	0.016959997
184	0x3dee4333	0.11633911
185	0x3d522281	0.051302437
186	0xbe47c8a1	-0.19510128
187	0xbd25041e	-0.04028713
188	0xbc040beb	-0.008059482
189	0x3e335ada	0.17515126
190	0x3dbe9280	0.093052864
191	0xbdbf4c51	-0.09340728
192	0xbd28c4b1	-0.041203205
193	0x3e22d221	0.1590047
194	0x39dee08e	0.00042510446
195	0x3dfe85c9	0.12427861
196	0x3d0a6d88	0.033795863
197	0xbe0ddeae	-0.13854477
198	0x3d304f2a	0.043044247
199	0x3d71bc41	0.059017424
200	0xbdcb93e1	-0.09940315
201	0xbdc9127a	-0.09817977
202	0x3e4cdfee	0.20007297
203	0x3bdcb2f1	0.0067351987
204	0x3da312b7	0.07962554
205	0xbc46d6c0	-0.012136161
206	0xbd25738e	-0.040393405
207	0xbcd58d8b	-0.02606847
208	0x3e28c63e	0.16481873
209	0x3d911b0d	0.07085238
210	0x3d011a50	0.031519234
211	0xbdf216a0	-0.118207216
212	0x3d65a598	0.056066126
213	0x3d738b8d	0.059459258
214	0x3d50e211	0.050996844
215	0x3cfd5215	0.030922929
216	0x3e4a4018	0.19751012
217	0x3dbb1811	0.0913545
218	0x3e0b7a9d	0.13620992
219	0x3db50291	0.0883838
220	0xbe3a525b	-0.18195479
221	0x3d193e12	0.03741271
222	0x3d5ff8b7	0.054680552
223	0x3dffce9c	0.124905795
224	0x3d4d950a	0.050190963
225	0x3e32da73	0.17466144
226	0x3cb5041b	0.022096684
227	0x3db7d1c3	0.08975556
228	0x3d955f54	0.07293573
229	0xbcfce008	-0.030868545
230	0xbe00ecc4	-0.12590319
231	0x3e090684	0.13381392
232	0x3e26e20d	0.16297169
233	0x3d5d6829	0.054054413
234	0x3ddf7a38	0.10911983
235	0x3d643d05	0.055722255
236	0xbd9944c3	-0.074838184
237	0xbdbf8397	-0.09351271
238	0xbe0f082b	-0.1396796
239	0x3d796322	0.060885556
240	0xbe073221	-0.13202716
241	0x3dee5e3f	0.1163907
242	0xbd82d3a4	-0.063880235
243	0x3d11a586	0.035558246
244	0xbe480b1d	-0.1953549
245	0xbe40de39	-0.18834771
246	0xbdcf3b3e	-0.101187214
247	0x3dfa64f4	0.122262865
248	0x3e1fa321	0.15589572
249	0xbd05baf0	-0.03264898
250	0xbe135503	-0.14387898
251	0xbce07581	-0.02739978
252	0xbe27fb9f	-0.1640458
253	0xbdaa5c4f	-0.08318388
254	0x3e2d614a	0.16931644
255	0xbdff5a65	-0.12468413

static_encoder.conv.bias f4 [128]
0	0xbcfc3fc4	-0.030792125
1	0xbd3a1668	-0.045431525
2	0xbe89ade4	-0.2689048
3	0x3d12cdc9	0.035840783
4	0x3d01273b	0.031531554
5	0xbe1b2e21	-0.15154316
6	0x3e1e4802	0.15457156
7	0x3e17fb1d	0.14841886
8	0x3c37f7c8	0.011228509
9	0x3d632ac4	0.055460706
10	0x3d4823e6	0.04886236
11	0x3e8d854b	0.27640757
12	0x3e7cea7d	0.24698825
13	0xbdbfc1c3	-0.09363129
14	0x3e3632e9	0.17792858
15	0xbc98399e	-0.018582162
16	0xbe2f6d3a	-0.1713151
17	0xbe32500b	-0.17413346
18	0xbc281b30	-0.010260388
19	0x3d9305a0	0.07178807
20	0x3e8a388a	0.2699626
21	0x3e88732a	0.26650363
22	0x3db30f97	0.08743208
23	0xbb779221	-0.0037776309
24	0x3d9fee65	0.07809142
25	0xbde35f03	-0.111021064
26	0xbbd58715	-0.006516347
27	0x3e548421	0.20753528
28	0xbe1d7f7a	-0.1538066
29	0x3e644719	0.22292747
30	0xbd3524a9	-0.044224415
31	0x3e8cdf7a	0.2751425
32	0x3e5995f9	0.21248616
33	0x3e12cb09	0.14335264
34	0x3dfe9d8c	0.124323934
35	0x3dfbcf40	0.12295389
36	0xbe92815d	-0.2861432
37	0x3e34880a	0.1763002
38	0xbda0ae9b	-0.07845803
39	0xbe380ee3	-0.17974429
40	0x3dc8639f	0.09784626
41	0x3e5cf152	0.21576431
42	0xbe93faa8	-0.28902173
43	0xbe02113b	-0.12701885
44	0xbc187a4a	-0.0093065
45	0x3e1898d1	0.14902045
46	0x3e043878	0.12912166
47	0x3dfe7e11	0.12426389
48	0xbc543318	-0.012951635
49	0xbe96ff60	-0.2949171
50	0xbe63bd52	-0.22240189
51	0x3d8c841a	0.06861134
52	0xbe812b59	-0.25228384
53	0x3df897db	0.12138339
54	0x3e29d88c	0.16586512
55	0x3cefebe4	0.029287286
56	0xbe63f460	-0.2226119
57	0x3e31a0e7	0.17346536
58	0x3e876bc2	0.264494
59	0x3e5833cd	0.2111351
60	0xbe19a656	-0.15004858
61	0x3cc060a2	0.023483578
62	0xbe41dd4f	-0.18932079
63	0x3dc91624	0.09818676
64	0xbe2d485b	-0.16922133
65	0x3e0f9f76	0.14025673
66	0x3e346ccc	0.17619628
67	0x3e40cc20	0.18827868
68	0xbe24f0f4	-0.16107541
69	0xbd4aa4ec	-0.049473688
70	0x3e5d3444	0.21601969
71	0xbe6a2dff	-0.22869109
72	0x3e895893	0.2682539
73	0x3d6c23b4	0.057651237
74	0xbe80f1e1	-0.2518454
75	0xbd1fe055	-0.0390323
76	0x3d7eabd3	0.062175583
77	0x3c26045b	0.010132874
78	0x3e06bcfb	0.13158028
79	0xbcd01546	-0.025400769
80	0xbe826fce	-0.25475925
81	0x3d9354a1	0.07193876
82	0xbe4ec5cc	-0.20192641
83	0xbc991c0e	-0.018690135
84	0x3e4a23e3	0.19740252
85	0x3dbf7372	0.09348191
86	0x3e4066fc	0.18789285
87	0xbe3caac2	-0.18424514
88	0x3c9d4390	0.019197255
89	0x3e2871c6	0.16449651
90	0xbd59f8b8	-0.053215712
91	0x3e334c27	0.17509519
92	0x3e08a6c0	0.1334486
93	0x3d0366f2	0.0320806
94	0xbb9c0ea8	-0.0047624893
95	0xbe7e7a45	-0.2485133
96	0xbdd5f45b	-0.10446998
97	0x3de89085	0.1135569
98	0xbd4915a0	-0.04909289
99	0x3ddae164	0.10687521
100	0xbe2e72db	-0.17036001
101	0x3de7e7b6	0.11323492
102	0x3e8d5393	0.27602825
103	0xbd6747b1	-0.056464855
104	0xbde2ed15	-0.11080376
105	0xbd6b9c5e	-0.05752217
106	0x3d3ac897	0.045601454
107	0x3de373a8	0.11106044
108	0xbc2512c1	-0.010075272
109	0xbc6932bc	-0.014233287
110	0x3d6fed28	0.05857578
111	0xbe84c498	-0.2593124
112	0xbe197e86	-0.14989671
113	0x3e98b587	0.29825994
114	0x3e4a7645	0.19771679
115	0x3e2689cb	0.16263501
116	0xbe41d422	-0.18928578
117	0x3e414e24	0.18877465
118	0x3e08c2c6	0.1335555
119	0xbdc512f2	-0.09622754
120	0x3d8e125f	0.06937098
121	0xbe42c72c	-0.1902129
122	0xbdb301e1	-0.08740593
123	0x3e3aeb87	0.18253909
124	0xbe857a71	-0.26069978
125	0xbd1c5fca	-0.03817729
126	0xbd517a43	-0.05114199
127	0xbe493a72	-0.19651201

dynamic_encoder.conv.weight f4 [128, 1, 1]
0	0x3e4f8546	0.20265684
1	0xbe3b2abd	-0.18278022
2	0x3d838bc0	0.064231396
3	0x3cf20388	0.0295427
4	0x3d9bb1b8	0.076022565
5	0x3c1c6dc0	0.009547651
6	0x3e223ae8	0.15842783
7	0xbe21bbdd	-0.1579432
8	0xbe268636	-0.16262135
9	0x3d62cdc0	0.055372
10	0xbdc3d89f	-0.095628016
11	0x3e096182	0.13416103
12	0x3e01afc0	0.126647
13	0xbc523e10	-0.01283218
14	0xbd7d9914	-0.061913565
15	0xbdec0b4a	-0.11525591
16	0x3e2f6f1c	0.17132229
17	0x3e079a04	0.13242346
18	0xbc3d0e60	-0.011539072
19	0xbe3a341b	-0.18183939
20	0x3e0df16e	0.1386163
21	0xbe3b8e88	-0.1831609
22	0xbe368619	-0.17824592
23	0xbe26e357	-0.16297661
24	0xbca31c18	-0.019910857
25	0xbc8a08b0	-0.016849846
26	0xbe0bd360	-0.13654852
27	0xbd99d598	-0.07511443
28	0x3e20dd72	0.15709475
29	0x3e2f91ba	0.17145434
30	0x3e4f6654	0.20253879
31	0x3e40f2bc	0.18842596
32	0x3c0d6210	0.008629337
33	0xbd9c876a	-0.07643016
34	0xbe10faa9	-0.1415812
35	0xbe12f5c2	-0.14351562
36	0xbc0d48a0	-0.008623272
37	0xbd019690	-0.03163773
38	0x3d1dede0	0.038556933
39	0xbd0ae458	-0.03390917
40	0x3e34c754	0.17654163
41	0x3dbcc424	0.09217098
42	0xbbf47e40	-0.0074613392
43	0xbe41e45a	-0.18934765
44	0xbe4f19da	-0.20224705
45	0x3d1d0178	0.03833148
46	0x3e120b30	0.1426208
47	0x3da5c2ac	0.08093771
48	0x3e35586c	0.17709512
49	0xbe1d6454	-0.15370303
50	0xba364500	-0.0006953031
51	0x3c5b8000	0.013397217
52	0x3b25e1c0	0.002531156
53	0xbe0ae238	-0.13562858
54	0xbe38c159	-0.18042506
55	0x3dcb5ae8	0.09929448
56	0x3d73b428	0.059497982
57	0x3e0c9dae	0.13732025
58	0xbde3901e	-0.111114725
59	0xbe425ecb	-0.18981473
60	0x3ceb2cb8	0.028707847
61	0x3dceb678	0.10093397
62	0x3e00501e	0.12530562
63	0xbded2bda	-0.1158063
64	0xbd681ff8	-0.056671113
65	0xbded4e5f	-0.11587214
66	0x3d830aa0	0.06398511
67	0x3e5a796c	0.21335381
68	0x3de907f8	0.11378473
69	0xbe0c9e71	-0.13732316
70	0x3b9eb3c0	0.004843205
71	0xbd69ebb0	-0.057109535
72	0x3d4f4e48	0.050611764
73	0xbd29fdc8	-0.04150179
74	0xbdcc18b0	-0.09965646
75	0xbdda839d	-0.106696345
76	0x3d99f87c	0.07518098
77	0xbdb528b8	-0.08845657
78	0x3e5021d4	0.20325404
79	0xbd299044	-0.041397348
80	0x3ce3c140	0.02780211
81	0xbe2b0145	-0.16699703
82	0x3def27c4	0.116775066
83	0xbe2b14cb	-0.1670715
84	0x3e482134	0.19543916
85	0x3e4e310c	0.20135897
86	0x3d4e29c0	0.050332785
87	0xbe2720dc	-0.16321129
88	0x3ce82d18	0.028341815
89	0xbdbe98cb	-0.09306487
90	0xbe4415fc	-0.19149011
91	0x3e4cd386	0.20002565
92	0xbd712374	-0.0588717
93	0x3db07c04	0.08617404
94	0xbe0fc14e	-0.14038584
95	0x3d36e898	0.044655412
96	0xbe07754f	-0.13228343
97	0xbd469cf0	-0.04848951
98	0x3cdf7568	0.027277663
99	0x3df88b48	0.12135941
100	0xbe1e9557	-0.15486656
101	0x3d8f9484	0.07010749
102	0x3d7e31a0	0.062059045
103	0xbd49fe28	-0.049314648
104	0xbe1314b1	-0.14363362
105	0xbd25206c	-0.040314123
106	0xbdc421a3	-0.09576728
107	0xbe379d09	-0.17930998
108	0xbd653ba4	-0.05596508
109	0xbdc7c3e5	-0.09754161
110	0x3dabe068	0.083924115
111	0xbd6d1760	-0.05788362
112	0xbd615998	-0.055017084
113	0xbcc95478	-0.02457641
114	0xbcf0b220	-0.029381812
115	0x3e0111f0	0.12604499
116	0xbe14ad13	-0.14519148
117	0xbd9dc04a	-0.07702692
118	0xbe2bc9a6	-0.16776142
119	0x3e0f0b22	0.1396909
120	0x3e412c04	0.18864447
121	0xbe3404fa	-0.17580023
122	0x3aed4900	0.0018103421
123	0xbd9fec82	-0.07808782
124	0x3dab96ac	0.08378348
125	0xbd5113b8	-0.051044196
126	0x3e588a48	0.211465
127	0xbe33d02e	-0.17559883

dynamic_encoder.conv.bias f4 [128]
0	0x3f290c0a	0.66033995
1	0xbf1734bd	-0.5906485
2	0x3e84f3ae	0.25967163
3	0x3f5525a5	0.83260566
4	0x3da3e227	0.080021195
5	0x3e60f4cf	0.21968387
6	0xbf557033	-0.8337433
7	0xbf2577c8	-0.64635897
8	0x3f3f3224	0.74685884
9	0xbf263f5d	-0.64940435
10	0xbf3781d1	-0.7168246
11	0x3f34b084	0.7058184
12	0xbeabb0dc	-0.3353337
13	0xbf6921dd	-0.91067296
14	0xbf63e851	-0.8902636
15	0xbdc5bf9c	-0.09655687
16	0x3f36c5bc	0.7139547
17	0x3e9b4b02	0.30330664
18	0x3f574743	0.8409311
19	0xbef438d6	-0.47699612
20	0xbf6b3e9c	-0.9189241
21	0x3eb2a1cc	0.34889066
22	0x3d78d601	0.060750965
23	0x3c801c1e	0.015638407
24	0x3edf9aea	0.43672878
25	0xbf11fb9c	-0.5702455
26	0x3f53f83e	0.8280066
27	0x3b876d77	0.0041329223
28	0x3e89462b	0.26811346
29	0xbdbdcc65	-0.09267501
30	0x3cbc23fb	0.022966376
31	0xbf7b8aee	-0.98258865
32	0xbeb8afa6	-0.3607151
33	0xbf74a2cb	-0.955609
34	0xbf10509b	-0.56372994
35	0x3f583d01	0.84468085
36	0xbef736c6	-0.48283976
37	0x3ec5372b	0.38518652
38	0x3eb7cc23	0.3589793
39	0x3f576f0a	0.8415381
40	0xbf4a988f	-0.79139036
41	0xbf803a86	-1.001786
42	0xbdbc01f5	-0.09180061
43	0x3f51c4fd	0.81941205
44	0xbda9b8f5	-0.08287231
45	0x3f570c0a	0.84002745
46	0xbf068c5b	-0.52557915
47	0xbef04803	-0.4692994
48	0x3ee138ee	0.43988746
49	0x3ebfef11	0.3748708
50	0x3f7df515	0.9920209
51	0xbd74fa50	-0.05980903
52	0x3f2674a1	0.6502171
53	0x3f3eb713	0.744981
54	0xbf068b7c	-0.52556586
55	0xbf4efd14	-0.80854917
56	0x3d3127a6	0.043250702
57	0xbf6493a6	-0.89287794
58	0x3eb1475b	0.34624752
59	0xbf5e999b	-0.86953133
60	0xbe864160	-0.26221752
61	0xbefbb8bc	-0.4916438
62	0xbf5a840a	-0.85357726
63	0x3f2a05e3	0.6641523
64	0xbf4b65a4	-0.79451966
65	0xbe33ae73	-0.17547016
66	0x3ed0ecf2	0.40805775
67	0x3c81071d	0.015750462
68	0x3ee95751	0.4557443
69	0xbf537b06	-0.82609594
70	0x3f593e23	0.8486044
71	0xbf169fa7	-0.5883736
72	0xbd9a263f	-0.07526826
73	0x3e5500c6	0.20801076
74	0x3f47f7af	0.7811231
75	0x3ea9d61a	0.3317116
76	0xbf2ae699	-0.66758114
77	0xbdcc6f5b	-0.09982177
78	0xbedb83da	-0.42874032
79	0x3e16f56d	0.1474206
80	0x3f7a7c11	0.9784556
81	0xbef89cf3	-0.48557243
82	0x3f64a1be	0.893093
83	0x3e93485f	0.28766152
84	0x3f54bcf4	0.8310082
85	0x3f6d5ab9	0.92716557
86	0xbe60bbd1	-0.21946646
87	0x3f028526	0.5098442
88	0x3f670bf4	0.90252614
89	0xbd1ad854	-0.037803963
90	0xbf5ff120	-0.874773
91	0x3f21a20c	0.6313789
92	0x3f2fb481	0.686348
93	0x3e8c2ecc	0.27379453
94	0xbf6cdc37	-0.9252352
95	0xbe2bf830	-0.16793895
96	0x3eebb8c5	0.46039405
97	0xbeded373	-0.43520698
98	0xbf3bb06d	-0.7331608
99	0xbdefe9e5	-0.11714534
100	0xbf132119	-0.5747238
101	0xbe1955ea	-0.1497418
102	0xbf64cf9c	-0.89379287
103	0xbf390e54	-0.7228749
104	0x3f6fadb1	0.9362441
105	0x3f60e5c1	0.87850577
106	0xbe282352	-0.16419724
107	0xbe347175	-0.17621405
108	0xbee3622e	-0.44410843
109	0xbec0e35c	-0.3767346
110	0xbe1155b7	-0.14192854
111	0xbf36756e	-0.71272933
112	0xbe13280a	-0.14370742
113	0xbf29d926	-0.6634697
114	0x3f6b1f82	0.9184495
115	0xbf61e389	-0.88237816
116	0xbf428297	-0.75980514
117	0x3f60a885	0.8775714
118	0x3daa5195	0.08316342
119	0xbee0feff	-0.43944547
120	0x3e4d5e67	0.20055543
121	0xbe50f079	-0.20404233
122	0xbf3026ee	-0.688094
123	0x3e55bce0	0.20872831
124	0xbec87207	-0.39149496
125	0x3f4d0738	0.8008914
126	0x3f269b1c	0.6508043
127	0x3e1a5c4d	0.15074272

fc1.weight f4 [20, 256, 1]
0	0xbdb762c9	-0.08954389
1	0xbbdb5464	-0.0066934098
2	0xbdabb4d9	-0.08384103
3	0x3d81fade	0.06346677
4	0x3d12148a	0.03566412
5	0xbdad234f	-0.08454
6	0xbd8eba4c	-0.06969127
7	0x3d8e7e0f	0.069576375
8	0x3cd4a63d	0.025958175
9	0xbc80cf5a	-0.015723873
10	0xbcc0fa6a	-0.023556907
11	0xbd1fe348	-0.03903511
12	0x3d1840dd	0.037171233
13	0x3c9bd7f7	0.019023878
14	0x3e304d42	0.17216972
15	0xbb9876d2	-0.0046528364
16	0x3c343a1e	0.011000184
17	0x3d08b297	0.03337344
18	0x3dce029e	0.10059093
19	0xbda33219	-0.0796854
20	0xbd00a039	-0.0314028
21	0x3de5f937	0.112291746
22	0xbc5f3fe3	-0.013626072
23	0x3df0928f	0.11746704
24	0xbd9be5c1	-0.076121815
25	0x3d65e26a	0.05612413
26	0xbb4dcbd4	-0.0031402009
27	0xbc55b6e5	-0.013044094
28	0x3d808b69	0.062765904
29	0x3d436776	0.04770609
30	0xbde34fb8	-0.110991895
31	0xbc971e2b	-0.018447002
32	0xbcb4985c	-0.022045307
33	0xbd99ee66	-0.07516174
34	0xbe12b555	-0.14326985
35	0xbd5551ea	-0.052080072
36	0x3c596be0	0.013270348
37	0x3dc49367	0.09598427
38	0x3df23054	0.11825624
39	0x3d9fc2ab	0.07800802
40	0xbdf987a4	-0.121840745
41	0x3de18fb0	0.11013734
42	0x3e26bae2	0.16282228
43	0xbdc1a65d	-0.094555594
44	0xbc438bca	-0.011935184
45	0x3e073d1e	0.13206908
46	0xbba5562e	-0.005045674
47	0xbccda766	-0.025104236
48	0xbc050141	-0.008117975
49	0x3cdd378d	0.027004028
50	0x3d020642	0.03174425
51	0xbd84d2ef	-0.06485545
52	0xbdbf1b83	-0.09331419
53	0xbe14b5cf	-0.1452248
54	0xbda79c65	-0.08184127
55	0x3d6a0d7c	0.057141766
56	0x3dc2e1fa	0.09515758
57	0x3d55b93b	0.052178603
58	0xbdbe8bed	-0.093040325
59	0x3d279ebb	0.04092286
60	0x3ddd9c8f	0.10820877
61	0x3d20915a	0.039201118
62	0xbcd67518	-0.026178882
63	0xbce0eafa	-0.027455796
64	0x3de59d8e	0.11211692
65	0xbdbbc98e	-0.09169303
66	0x3e0505c9	0.12990488
67	0x3dd85f74	0.10565081
68	0xbd8b3a98	-0.06798285
69	0x3e05caaf	0.13065599
70	0x3cb455f1	0.022013636
71	0x3dc8df79	0.09808249
72	0x3d515596	0.05110701
73	0xbc60fcbd	-0.0137321325
74	0x3d5eb2b8	0.05436966
75	0x3dbad6ba	0.09122987
76	0x3be25b7b	0.006907878
77	0x3dea1e61	0.114315756
78	0xbdff35ef	-0.12461459
79	0x3c7db6da	0.01548549
80	0xbd7dc791	-0.0619579
81	0xbdbf5f09	-0.093442984
82	0xbdedcf32	-0.11611785
83	0xbd07be19	-0.033140276
84	0x3dc9e7e8	0.09858686
85	0xbe044d73	-0.1292017
86	0x3da335f0	0.07969272
87	0xbd9c22fb	-0.076238595
88	0xbc30cd5c	-0.010791149
89	0xbe1005eb	-0.14064758
90	0xbdebdea7	-0.11517077
91	0x3d016cfe	0.031598084
92	0xbdef04c7	-0.11670833
93	0xbd9a2bb3	-0.07527866
94	0x3dd54ebf	0.1041541
95	0xbdc8e965	-0.098101415
96	0xbe13537a	-0.14387313
97	0xbdac0ff3	-0.084014796
98	0x3d5985da	0.053106166
99	0x3c7ad525	0.015309607
100	0x3c4b7556	0.012418112
101	0x3b9db242	0.0048125098
102	0x3d9fe874	0.07808009
103	0x3d21dc69	0.03951684
104	0x3d19fdad	0.03759544
105	0x3e00bb63	0.12571482
106	0x3e29db84	0.16587645
107	0x3dd0edfa	0.102016404
108	0x3d5c61ca	0.053804196
109	0xbdab218d	-0.08356009
110	0x3d46cb1c	0.048533544
111	0x3e10cb86	0.14140138
112	0xbe073d88	-0.13207066
113	0xbdca07bc	-0.098647565
114	0xbdb25888	-0.08708292
115	0x3c2f2086	0.010688907
116	0xbd36b886	-0.04460957
117	0xbd0694d3	-0.032856774
118	0x3da2acc0	0.07943106
119	0x3df0a454	0.11750093
120	0x3e0b6314	0.13612014
121	0x3d52e184	0.0514846
122	0xbd0002b5	-0.03125258
123	0x3e0f509e	0.13995597
124	0x3b901e0d	0.0043981136
125	0xbdec6ac3	-0.11543801
126	0xbd24cb86	-0.040233158
127	0xbdb7e8ea	-0.08979972
128	0xbc45abad	-0.0120648565
129	0xbdc859e8	-0.09782773
130	0xbdb858fe	-0.09001349
131	0xbe116dc7	-0.14202033
132	0x3dbbc212	0.09167875
133	0xbc8cac72	-0.017172072
134	0x3d5aa133	0.053376388
135	0x3da90ea0	0.082547426
136	0xbdeab210	-0.11459744
137	0x3cda3eaf	0.026641218
138	0xbddc0185	-0.10742477
139	0xbddf9722	-0.10917498
140	0xbdde332a	-0.108496025
141	0x3d4b1335	0.049578864
142	0x3e274731	0.16335751
143	0xbdb88b53	-0.09010949
144	0x3d4fbccb	0.050717156
145	0x3d2e3bb9	0.042537425
146	0xbe038b4c	-0.12846106
147	0x3d149ecb	0.03628425
148	0x3d3b3909	0.04570869
149	0xbbb39a3e	-0.0054810336
150	0x3dab124e	0.08353101
151	0x3e0104bd	0.12599464
152	0xbc87c07d	-0.016571278
153	0xbc9eaae1	-0.01936859
154	0x3e024c45	0.12724407
155	0x3d42520e	0.047441535
156	0x3cf231bb	0.029564729
157	0x3d99e795	0.07514874
158	0x3d5031e1	0.05082882
159	0xbd8cf07d	-0.06881807
160	0x3db77eea	0.08959754
161	0xbc6bb6e2	-0.014386864
162	0xbd1c9ee3	-0.038237464
163	0x3d9f0fb5	0.07766668
164	0x3db658df	0.089036696
165	0xbdc8d6aa	-0.09806569
166	0xbe21fee4	-0.1581989
167	0x3dbcbb36	0.09215395
168	0xbddaccef	-0.10683619
169	0xbd3cb259	-0.046068523
170	0xbbfbb4a5	-0.0076814466
171	0x3cb44964	0.022007652
172	0x3bd222a1	0.0064128195
173	0xbe0adcc4	-0.13560778
174	0xbd7055e6	-0.05867567
175	0xbcf3bba5	-0.029752562
176	0x3dc98837	0.09840434
177	0xbd90774c	-0.07054004
178	0xbd069637	-0.0328581
179	0x3d3afa41	0.045648817
180	0xbd7647ff	-0.060127255
181	0x3dbef51b	0.09324094
182	0x3e03187f	0.12802313
183	0xbdc554ab	-0.0963529
184	0xbd8b8810	-0.06813061
185	0xbcc4de18	-0.024031684
186	0xbe2adce1	-0.16685821
187	0x3b26b195	0.0025435437
188	0x3df4e6e2	0.119581
189	0x3e1b2c7f	0.15153693
190	0x3dbf686f	0.09346091
191	0xbde9aa52	-0.11409439
192	0x3d92d620	0.07169747
193	0x3e0a8d2c	0.13530415
194	0xbd6e9989	-0.05825189
195	0xbd415e59	-0.047209118
196	0xbe1eeb94	-0.15519553
197	0xbddaa1b3	-0.10675373
198	0xbdc8f2c9	-0.098119326
199	0x3d90ba1f	0.0706675
200	0x3df0e9f3	0.11763372
201	0xbda14cf5	-0.078760065
202	0x3c266d12	0.01015784
203	0x3dfe3059	0.12411565
204	0x3d389e52	0.04507286
205	0x3dbccc9c	0.09218714
206	0x3e0954f3	0.13411312
207	0x3df50301	0.119634636
208	0xbe071511	-0.1319163
209	0x3e08ea1c	0.13370556
210	0xba6ee80c	-0.0009113557
211	0xbde43070	-0.11142051
212	0xbc80dc6e	-0.015730109
213	0xbe00715c	-0.12543243
214	0xbdba3ced	-0.09093652
215	0xbc5428a0	-0.012949139
216	0x3e01be93	0.12670355
217	0xbdbeaf46	-0.093107745
218	0xbd2e733c	-0.042590365
219	0x3de48977	0.11159032
220	0xbd90903b	-0.0705876
221	0xbe00d015	-0.12579377
222	0xbd9a9bdf	-0.07549261
223	0xbddd4cea	-0.10805686
224	0x3da15488	0.07877451
225	0xbce7d8af	-0.028301565
226	0x3e28d484	0.16487318
227	0xbc06f39d	-0.008236793
228	0xbdfe61b2	-0.12420978
229	0xbdae364c	-0.0850645
230	0xbbf7aaaa	-0.0075581865
231	0xbca417a6	-0.020030808
232	0xbde966de	-0.113965735
233	0xbdceb43b	-0.1009297
234	0x3c681e3c	0.014167365
235	0x3c963cf6	0.018339615
236	0xbcf9c840	-0.030490994
237	0xbce6f3f6	-0.028192502
238	0x3d303191	0.04301602
239	0xbc2c2907	-0.010507829
240	0xbdb0b2ed	-0.086278774
241	0xbbbf1d8a	-0.0058323788
242	0xbe118804	-0.14212042
243	0xbd6020fe	-0.054718964
244	0xbdb78715	-0.08961312
245	0xbcdacb0d	-0.02670815
246	0x3de3542e	0.111000404
247	0x3e020141	0.12695791
248	0x3d0f41bb	0.034974795
249	0x3cf0f751	0.029414805
250	0x3cbb178d	0.022838378
251	0x3dd5d221	0.104404695
252	0x3dac367a	0.08408828
253	0xbdfcf882	-0.123520866
254	0xbd2a4812	-0.041572638
255	0x3d9e3cac	0.07726416

fc1.bias f4 [20]
0	0xbca78476	-0.020448904
1	0xbd0888e5	-0.033333678
2	0xbd943ec0	-0.07238531
3	0xbc411276	-0.011784187
4	0xbd113d94	-0.035459116
5	0x3c93bc46	0.018034112
6	0x3cd95304	0.026528843
7	0x38c78412	9.5136595e-05
8	0xbcba13b9	-0.022714483
9	0x3b33d4be	0.0027440037
10	0x3d618a90	0.055063784
11	0xbd312886	-0.043251537
12	0x3bbbc442	0.005730183
13	0xbc1c3936	-0.0095351245
14	0x3c44e164	0.012016628
15	0x3cc79a37	0.024365528
16	0xbc4f4a4e	-0.012651993
17	0xbc9da699	-0.019244479
18	0x3c970659	0.018435644
19	0x3d57b69b	0.05266438

fc2.weight f4 [20, 20, 1]
0	0x3d19fde1	0.037595633
1	0xbe680bf2	-0.22660807
2	0xbe29c619	-0.16579475
3	0x3eb81693	0.35954723
4	0xbe8b6623	-0.27226362
5	0xbe0b32a9	-0.13593544
6	0x3eb8eafc	0.3611678
7	0x3d1ace15	0.03779419
8	0xbd42c72c	-0.047553226
9	0xbea9a708	-0.33135247
10	0x3e29c9f8	0.16580951
11	0xbe517eb5	-0.20458491
12	0xbe0b88de	-0.1362643
13	0x3ead1bd9	0.3381031
14	0x3e285ae5	0.16440924
15	0x3d1139aa	0.035455383
16	0xbeaf223a	-0.342058
17	0x3d978fa7	0.074004464
18	0xbdffd50f	-0.124918096
19	0xbd82035c	-0.06348297
20	0xbea6d505	-0.32584396
21	0xbebac225	-0.36476246
22	0xbe1b5028	-0.15167296
23	0x3e8270d3	0.25476703
24	0xbd5b6044	-0.053558603
25	0xbdde6a78	-0.10860151
26	0x3d775aab	0.060389202
27	0x3e8e1fda	0.27758676
28	0xbeb86a73	-0.36018714
29	0xbe5359b9	-0.20639695
30	0xbe990ed1	-0.29894117
31	0xba86fc00	-0.001029849
32	0xbdd15947	-0.102221064
33	0x3df0a228	0.11749679
34	0xbea97757	-0.33098862
35	0xbdb78648	-0.08961159
36	0x3d51683b	0.051124793
37	0x3e0a305e	0.13495013
38	0xbdd798af	-0.10527169
39	0x3e992f5d	0.29918948
40	0xbde0e839	-0.10981793
41	0xbec48622	-0.38383585
42	0x3dc2e2c1	0.09515906
43	0x3eb377d6	0.35052365
44	0xbe024a77	-0.12723719
45	0x3e9aab45	0.30208793
46	0x3d0a5e35	0.03378125
47	0x3e30a0c3	0.17248826
48	0xbddab6a0	-0.10679364
49	0x3e990cf1	0.29892686
50	0xbdea17e7	-0.1143034
51	0xbe1f5208	-0.15558636
52	0x3e92b629	0.28654602
53	0x3d95c354	0.073126465
54	0xbba6ddc3	-0.005092354
55	0x3d85cf57	0.065336876
56	0x3e94ab30	0.29036856
57	0x3e80cd7e	0.25156778
58	0xbeab53ba	-0.33462316
59	0x3e91aaf3	0.28450736
60	0xbeccdca6	-0.4001209
61	0x3e44188d	0.1914999
62	0xbe726874	-0.23672658
63	0x3c063eeb	0.008193712
64	0x3e13b4ae	0.14424393
65	0x3e3492d8	0.17634141
66	0x3eb65c50	0.35617304
67	0x3d83c8d6	0.06434791
68	0xbe89981f	-0.26873872
69	0xbe231144	-0.15924555
70	0x3d2372dc	0.03990446
71	0x3e2d809e	0.16943595
72	0x3e77275b	0.24136107
73	0x3dc20a74	0.0947465
74	0x3e6a1da6	0.22862872
75	0x3e8c74a2	0.27432734
76	0xbed2d625	-0.41179004
77	0x3eac7394	0.3368193
78	0x3e08bcd9	0.1335329
79	0xbe0cd6ba	-0.13753787
80	0xbe9653c3	-0.2936078
81	0xbe7ed13b	-0.24884503
82	0xbe0230dd	-0.12713952
83	0x3eb957df	0.36199853
84	0xbd9aa56a	-0.075510815
85	0x3cf00785	0.02930046
86	0x3e732f84	0.23748595
87	0x3e975b24	0.29561722
88	0xbd93ab0b	-0.07210358
89	0x3b35cac0	0.0027739257
90	0x3e6453af	0.22297548
91	0xbde36dfe	-0.11104964
92	0x3ea696c3	0.32536897
93	0xbdff8220	-0.12475991
94	0x3eca48cf	0.39508674
95	0x3e57c429	0.21070923
96	0xbe34708b	-0.17621057
97	0x3e85e7f8	0.2615354
98	0xbe725005	-0.23663338
99	0xbebf9b88	-0.37423348
100	0x3ea32272	0.31862217
101	0x3ebe5a05	0.37178054
102	0x3ebfa2b1	0.3742881
103	0x3e05a9cd	0.13053055
104	0xbe2d6512	-0.16933087
105	0xbd0f6bc2	-0.035014875
106	0x3d88521a	0.06656285
107	0x3eac5cca	0.33664542
108	0x3db17707	0.08665281
109	0xbea2160b	-0.31657442
110	0x3e7c4a73	0.24637775
111	0x3ebb77b9	0.3661478
112	0x3cb34e5f	0.021887956
113	0xbd1e53b6	-0.03865405
114	0xbd2afe8a	-0.041746654
115	0x3e06c630	0.1316154
116	0x3eac1347	0.33608457
117	0x3e4f9b76	0.20274147
118	0xbe7ad360	-0.24494696
119	0xbe89cca6	-0.26913947
120	0x3e614bb1	0.2200153
121	0xbe8ed510	-0.2789693
122	0x3db4d813	0.088302754
123	0xbea083c5	-0.31350532
124	0x3e007ce4	0.12547642
125	0x3e1b3030	0.15155101
126	0x3d85cb10	0.06532872
127	0xbddb0d1a	-0.10695858
128	0xbe3195ca	-0.17342296
129	0x3d3bf158	0.04588446
130	0x3e8079c8	0.25092912
131	0xbe362830	-0.17788768
132	0xbea646c6	-0.3247587
133	0x3c0ea838	0.008707099
134	0x3e918afd	0.28426352
135	0xbd93f3e8	-0.07224256
136	0x3cb8f4ce	0.02257767
137	0xbe9e2d42	-0.30893904
138	0x3e822685	0.25420013
139	0xbe9adac5	-0.30245033
140	0xbc99629d	-0.01872378
141	0x3dedcd9a	0.11611481
142	0x3e6972c0	0.2279768
143	0xbdaeef0d	-0.08541689
144	0x3da87a0a	0.08226402
145	0xbeccff2f	-0.4003844
146	0xbe8ece55	-0.27891794
147	0xbe01cacd	-0.12675019
148	0xbe717f9c	-0.23583835
149	0xbea9bc89	-0.33151653
150	0x3e91177c	0.2833823
151	0x3e32e033	0.17468338
152	0xbe934790	-0.28765535
153	0x3eab6a26	0.33479422
154	0xbcaf64b7	-0.02141033
155	0x3e06642f	0.13124155
156	0xbe34d867	-0.17660676
157	0x3d2e389b	0.042534452
158	0x3e4ecdfd	0.20195766
159	0xbe63d8af	-0.22250627
160	0xbd863380	-0.065527916
161	0xbdc9cfa3	-0.09854057
162	0x3d177b50	0.036982834
163	0x3e990e0a	0.29893523
164	0x3dba562b	0.090984665
165	0x3cd0b414	0.025476493
166	0x3c76a6c4	0.015054408
167	0x3e913350	0.2835946
168	0x3e4681c4	0.19385439
169	0xbe62f6ef	-0.2216451
170	0xbda947dd	-0.0826566
171	0xbdb5b4dc	-0.08872387
172	0xbea870e3	-0.32898626
173	0x3e8cd1a6	0.275037
174	0xbe844e2a	-0.25840884
175	0x3cb26fc4	0.02178181
176	0x3d9fa311	0.07794774
177	0x3d766f4e	0.060164742
178	0xbe05bd79	-0.1306056
179	0xbea1f30e	-0.3163075
180	0x3ea895b4	0.32926714
181	0x3d7d8dcc	0.061902806
182	0x3ead92f2	0.33901173
183	0x3e99b6c3	0.3002225
184	0x3ccd5882	0.025066618
185	0x3ec133d1	0.37734845
186	0xbeafc303	-0.3432847
187	0xbead08a4	-0.33795655
188	0xbea59301	-0.32338718
189	0x3e3fcdd2	0.18730858
190	0x3ea1e221	0.31617835
191	0x3e8083fe	0.25100702
192	0xbe8814a7	-0.26578256
193	0xbe121ba3	-0.14268355
194	0xbe73a0f7	-0.23791872
195	0x3ea5ac90	0.32358217
196	0x3cf6fa48	0.03014864
197	0x3d554b12	0.052073546
198	0xbea3fd7e	-0.32029337
199	0x3d9d913c	0.07693717
200	0xbe1295c5	-0.14314945
201	0xbd88467f	-0.06654071
202	0x3ea10b6a	0.3145402
203	0x3e932376	0.28737992
204	0xbd4fbf7c	-0.050719723
205	0x3e931bc4	0.2873212
206	0xbdf651f7	-0.12027352
207	0xbe85ed79	-0.2615774
208	0x3e1385a7	0.14406453
209	0xbe0114b7	-0.12605558
210	0x3e5a78f3	0.21335201
211	0x3d1c47f9	0.038154576
212	0x3d4b0b7d	0.049571503
213	0xbe12db64	-0.14341503
214	0x3ea2d8dd	0.3180608
215	0xbe04dc7e	-0.12974736
216	0xbd5ff194	-0.054673746
217	0x3e93ecde	0.28891653
218	0x3e553944	0.20822626
219	0x3e7e6751	0.248441
220	0xbe891773	-0.26775703
221	0xbe8a6765	-0.2703201
222	0xbe832f92	-0.2562223
223	0xbdf09a54	-0.11748186
224	0xbe2b5d67	-0.16734849
225	0x3e4f5009	0.20245375
226	0xbcedfc11	-0.029050859
227	0x3e25fab8	0.16208923
228	0xbea42e83	-0.32066736
229	0x3e669370	0.2251718
230	0xbe988797	-0.29790947
231	0x3e7c0a48	0.24613297
232	0xbe26a695	-0.16274484
233	0x3dd26dbc	0.102748364
234	0xbdf70e09	-0.12063224
235	0x3defaa09	0.117023535
236	0xbeb0afb4	-0.3450905
237	0x3de63077	0.11239713
238	0xbce1e66c	-0.027575694
239	0x3d81432d	0.06311641
240	0xbc645edc	-0.013938632
241	0x3e4c8c9c	0.19975513
242	0xbec753c0	-0.38931084
243	0xbeb7a6db	-0.35869488
244	0xbe48b7be	-0.19601342
245	0xbe19e6d3	-0.15029459
246	0xbe95e079	-0.29272822
247	0x3e41d96c	0.18930596
248	0xbe11b959	-0.14230861
249	0xbdffa527	-0.12482672
250	0xbd801bc2	-0.062552944
251	0xbd8bb284	-0.068211585
252	0xbe9292bf	-0.28627583
253	0xbda5cac6	-0.080953166
254	0xbdafbccf	-0.08580934
255	0x3e276fe2	0.16351274

fc2.bias f4 [20]
0	0x3e427511	0.1898997
1	0x3e0c0460	0.13673544
2	0xbdf01649	-0.117230006
3	0x3db2dad5	0.08733145
4	0xbbc3219e	-0.005954935
5	0x3d993db7	0.07482474
6	0xbe02d695	-0.12777169
7	0xbe8ff18d	-0.28113976
8	0x3d8dc3bb	0.06922098
9	0xbddfab33	-0.109213255
10	0x3dc7a8dc	0.09749004
11	0xbe2c9d50	-0.16856885
12	0xbd4c154d	-0.049825
13	0xbbfb602c	-0.0076713767
14	0x3c7e02ca	0.015503595
15	0xbe12e37d	-0.14344592
16	0x3d4fa872	0.05069775
17	0xbac7c9de	-0.0015242656
18	0xbc9254b7	-0.01786266
19	0xbe7089a3	-0.23490004

fc3.weight f4 [1, 20, 1]
0	0x3e9b927c	0.30385196
1	0x3aeb3c1d	0.0017946992
2	0x3ecd9053	0.40149173
3	0xbaab8aff	-0.0013087689
4	0x3f00d41b	0.5032365
5	0x3c34687a	0.011011237
6	0x3e561dc5	0.20909794
7	0xbe8f547a	-0.27994138
8	0xbe421bc0	-0.18955898
9	0xbe548aae	-0.20756027
10	0xbf029840	-0.51013565
11	0xbedae4bc	-0.42752635
12	0xbda68aed	-0.08131967
13	0x3e1fab3b	0.15592663
14	0x3eaae681	0.33378986
15	0x3eb3e5ee	0.3513636
16	0x3e012d18	0.12614858
17	0x3e3669c4	0.17813784
18	0x3ebca480	0.36844254
19	0xbe34ef83	-0.17669491
