SoSDP/SoS/50/actor.pt (torch, 739908 bytes, 14 tensors)

static_encoder.conv.weight f4 [128, 9, 1]
0	0x3e1a7540	0.1508379
1	0x3cdd4086	0.027008306
2	0x3d36ba1f	0.044611093
3	0xbe18dfea	-0.14929166
4	0xbe6b7460	-0.22993612
5	0xbe9cef71	-0.3065143
6	0x3e358be0	0.1772914
7	0xbe2b6ade	-0.16739985
8	0x3e74a67b	0.23891632
9	0xbc2614b3	-0.010136771
10	0x3de5ce57	0.11220997
11	0xbdc3a2f8	-0.09552568
12	0xbd35dfc0	-0.044402838
13	0x3db843bb	0.089972936
14	0xbe4b1c43	-0.19835
15	0x3d7c0fe4	0.061538592
16	0x3e8a93d7	0.27065918
17	0xbdf16d96	-0.1178848
18	0xbdb9c1fa	-0.09070201
19	0xbc16d2c8	-0.009205528
20	0xbd27ca14	-0.0409642
21	0xbd1342d6	-0.03595241
22	0x3e7a727d	0.24457736
23	0x3e0d98e9	0.13827862
24	0xbe28f4b9	-0.16499604
25	0xbdea8cbb	-0.114526235
26	0x3e3dc057	0.18530403
27	0xbc08a06c	-0.008339029
28	0x3db0737e	0.086157784
29	0x3cd297bf	0.025707124
30	0xbdde8408	-0.10865027
31	0xbe81abf1	-0.25326493
32	0xbcd2e023	-0.025741642
33	0x3d358c49	0.04432324
34	0xbd0fd310	-0.035113394
35	0x3e87f55f	0.2655439
36	0x3df22420	0.118232965
37	0x3e04bccc	0.12962645
38	0xbe2790ef	-0.16363882
39	0x3d98bcd0	0.07457888
40	0xbea4b528	-0.3216946
41	0xbe9da343	-0.3078862
42	0xbd2b044b	-0.04175214
43	0xbd7490b2	-0.059708305
44	0x3e5f4e0f	0.2180712
45	0x3e03d46d	0.12874003
46	0x3d9e4350	0.077276826
47	0xbe0b1abf	-0.13584422
48	0xbd0bbeda	-0.034117557
49	0xbe0d9c89	-0.13829245
50	0xbe5c289e	-0.21499869
51	0x3e091456	0.13386664
52	0x3eb2f8bd	0.34955397
53	0xbe8843be	-0.26614183
54	0xbe04e1ac	-0.12976712
55	0x3df5f074	0.120087534
56	0xbcbe4800	-0.023227692
57	0x3dd485ab	0.10377058
58	0x3e222ada	0.15836659
59	0xbe8b431c	-0.27199638
60	0x3dfa465d	0.12220452
61	0x3d9580c7	0.07299953
62	0xbe171134	-0.14752656
63	0x3e1c7c67	0.1528183
64	0xbd0f22b0	-0.03494519
65	0x3dbdeea8	0.09274036
66	0xbdec4dfb	-0.11538311
67	0xbebb23a1	-0.3655062
68	0xbd38bb26	-0.045100354
69	0x3e1e22db	0.15442984
70	0xbd101185	-0.035172958
71	0x3dda701d	0.10665915
72	0x3dbcfbaf	0.09227692
73	0xbdd5b9f3	-0.104358576
74	0xbd7f72e3	-0.062365424
75	0x3dad579f	0.08463978
76	0x3c37c080	0.011215329
77	0x3e37b76c	0.17941064
78	0xbe404812	-0.18777493
79	0x3e3d78b6	0.18503079
80	0xbe0138ea	-0.12619367
81	0x3d86685c	0.06562874
82	0x3d74cec0	0.059767485
83	0x3d72bf24	0.059264317
84	0x3d682e47	0.05668476
85	0xbeb2a557	-0.3489177
86	0xbe12c733	-0.14333801
87	0xbbcfafe0	-0.0063381046
88	0xbe6de1f6	-0.23230729
89	0x3e28ada2	0.16472486
90	0xbcdb4310	-0.026765376
91	0xbd3f7330	-0.04674071
92	0x3d7b76f5	0.061392743
93	0x3ce095f6	0.027415257
94	0xbe0037df	-0.12521313
95	0xbd37572a	-0.04476086
96	0x3e3ce51f	0.18446778
97	0x3df6e1d9	0.12054796
98	0xbe424cc0	-0.1897459
99	0x3bbb3859	0.0057135043
100	0x3cf3d586	0.029764902
101	0x3e1fe8be	0.15616128
102	0x3d101c26	0.035183094
103	0xbd8ce58b	-0.06879719
104	0xbe9ffd4e	-0.31247944
105	0xbea1d0ac	-0.31604517
106	0xbccc2f9e	-0.02492505
107	0x3e681b67	0.22666703
108	0x3a2d0a10	0.00066009257
109	0x3d905740	0.070478916
110	0xbd7b173d	-0.06130146
111	0xbd2909fe	-0.041269295
112	0x3e909987	0.28242132
113	0x3e40c79b	0.18826143
114	0xbe578a5a	-0.2104887
115	0x3e20f9a9	0.15720238
116	0xbed24156	-0.41065472
117	0x3e008c69	0.12553562
118	0x3db2ee85	0.087369
119	0xbd7d68ea	-0.061867632
120	0x3ca78ff8	0.020454392
121	0xbeb5eb94	-0.35531294
122	0xbc9401f0	-0.01806733
123	0xbd5fe95a	-0.0546659
124	0xbdad6704	-0.08466914
125	0xbdb8447d	-0.08997438
126	0x3d9cdeaa	0.07659657
127	0xbdc9da6e	-0.09856115
128	0x3d821585	0.06351761
129	0x3d0d6e61	0.034529094
130	0xbd0fd2c0	-0.035113096
131	0x3dd56e5c	0.1042144
132	0x3e496199	0.19666137
133	0xbd3b51ae	-0.045732193
134	0xbef9dddd	-0.4880208
135	0x3dbf9b5f	0.093558066
136	0xbd711130	-0.058854282
137	0x3d351c54	0.04421647
138	0x3cbbf010	0.02294162
139	0xbeac6b9e	-0.33675855
140	0xbe2b77c9	-0.16744913
141	0xbe1fa81d	-0.15591474
142	0x3d643b9d	0.055720914
143	0x3e960070	0.2929721
144	0xbc321e8f	-0.010871544
145	0x3b0db5df	0.0021623296
146	0x3d4b463c	0.049627528
147	0x3df4bada	0.119497016
148	0x3dfb0dcb	0.1225849
149	0x39b7abb4	0.0003503241
150	0xbe6c4ec6	-0.23076925
151	0xbebd4a0d	-0.3697056
152	0x3e1cacdf	0.1530032
153	0x3c85fc3c	0.016355626
154	0xbbde88c9	-0.0067912084
155	0xbd862743	-0.06550457
156	0xbceead0f	-0.029135255
157	0x3984070f	0.0002518226
158	0x3e92cc6f	0.28671595
159	0xbd986402	-0.0744095
160	0xbdb5e272	-0.08881082
161	0x3cd91782	0.026500467
162	0xbcf53ec4	-0.029937156
163	0xbb953bd3	-0.0045542507
164	0xbd3b8e08	-0.04578975
165	0x3ce8fc4c	0.028440617
166	0x3e8712bb	0.26381478
167	0xbc66cfbe	-0.014087616
168	0x3d0a80c2	0.0338142
169	0x3de4d901	0.11174203
170	0xbe9017e3	-0.28143224
171	0xbe0c3b28	-0.13694441
172	0xbbe09c2b	-0.006854554
173	0xbd4ab65e	-0.049490325
174	0x3d5ee8e5	0.054421324
175	0x3e8df034	0.27722323
176	0xbe88cf6b	-0.26720747
177	0xbd20d938	-0.039269656
178	0x3d125204	0.035722747
179	0x3ed6c7e8	0.4194939
180	0x3c9566a8	0.018237427
181	0x3c55d4e7	0.013051248
182	0xbd90f2ef	-0.07077586
183	0x3c066c8b	0.00820459
184	0x3e8a52fb	0.27016434
185	0x3ea3fd89	0.3202937
186	0xbe290d0c	-0.16508883
187	0xbe7da47b	-0.24769776
188	0xbe72282d	-0.23648138
189	0xbe0d9366	-0.1382576
190	0xbe105a5f	-0.14096974
191	0x3df9580a	0.12174995
192	0x3d8360a4	0.06414917
193	0x3e8e5360	0.27797985
194	0x3e9c51cc	0.30531156
195	0x3dea5406	0.114418074
196	0x3dce555e	0.10074876
197	0xbea7ad7f	-0.32749555
198	0xbd6cafea	-0.057784952
199	0x3de21f82	0.11041166
200	0xbe009123	-0.12555365
201	0xbdc18a55	-0.09450213
202	0xbcd41434	-0.02588854
203	0xbd52a16f	-0.051423486
204	0x3ea3fbb8	0.32027984
205	0x3e464209	0.19361128
206	0x3c989374	0.018624999
207	0xbdc5e6c0	-0.09663153
208	0x3d9071d6	0.070529625
209	0x3dea0fd8	0.11428803
210	0xbdc41dc8	-0.09575993
211	0x3eb16aca	0.34651786
212	0xbc46d44a	-0.012135575
213	0xbe17ea39	-0.14835443
214	0xbd8430f7	-0.06454652
215	0x3d0412e7	0.03224459
216	0xbde2cf53	-0.110747
217	0xbddb45b1	-0.10706652
218	0x3d7c575a	0.061606742
219	0x3cf95ce0	0.030439794
220	0xbe81e32f	-0.2536864
221	0x3dc0351f	0.09385132
222	0xbe450975	-0.19241889
223	0x3da50b8c	0.08058843
224	0x3f03946b	0.5139834
225	0x3df3fb89	0.11913211
226	0x3e276eeb	0.16350906
227	0x3cebaacb	0.028767964
228	0xbda2f510	-0.07956898
229	0xbe05fc04	-0.13084418
230	0xbe95ffa6	-0.29296607
231	0xbdffca37	-0.12489741
232	0x3e85701d	0.26062098
233	0xbe755971	-0.239599
234	0xbc3ab24a	-0.0113950465
235	0xbda171fa	-0.078830674
236	0xbdb32d06	-0.08748822
237	0x3d2e8a83	0.042612564
238	0x3e0fec54	0.14054996
239	0xbe7e536e	-0.24836513
240	0x3ebf046c	0.3730806
241	0x3e442ed2	0.19158486
242	0x3bc44851	0.005990066
243	0x3c30bdc6	0.010787433
244	0xbdad8a5a	-0.08473654
245	0xbd101bec	-0.03518288
246	0xbb42aa6d	-0.0029703632
247	0xbd41ef8b	-0.047347587
248	0x3e65f55b	0.22456877
249	0x3e153a4a	0.14573017
250	0xbc6adf9b	-0.014335538
251	0xbe03c189	-0.12866797
252	0xbdac1f28	-0.0840438
253	0x3cd01c56	0.025404137
254	0x3e12ad99	0.14324035
255	0x3e166e16	0.14690432

static_encoder.conv.bias f4 [128]
0	0x3e09f701	0.13473131
1	0xbe8aa854	-0.2708155
2	0x3d952961	0.07283283
3	0xbdad7346	-0.08469252
4	0xbe4555b3	-0.19270973
5	0xbe801f6a	-0.25023967
6	0xbe86ab41	-0.2630253
7	0x3e9d45f7	0.3071744
8	0x3e2b613e	0.16736314
9	0xbec63b2b	-0.38717017
10	0x3ecb9585	0.39762512
11	0xbe366e0b	-0.17815416
12	0xbd0118c5	-0.031517763
13	0xbe6f104c	-0.2334606
14	0x3e9eef34	0.31041873
15	0x3c418fe4	0.011814091
16	0x3bab8f79	0.005235609
17	0x3de5074a	0.11183031
18	0xbdbb29ab	-0.09138807
19	0xbdccdaff	-0.10002708
20	0xbc14cf40	-0.009082615
21	0xbe8d6bd7	-0.27621338
22	0xbdaa27f7	-0.08308404
23	0x3abe8fee	0.0014538744
24	0x3df6002e	0.12011753
25	0x3e2c3571	0.16817261
26	0xbe6a7281	-0.22895242
27	0xbbae3d4f	-0.005317367
28	0x3b88c82b	0.0041742525
29	0x3cc01057	0.023445291
30	0x3d53295a	0.051553108
31	0xbea1cd29	-0.31601837
32	0xbda71ec1	-0.08160163
33	0xbce0dc5e	-0.02744883
34	0xbe0c4ee2	-0.13701966
35	0x3d56cc28	0.052440792
36	0xbdfbef4d	-0.123015024
37	0x3d8c3c33	0.068474196
38	0xbe37183e	-0.17880341
39	0x3e9acfd7	0.30236694
40	0x3e0bd8d4	0.13656932
41	0xbdf938ef	-0.12169062
42	0xbc2eb7a9	-0.010663905
43	0x3e4d4e6e	0.2004945
44	0xbd8229d1	-0.06355632
45	0xbd76377d	-0.06011151
46	0x3dafaf13	0.08578315
47	0x3e55d401	0.20881654
48	0x3e7162d8	0.23572862
49	0xbeaff888	-0.34369302
50	0xbe3a02e0	-0.18165159
51	0x3d70f5a3	0.058828007
52	0xbe3549b8	-0.17703903
53	0x3c96fcda	0.018431116
54	0xbea6ffc5	-0.32617012
55	0xbd3408f1	-0.04395384
56	0xbe8e0e42	-0.27745253
57	0x3ea37ea5	0.3193256
58	0x3d98b821	0.07456995
59	0x3ac3e6ea	0.0014946137
60	0xbe41d97d	-0.18930621
61	0xbe014afc	-0.1262626
62	0x3e6e1304	0.23249441
63	0xbdf61c75	-0.120171465
64	0xbe9bca0b	-0.30427584
65	0x3e93a3a3	0.28835782
66	0x3e26db2c	0.16294545
67	0xbe5ee3a4	-0.21766526
68	0xbe659ebf	-0.22423838
69	0x3e801287	0.25014135
70	0xbd2a19ce	-0.041528516
71	0x3e14671a	0.14492455
72	0xbb97522f	-0.0046179513
73	0x3e9d8b0b	0.30770144
74	0x3dccf373	0.10007372
75	0xbe057cbd	-0.13035865
76	0x3e78670b	0.24258058
77	0xbde784b4	-0.11304608
78	0x3e816463	0.252719
79	0xba0e0605	-0.0005417767
80	0x3eab3dff	0.33445737
81	0xbed251cb	-0.41078028
82	0xbe0b093a	-0.13577738
83	0xbe1c49c6	-0.15262517
84	0xbeb85ec1	-0.36009791
85	0xbd8681a6	-0.06567697
86	0x3e5ee43b	0.2176675
87	0x3e4c41d4	0.19946986
88	0xbe36e303	-0.17860036
89	0x3ea8795e	0.32905096
90	0x3e547288	0.20746815
91	0x3e7fcd28	0.24980605
92	0xbe67acad	-0.22624464
93	0xbe583563	-0.21114115
94	0xbe8cc95d	-0.27497378
95	0x3e58786d	0.21139689
96	0xbdab6db6	-0.08370535
97	0x3d06f58c	0.032949015
98	0x3e408c0b	0.18803422
99	0xbd6c8038	-0.057739466
100	0x3dc8dc6d	0.09807668
101	0xbd8a8ab2	-0.06764735
102	0x3e27e6f4	0.16396695
103	0x3eb3d13c	0.3512057
104	0x3cfe6820	0.03105551
105	0x3da87849	0.082260676
106	0x3ea3f7da	0.32025033
107	0xbd7bd43a	-0.061481692
108	0x3d9a74de	0.07541822
109	0xbd8ee475	-0.069771685
110	0x3e085e7a	0.1331729
111	0x3e923b39	0.28560808
112	0x3e76e72a	0.2411162
113	0xbe8ca309	-0.27468136
114	0xbe47b139	-0.19501199
115	0xbea2ddaf	-0.31809756
116	0x3e37b7e7	0.17941247
117	0x3e457d70	0.19286132
118	0xbd3ae221	-0.04562581
119	0x3e1f0623	0.15529685
120	0xbdd26413	-0.10272994
121	0x3e880549	0.26566532
122	0x3e6fea18	0.23429143
123	0x3e68cd75	0.22734626
124	0xbdf3281f	-0.11872887
125	0xbe25eb2b	-0.1620299
126	0x3e8b9fbb	0.27270302
127	0xbdfaabff	-0.12239837

dynamic_encoder.conv.weight f4 [128, 1, 1]
0	0xbe49287a	-0.19644347
1	0x3e14cc54	0.1453107
2	0xbe57765a	-0.21041241
3	0x3dd479f8	0.10374826
4	0x3e31c7be	0.17361352
5	0xbe581d4f	-0.2110493
6	0x3ce41140	0.027840257
7	0xbd85c066	-0.06530838
8	0x3e30cf3c	0.17266554
9	0xbd8a642a	-0.06757386
10	0xbd25263c	-0.040319666
11	0x3e53e7e6	0.20693931
12	0x3e357834	0.17721635
13	0x3d6d8558	0.057988495
14	0xbd1ef7e0	-0.03881061
15	0x3e457be2	0.19285539
16	0xbde183d6	-0.11011474
17	0xbe38a456	-0.18031439
18	0x3e49cb7a	0.19706526
19	0x3e37d8f2	0.17953852
20	0xbcad56d0	-0.02115956
21	0x3e0ea510	0.13930154
22	0x3db6e6b8	0.08930725
23	0x3e474e18	0.19463384
24	0x3dede170	0.116152644
25	0x3d232330	0.03982848
26	0xbd5a97ec	-0.05336754
27	0xbe382777	-0.17983805
28	0x3dfeb718	0.12437266
29	0xbd1098e4	-0.035302058
30	0xbd878d8e	-0.06618796
31	0xbddee1e1	-0.10882927
32	0xbe1be860	-0.15225363
33	0xbaba7a00	-0.0014227033
34	0xbe21884b	-0.15774648
35	0xbe311987	-0.17294894
36	0xbd6a1628	-0.057150036
37	0x3e35133e	0.17683122
38	0x3bf8e540	0.007595688
39	0x3ddb3250	0.10702956
40	0xbde96c50	-0.11397612
41	0x3d90d534	0.07071915
42	0xbd95bb9c	-0.07311174
43	0x3e019cbe	0.12657449
44	0x3d423208	0.047410995
45	0xbe2463fc	-0.16053766
46	0xbd87a472	-0.06623162
47	0xbd9621f6	-0.07330696
48	0x3dd32910	0.103105664
49	0xbe30b965	-0.17258222
50	0x3e4d7de6	0.20067558
51	0x3ca48388	0.02008225
52	0xbd5f89e4	-0.054574862
53	0x3cc219b8	0.023693904
54	0xbd83a1b4	-0.06427327
55	0xbe165d12	-0.14683941
56	0xbcdc4500	-0.02688837
57	0xbe24d925	-0.16098459
58	0x3e4050e4	0.18780857
59	0x3e58a022	0.21154836
60	0xbe267764	-0.16256481
61	0x3e4a4f52	0.19756821
62	0xbe08e002	-0.13366702
63	0x3e1c5de8	0.15270197
64	0xbdf08c25	-0.117454804
65	0x3e19861e	0.14992568
66	0x3e1b70d6	0.15179762
67	0xbc944a88	-0.018101946
68	0x3e3b6a8e	0.18302366
69	0xbd5ae110	-0.053437293
70	0xbdf92400	-0.121650696
71	0xbde36980	-0.11104107
72	0xbe114911	-0.14188029
73	0x3c6bd510	0.01439406
74	0x3d0d2218	0.034456342
75	0x3cb486b0	0.02203688
76	0x3d487c28	0.04894653
77	0x3cc340f8	0.02383469
78	0x3e4dc08e	0.20092985
79	0xbe10f728	-0.14156783
80	0xbdea3817	-0.114364795
81	0x3e5a5ff4	0.21325666
82	0xbd6c7b28	-0.05773464
83	0xbe142c00	-0.1446991
84	0x3d830528	0.06397468
85	0x3d603910	0.05474192
86	0xbd233a50	-0.039850533
87	0x3e4063dc	0.18788093
88	0xbe3d96be	-0.18514535
89	0x3d8b3c64	0.06798628
90	0x3e37f838	0.17965782
91	0x3d72dbf0	0.05929178
92	0x3ccb5338	0.024819955
93	0x3e1e8b9e	0.15482947
94	0x3d7cf420	0.061756253
95	0xbd8aa39c	-0.06769487
96	0x3e49e132	0.19714811
97	0xbdb87da2	-0.090083376
98	0xbe38015e	-0.17969272
99	0xbc00b750	-0.007856205
100	0xbc859c90	-0.016310006
101	0x3cca21e0	0.024674356
102	0x3c4142a0	0.01179567
103	0x3d8c1840	0.06840563
104	0xbe439786	-0.1910077
105	0x3bd827a0	0.0065965205
106	0xbbf47460	-0.007460162
107	0xbd817580	-0.063212395
108	0xbe2dd05a	-0.16974011
109	0x3d3caf80	0.046065807
110	0x3e49dee8	0.19713938
111	0x3c137fd0	0.009002641
112	0xbd9da112	-0.07696737
113	0x3e1f832a	0.15577379
114	0xbd56f3f4	-0.052478746
115	0xbd0a8d98	-0.03382644
116	0xbdc90fac	-0.09817442
117	0x3e2b3fa2	0.16723493
118	0xbe20153a	-0.15633097
119	0xbc8c72e8	-0.017144635
120	0xbe34a89d	-0.17642446
121	0xbda9f580	-0.082987785
122	0x3dc3d3f8	0.09561914
123	0x3d6112f0	0.0549497
124	0xbe1770c6	-0.14789113
125	0xbdfdb5a2	-0.12388159
126	0x3e559f9e	0.2086167
127	0x3e4919fc	0.19638819

dynamic_encoder.conv.bias f4 [128]
0	0x3f13b1f0	0.57693386
1	0x3f09af75	0.5378335
2	0x3f67c95d	0.9054163
3	0xbee3b3f5	-0.44473234
4	0xbf39385b	-0.72351617
5	0xbe8077db	-0.25091442
6	0x3f6bd67a	0.9212414
7	0x3ef2d08b	0.4742473
8	0xbf6717fa	-0.9027096
9	0x3f00c163	0.50295085
10	0x3f617ad6	0.8807806
11	0xbf4573e0	-0.77129936
12	0xbead11c5	-0.3380262
13	0xbf60dde1	-0.8783856
14	0x3ef5160e	0.4786839
15	0xbf813364	-1.0093808
16	0xbf2c9390	-0.6741266
17	0xbe2364d7	-0.15956436
18	0xbf5d7408	-0.86505175
19	0x3f03776c	0.513541
20	0x3f1b8bf3	0.6076042
21	0x3e16ac1c	0.14714092
22	0xbf321964	-0.69569993
23	0x3f77c5d6	0.9678625
24	0x3ec2ea37	0.38069317
25	0xbf4bfb3b	-0.7968022
26	0x3f8f2832	1.1184142
27	0xbeeacbee	-0.4585871
28	0x3f10dfb2	0.5659133
29	0x3e6a362c	0.22872227
30	0xbf53119c	-0.82448745
31	0xbe257a82	-0.16160014
32	0x3ea13bef	0.31491038
33	0xbf11eb90	-0.57000065
34	0xbf8e6f2c	-1.1127677
35	0x3e69d58d	0.2283537
36	0x3f3c2d1a	0.7350632
37	0x3e1890f3	0.14899044
38	0xbee1c6f8	-0.44097114
39	0x3f0be788	0.54650164
40	0x3f54100e	0.82837
41	0xbe2dece4	-0.16984898
42	0x3e8c733c	0.27431667
43	0xbef061a8	-0.46949506
44	0xbf0f9b28	-0.56096125
45	0xbf4845e7	-0.7823166
46	0xbf24baab	-0.6434733
47	0x3f8c873d	1.0978771
48	0x3f0b0fb2	0.54320824
49	0x3e9f6d57	0.31138107
50	0xbed40f6b	-0.41418013
51	0xbe8b13ae	-0.27163452
52	0x3f83e626	1.0304611
53	0x3eb39b24	0.350793
54	0x3f87e6a4	1.0617261
55	0x3eebbb7e	0.46041483
56	0x3f88a404	1.0675054
57	0x3e21f434	0.15815812
58	0x3ebed029	0.3726819
59	0xbf5e154c	-0.86751246
60	0xbf07a7c8	-0.5299039
61	0x3eda66c2	0.42656523
62	0xbf870ea6	-1.0551345
63	0x3edbdc6e	0.42941612
64	0xbf8508a3	-1.0393261
65	0xbf67e45e	-0.90582836
66	0x3ef7e7f5	0.48419157
67	0x3f47b01c	0.78003097
68	0xbf875d08	-1.0575266
69	0xbf8ed037	-1.1157292
70	0x3f86e6f1	1.0539228
71	0x3e14ad28	0.14519179
72	0xbe5c8136	-0.21533665
73	0xbe6a4ebf	-0.22881602
74	0x3efd2a50	0.49446344
75	0xbe44bdaa	-0.19212976
76	0xbea82e11	-0.32847646
77	0xbf332f6d	-0.6999424
78	0xbf358803	-0.7091066
79	0xbf425f0d	-0.75926286
80	0xbf6329d4	-0.887357
81	0xbe3e7094	-0.18597633
82	0x3f18f4af	0.5974836
83	0xbe2840d0	-0.16430974
84	0x3f5147d8	0.8175025
85	0xbea6d1ea	-0.32582027
86	0xbf2822c9	-0.6567808
87	0xbf4ba83a	-0.7955357
88	0xbf775809	-0.96618706
89	0x3f7a0026	0.97656476
90	0x3f842fe8	1.032712
91	0x3e865ea3	0.26244077
92	0x3f8f6fb7	1.1205968
93	0x3f37087e	0.71497333
94	0xbebf4473	-0.3735691
95	0xbf6fdcef	-0.9369649
96	0xbf06633a	-0.5249516
97	0x3ecc9932	0.3996063
98	0x3f6398ea	0.88905203
99	0x3f587929	0.84559876
100	0x3f8e28d6	1.1106212
101	0xbf8cdc90	-1.100481
102	0x3eb6f5cd	0.35734406
103	0x3eec3d28	0.4614041
104	0x3ea53e65	0.32274166
105	0x3f27987f	0.65467066
106	0x3ef7a0dc	0.48364913
107	0x3f2baca8	0.6706033
108	0xbeb9632e	-0.3620848
109	0x3eb07a4d	0.34468308
110	0x3e93f1c6	0.28895396
111	0xbf718796	-0.9434751
112	0x3eede087	0.46460363
113	0x3eceb2fa	0.40370923
114	0x3e616350	0.22010541
115	0xbf3138e1	-0.69227415
116	0xbe9bda32	-0.30439907
117	0x3f079d0b	0.52974004
118	0xbf8ef094	-1.1167169
119	0x3f56d5da	0.8392006
120	0x3f0c17a9	0.547236
121	0x3d9925b2	0.07477893
122	0xbf84fd1e	-1.0389745
123	0x3f190f61	0.5978909
124	0xbe842964	-0.2581283
125	0xbf1ddfc3	-0.6166956
126	0xbea01cf2	-0.31272084
127	0xbe2f1ccc	-0.17100829

decoder.conv.weight f4 [128, 9, 1]
0	0xbe55fd9a	-0.20897523
1	0xbd481c78	-0.048855275
2	0x3d5e422b	0.05426232
3	0xbe739b45	-0.237897
4	0x3dd725e8	0.10505277
5	0x3cf63223	0.030053204
6	0xbdfb14cc	-0.12259826
7	0x3dc75d06	0.0973454
8	0xbd6e35bb	-0.05815671
9	0xbd71d6f1	-0.059042875
10	0xbcf9b2de	-0.030480798
11	0xbe448de1	-0.19194748
12	0xbe659321	-0.22419406
13	0xbd2de73d	-0.042456854
14	0x3e557053	0.2084363
15	0x3db08bff	0.08620452
16	0xbe13104b	-0.14361684
17	0x3da4c6f6	0.08045761
18	0x3e5e35cd	0.21700211
19	0x3e251272	0.16120318
20	0x3e0ce618	0.13759649
21	0x3e0ba5e3	0.136375
22	0x3e318ba1	0.1733842
23	0xbd197272	-0.03746266
24	0xbd9b3a9c	-0.07579538
25	0x3d828afd	0.06374166
26	0x3e73493f	0.2375841
27	0x3e1e1670	0.15438247
28	0x3db71312	0.08939184
29	0x3dbd050f	0.092294805
30	0x3cddd214	0.027077712
31	0x3dbdaf49	0.092619486
32	0x3b5af8dc	0.0033412492
33	0xbe14a38e	-0.14515516
34	0xbdbbe8b6	-0.091752455
35	0x3c0bb8f4	0.008527983
36	0xbc1c6ac5	-0.00954694
37	0x3db33e7d	0.08752153
38	0x3c055d3e	0.008139906
39	0x3dd8a7a6	0.105788514
40	0x3dfadbe5	0.12248973
41	0xbd8150c5	-0.06314234
42	0x3df93e1b	0.12170049
43	0xbe13447a	-0.1438159
44	0x3e57b75b	0.21066038
45	0x3da22f49	0.07919175
46	0x3e27f825	0.16403253
47	0xbde8af29	-0.11361534
48	0xbe04e679	-0.12978543
49	0x3d03d2c7	0.032183435
50	0xbe22bbcf	-0.15891956
51	0xbd3e4116	-0.04644879
52	0xbe6addb2	-0.22936133
53	0x3e03e126	0.12878856
54	0x3c8798af	0.016552297
55	0xbd1b9391	-0.037982527
56	0x3c95e19e	0.01829606
57	0xbd2ce7a6	-0.042213105
58	0xbd1f27fd	-0.038856495
59	0xbe649e49	-0.22326006
60	0xbd5128dc	-0.051064357
61	0x3d331bb4	0.04372759
62	0xbd1b49ed	-0.037912298
63	0x3e214355	0.15748341
64	0x3e649da4	0.2232576
65	0x3cc04e41	0.023474814
66	0xbca5b122	-0.020226065
67	0x3df4bfbf	0.11950635
68	0x3a863374	0.0010238723
69	0xbc8ecca6	-0.017431568
70	0xbc33f96a	-0.010984758
71	0x3e42c8b2	0.19021872
72	0xbe0b36ff	-0.13595198
73	0x3e376663	0.17910151
74	0xbc9aea29	-0.018910484
75	0xbe1c6437	-0.15272604
76	0xbd4106bb	-0.04712556
77	0xbe4328fb	-0.19058602
78	0xbe18cc55	-0.14921696
79	0xbe22ad31	-0.1588638
80	0x3cbd60a2	0.023117367
81	0xbe0228bc	-0.12710851
82	0xbe8baba9	-0.27279404
83	0x3cdf508c	0.027260087
84	0xbe77ae2a	-0.24187532
85	0xbe5569bb	-0.20841114
86	0xbe88c91f	-0.26715943
87	0xbd1bd693	-0.03804643
88	0xbe68e07f	-0.22741888
89	0xbe268565	-0.16261823
90	0x3d008614	0.031377867
91	0x3c83622a	0.01603802
92	0xbde28b26	-0.11061697
93	0x3e38713c	0.18011945
94	0x3e635b09	0.22202696
95	0x3e7ff7a1	0.24996807
96	0x3e460d3f	0.1934099
97	0x3e625a9a	0.22104874
98	0x3df72689	0.12067897
99	0x3e355d3a	0.17711344
100	0xbbe4291b	-0.006962908
101	0xbe5a9df3	-0.21349315
102	0x3d759325	0.05995478
103	0x3e548d63	0.2075706
104	0xbdfaa964	-0.1223934
105	0x3d138062	0.036011107
106	0x3e033e6d	0.12816782
107	0x3e0654b3	0.13118248
108	0x3df1c18a	0.11804493
109	0xbbf5a0db	-0.007495982
110	0x3e2322b2	0.15931204
111	0x3e37d324	0.17951638
112	0x3df4e43e	0.11957596
113	0x3e81c4fc	0.253456
114	0xbdf62d2f	-0.12020337
115	0xbddc1749	-0.10746629
116	0xbdf91385	-0.12161926
117	0x3e2f5c20	0.17124987
118	0x3e50b744	0.2038241
119	0x3d5af191	0.053453032
120	0x3e50e153	0.20398454
121	0x3e43ed59	0.1913351
122	0x3e02d77d	0.12777515
123	0x3c50d551	0.012746171
124	0x3e372e19	0.17888679
125	0x3d0c9165	0.034318347
126	0x3debdb6d	0.115164615
127	0x3e12026e	0.1425874
128	0x3c755622	0.014974149
129	0x3d0614db	0.032734733
130	0xbdf0316a	-0.11728175
131	0xbe6251aa	-0.22101465
132	0xbd7c4cfc	-0.061596856
133	0xbe218fe9	-0.15777554
134	0xbe3e648b	-0.18593042
135	0x3e2910bf	0.16510294
136	0x3e693a12	0.22776058
137	0x3d02de58	0.031950325
138	0xbc5d3c12	-0.013503091
139	0xbdeb43e5	-0.11487559
140	0xbacc092d	-0.00155667
141	0xbd59d3e5	-0.053180594
142	0x3e8f81fd	0.2802886
143	0x3e207866	0.15670928
144	0xbcd9ac90	-0.026571542
145	0xbd10eb4c	-0.035380647
146	0xbd156804	-0.03647615
147	0x3dc918d0	0.09819186
148	0xbd4d75f2	-0.05016131
149	0xbe035f9a	-0.12829438
150	0xbe38e0e5	-0.1805454
151	0x3d6abf31	0.05731124
152	0xbe57ef10	-0.21087289
153	0x3def6aad	0.11690269
154	0xbcb53bc8	-0.022123232
155	0x3dcaf7e2	0.09910561
156	0x3dc91a6c	0.09819493
157	0xbd80ebd0	-0.06294978
158	0x3da94e0e	0.08266841
159	0xbe13708f	-0.14398406
160	0x3e4f4136	0.2023972
161	0x3ccd7605	0.02508069
162	0xbe14f77c	-0.14547533
163	0xbe847558	-0.25870776
164	0xbda83edc	-0.082151145
165	0xbe54bb97	-0.20774685
166	0xbda458ea	-0.080247715
167	0x3d11f879	0.035637353
168	0xbe90d59a	-0.28287965
169	0xbe663b26	-0.22483501
170	0xbe232ddf	-0.15935467
171	0x3caa630d	0.020799184
172	0xbc461ded	-0.012092096
173	0x3d035201	0.032060627
174	0x3e36ccc3	0.17851548
175	0xbbde7397	-0.0067886817
176	0x3e8bbded	0.2729334
177	0xbd1512c1	-0.03639484
178	0x3e1727fa	0.14761344
179	0x3d95f65d	0.07322381
180	0xbd8565a8	-0.0651353
181	0x3e2bcaba	0.16776553
182	0xbdb71e40	-0.089413166
183	0xbe2a9343	-0.16657738
184	0x3e6032ef	0.2189443
185	0xbe4276b8	-0.189906
186	0x3dd24096	0.10266225
187	0xbe124db7	-0.14287458
188	0x3e1a40b7	0.15063749
189	0xbdd175cb	-0.10227545
190	0xbdbfd38a	-0.0936652
191	0x3e665e4a	0.22496906
192	0x3d79a84c	0.060951516
193	0x3cf4622b	0.029831966
194	0xbd6dd1c3	-0.058061372
195	0x3d522e76	0.05131384
196	0x3dde394d	0.10850773
197	0xbdfb7d92	-0.1227981
198	0x3e21312c	0.15741414
199	0x3c154044	0.00910956
200	0x3df9b034	0.12191811
201	0xbe2d1980	-0.16904259
202	0x3db1e1a3	0.08685615
203	0xbe540e44	-0.20708567
204	0x3e233328	0.15937483
205	0xbe4f2293	-0.20228033
206	0x3e325f4b	0.17419164
207	0x3ceb1a0f	0.02869895
208	0xbe210de6	-0.15727958
209	0xbe695dd5	-0.227897
210	0xbe8fae47	-0.2806265
211	0xbe9026fd	-0.28154746
212	0xbe842675	-0.2581059
213	0xbe30c460	-0.17262411
214	0x3d65cd72	0.05610413
215	0xbe8fecb7	-0.28110287
216	0xbe6923a1	-0.22767498
217	0x3d8a3e7e	0.06750201
218	0xbe310627	-0.17287503
219	0xbde76f72	-0.113005534
220	0xbc451810	-0.012029663
221	0x3da67a99	0.081288524
222	0xbd803796	-0.06260602
223	0xbe597a85	-0.21238144
224	0xbda9bf23	-0.082884096
225	0x3dd578e5	0.104234494
226	0x3e06e8c0	0.13174725
227	0xbdadb8e7	-0.08482533
228	0x3e83323a	0.25624257
229	0xbdc7436d	-0.09729657
230	0xbe20dc58	-0.15709054
231	0x3e37670c	0.17910403
232	0x3d3f1d20	0.046658635
233	0x3e4ef970	0.2021234
234	0x3dc10759	0.094252296
235	0xbda54f00	-0.08071709
236	0x3d03084d	0.031990338
237	0xbde51f0c	-0.11187562
238	0x3e4d82b7	0.20069395
239	0xbe1f8aa4	-0.15580231
240	0xbd4c0fc0	-0.049819708
241	0x3d090071	0.033447687
242	0x3cf3a787	0.02974297
243	0xbd13cf7c	-0.036086544
244	0xbe349cf4	-0.17637998
245	0x3c5af227	0.013363398
246	0xbe1317cd	-0.14364548
247	0xbdb058b5	-0.086106695
248	0xbdef3a21	-0.11681009
249	0xbe25ec8e	-0.1620352
250	0xbdc5e45e	-0.09662698
251	0xbe2aaad2	-0.16666725
252	0x3ce12d91	0.027487548
253	0x3df8474c	0.12122974
254	0x3e34ac65	0.17643888
255	0x3e330cad	0.17485304

decoder.conv.bias f4 [128]
0	0xbebe2894	-0.37140334
1	0x3c3a63c9	0.01137633
2	0xbe766442	-0.24061683
3	0x3ea83d34	0.32859194
4	0xbccf0766	-0.025272083
5	0xbe7fc804	-0.24978644
6	0x3e5edfb3	0.21765022
7	0x3e62b8cb	0.22140805
8	0x3e75efe0	0.24017286
9	0x3e4b5aa2	0.19858792
10	0xbe76f209	-0.24115767
11	0xbe59bc06	-0.21263131
12	0xbe5125f3	-0.20424633
13	0xbe6030fd	-0.21893688
14	0xbe4c2eb3	-0.1993969
15	0x3e8dc5cf	0.27689978
16	0xbebdbb26	-0.37056845
17	0x3d7fdb3a	0.06246493
18	0xbed52be6	-0.41635054
19	0x3e095849	0.13412584
20	0x3d98560e	0.07438289
21	0xbe713df5	-0.23558791
22	0xbea0f6be	-0.3143825
23	0xbe3aa250	-0.1822598
24	0x3e80b115	0.25135103
25	0x3e61a62f	0.2203605
26	0x3ddb70e5	0.10714892
27	0x3e6c0010	0.23046899
28	0xbe0ac2a3	-0.1355081
29	0xbe0ad9ae	-0.135596
30	0xbe872eee	-0.26402992
31	0xbe7fb7d4	-0.24972469
32	0x3dcff162	0.10153462
33	0x3e0c6858	0.13711679
34	0xbe7fa695	-0.2496589
35	0x3c1bb912	0.009504573
36	0xbe28e0a6	-0.16491947
37	0xbe669711	-0.22518565
38	0xbd27ff8e	-0.0410152
39	0x3e5e58fc	0.21713632
40	0xbdbfc883	-0.093644165
41	0x3e30afb1	0.17254521
42	0xbc93b95b	-0.01803272
43	0xbe37859d	-0.17922063
44	0xbc42676d	-0.011865479
45	0x3e34439e	0.17603919
46	0xbde0336a	-0.109473065
47	0x3e9fbc60	0.31198406
48	0xbda13fa5	-0.07873467
49	0xbdce0b8e	-0.10060798
50	0xbd7f2652	-0.062292404
51	0x3dd2908f	0.102814786
52	0xbbe64d2c	-0.0070282426
53	0xbd0b7d93	-0.034055304
54	0x3e87d45f	0.26529214
55	0xbe16b8b8	-0.14718902
56	0xbe013658	-0.12618387
57	0xbc30e161	-0.010795922
58	0x3df18a9e	0.11794017
59	0x3e5e3474	0.21699697
60	0x3d852b85	0.06502441
61	0x3cc65b7d	0.024213547
62	0x3ea998f7	0.33124515
63	0x3c8f29c7	0.017475976
64	0xbe591eb9	-0.21203126
65	0x3e6050d7	0.21905838
66	0x3e616756	0.22012076
67	0x3e85a4e8	0.26102376
68	0xbd74d71b	-0.059775453
69	0xbeaba028	-0.33520627
70	0x3e011426	0.12605342
71	0xbe725dcc	-0.23668593
72	0x3e1a3f54	0.1506322
73	0xbe0ed640	-0.13948917
74	0xbd60e3ba	-0.054904677
75	0x3e4914ab	0.1963679
76	0x3d36a598	0.044591516
77	0xbdf4c5e5	-0.11951808
78	0x3e835a18	0.25654674
79	0xbbe69b17	-0.007037531
80	0x3d83c242	0.06433536
81	0xbb841b41	-0.004031569
82	0xbd7222e7	-0.059115317
83	0xbdf8b351	-0.12143577
84	0x3e8515d9	0.2599323
85	0x3e576d75	0.21037848
86	0x3d83d262	0.06436612
87	0xbde88859	-0.11354131
88	0x3ba5ecbf	0.0050636227
89	0x3db016dd	0.08598111
90	0x3d8e2b7d	0.069418885
91	0x3e9492ea	0.29018337
92	0xbe50e8a7	-0.2040125
93	0x3e88c090	0.26709414
94	0xbe7525db	-0.23940222
95	0x3e9f749a	0.31143647
96	0xbe13a50a	-0.14418426
97	0x3dcc1051	0.099640496
98	0x3e4eadc2	0.20183471
99	0xbe0fb562	-0.14034036
100	0x3d53151d	0.051533807
101	0x3e911b40	0.28341103
102	0xbe059c7d	-0.13047977
103	0x3db486b1	0.08814753
104	0x3e38fcb4	0.18065149
105	0x3cba6805	0.022754679
106	0x3d9ed852	0.077561036
107	0xbe79a8fa	-0.24380866
108	0xbce21d81	-0.02760196
109	0x3d8c1fab	0.06841978
110	0x3e700034	0.23437577
111	0xbd203b7a	-0.03911922
112	0xbeb7c8a9	-0.3589528
113	0x3e79c79b	0.2439255
114	0x3e4da672	0.20083025
115	0xbe62fbf4	-0.22166425
116	0xbcde24b3	-0.027117109
117	0x3e787084	0.24261671
118	0xbe7cfb16	-0.24705157
119	0x3e687044	0.22699076
120	0xbe8a2153	-0.2697855
121	0xbdcf46f1	-0.10120953
122	0x3e238685	0.15969284
123	0xbdc1face	-0.09471665
124	0xbda52d74	-0.0806531
125	0x3d419e3e	0.047270052
126	0xbe6ef879	-0.23336972
127	0xbeae66d3	-0.34062824

pointer.v f4 [1, 1, 128]
0	0x3ecd8f90	0.40148592
1	0xbea3c372	-0.3198505
2	0x3e6afc34	0.2294777
3	0xbf005e52	-0.5014392
4	0xbed7cbf5	-0.42147794
5	0x3ed1d836	0.40985268
6	0x3ec6283f	0.3870258
7	0xbe3935ce	-0.18086931
8	0x3ec03cb7	0.37546322
9	0x3f00de54	0.50339246
10	0x3ed21309	0.41030148
11	0xbd2b2175	-0.041779954
12	0x3e6e7a95	0.23288949
13	0xbea62326	-0.3244869
14	0xbe7666c9	-0.24062647
15	0x3edf1a4d	0.43574753
16	0xbe29154a	-0.16512027
17	0x3e8ac466	0.27102965
18	0x3ea1caf0	0.31600142
19	0x3e5b51d5	0.21417935
20	0x3e5022fb	0.20325844
21	0xbe907559	-0.2821453
22	0x3ed91b5b	0.42403683
23	0xbe6fe142	-0.23425773
24	0x3e75291e	0.23941466
25	0x3eafe46d	0.34353963
26	0xbea06e64	-0.3133422
27	0xbea6cb1f	-0.32576844
28	0x3eb6f38e	0.35732692
29	0x3ef214d5	0.4728152
30	0xbed3e77d	-0.4138755
31	0xbed9a007	-0.42504904
32	0xbeaf4a8f	-0.3423657
33	0x3e867098	0.26257777
34	0xbed644ea	-0.41849452
35	0x3ed1d447	0.40982267
36	0x3e9b185b	0.3029202
37	0x3eaa1d29	0.33225372
38	0xbed1f81c	-0.41009605
39	0xbe5de5f8	-0.21669757
40	0xbebf0c19	-0.37313917
41	0xbeb2101b	-0.34777912
42	0xbeb1b24f	-0.3470635
43	0x3eced242	0.4039479
44	0xbe50daa9	-0.20395912
45	0xbed394a8	-0.41324353
46	0xbe351dc6	-0.17687139
47	0xbec1bba6	-0.37838477
48	0x3ebc69d6	0.36799496
49	0x3ed2c39f	0.41164872
50	0x3eb549dd	0.35407916
51	0xbeb30ef4	-0.34972346
52	0xbea7a7ee	-0.32745308
53	0x3ead1d5e	0.33811468
54	0x3ec97d28	0.393533
55	0x3ec216ef	0.37908122
56	0x3ed19bfa	0.40939313
57	0x3e68f95f	0.22751378
58	0x3ef01cbb	0.4689692
59	0x3eb645e4	0.35600197
60	0x3e984cd2	0.2974611
61	0xbda49706	-0.08036618
62	0x3e27c3fa	0.16383353
63	0x3ecbc4d3	0.39798602
64	0x3e8d8a0b	0.2764438
65	0x3e5b1ac3	0.21396928
66	0x3e8f0388	0.27932382
67	0xbe6ac382	-0.22926143
68	0xbe1406eb	-0.14455764
69	0x3e858c41	0.26083568
70	0xbeb5fc9d	-0.3554429
71	0xbeb2eaf8	-0.34944892
72	0x3e38b3ba	0.1803731
73	0x3e96b251	0.2943292
74	0x3e0e8fc8	0.13922036
75	0xbe998a64	-0.29988396
76	0x3ecb836d	0.39748707
77	0x3e302f23	0.17205481
78	0x3eb8d983	0.36103448
79	0x3ef10567	0.47074434
80	0xbeacb1ab	-0.337293
81	0x3e227dc1	0.15868284
82	0xbece1d21	-0.402566
83	0x3ecde5bf	0.40214345
84	0xbe84dae9	-0.25948265
85	0x3e8bb9a8	0.27290082
86	0x3e96a2c4	0.29421055
87	0x3ebdaf3e	0.37047762
88	0xbee00bae	-0.4375891
89	0xbe8c4d35	-0.27402654
90	0xbed47a53	-0.41499576
91	0x3eb64514	0.35599577
92	0xbeea5115	-0.45764986
93	0xbe0c3bc0	-0.13694668
94	0xbe9e4a4e	-0.30916065
95	0x3ebff127	0.37488672
96	0x3ea3c71d	0.3198785
97	0xbe69b1a0	-0.22821665
98	0xbe6e41da	-0.23267308
99	0x3e89b50b	0.26895937
100	0x3e967ca5	0.2939197
101	0xbe56006d	-0.208986
102	0xbe186311	-0.14881541
103	0x3e8854e1	0.26627257
104	0xbdd9665c	-0.106152266
105	0xbe81b159	-0.25330618
106	0x3be0c64b	0.006859576
107	0x3e7efde1	0.24901535
108	0xbecf3903	-0.40473184
109	0x3d20b549	0.039235387
110	0x3e7dfabe	0.24802682
111	0x3eb9b631	0.36271814
112	0xbe2ef502	-0.1708565
113	0xbede14cb	-0.4337524
114	0xbe96f237	-0.2948167
115	0x3ec77b98	0.38961482
116	0x3ed0c602	0.40776068
117	0xbe96af54	-0.2943064
118	0xbe47ef01	-0.19524767
119	0xbeee0973	-0.46491584
120	0xbe0e4d47	-0.13896666
121	0xbe89cb9c	-0.26913154
122	0x3e8b2fb9	0.27184847
123	0xbe0ab8c3	-0.13547044
124	0xbed7c0a3	-0.42139158
125	0xbe8c056f	-0.27347896
126	0xbe8d0ee8	-0.27550435
127	0xbe4a65e0	-0.19765425

pointer.W f4 [1, 128, 256]
0	0xbc50b299	-0.0127378935
1	0x3d8cc329	0.06873161
2	0xbc0480d5	-0.008087357
3	0xbc48a616	-0.012246629
4	0x3c6f9e0a	0.014625082
5	0x3dbbf7b0	0.09178102
6	0x3d628037	0.055298056
7	0xbac9985c	-0.001538049
8	0xbbbee2d6	-0.005825381
9	0xbd6abddd	-0.057309974
10	0x3caac442	0.020845536
11	0xbe021b38	-0.12705696
12	0xbcc9b99d	-0.02462464
13	0xbcf7f469	-0.030267911
14	0x3d1dea43	0.038553488
15	0xbda26aad	-0.07930503
16	0xbd6dbbc3	-0.05804039
17	0xbc12a397	-0.008950136
18	0x3d86ddae	0.06585251
19	0x3c8cd2d9	0.017190384
20	0xbc9fdb17	-0.01951365
21	0x3d272755	0.040808994
22	0x3de46702	0.1115246
23	0xbd698277	-0.057009187
24	0xbdab48c6	-0.0836349
25	0xbd1a656e	-0.037694387
26	0x3dfcab1c	0.12337324
27	0x3cff854f	0.031191496
28	0xbe07f4ac	-0.13276929
29	0x3d96b9fc	0.073596925
30	0x3d9a6b2d	0.075399734
31	0xbd91f591	-0.07126916
32	0x3d324435	0.04352208
33	0xbd10563a	-0.035238482
34	0xbd684b4c	-0.056712434
35	0x3ddd9e46	0.10821204
36	0x3df780c0	0.12085104
37	0x3dc21234	0.09476128
38	0xbe3f3435	-0.18672259
39	0xbd1d8da1	-0.038465146
40	0x3d612a8d	0.05497222
41	0xbccb5bd9	-0.02482407
42	0x3ca8f566	0.020624828
43	0x3df6f979	0.12059302
44	0xbd7a8c7a	-0.061169125
45	0xbd3cc43e	-0.04608559
46	0xbc4c1325	-0.012455736
47	0x3b5d7ef8	0.0033797603
48	0x3d13b025	0.036056656
49	0xbb93627a	-0.0044978233
50	0xbd2c2d2b	-0.042035263
51	0x3ddeead9	0.108846374
52	0x3da93d26	0.08263616
53	0xbe08aa7f	-0.13346289
54	0x3d110293	0.035402846
55	0xbd4827b6	-0.048865996
56	0x3bc85aa7	0.006114322
57	0x3de63f9d	0.11242602
58	0x3d00d898	0.03145656
59	0x3d5ed11a	0.054398634
60	0x3be0d737	0.006861593
61	0x3dcfafda	0.10140963
62	0x3af357a9	0.0018565553
63	0x3d56231a	0.05227957
64	0xbd9672c0	-0.073461056
65	0x3bd08252	0.0063631916
66	0xbe1ce8f7	-0.15323244
67	0xbc7938cb	-0.015211294
68	0xbd8aac6f	-0.0677117
69	0xbd894608	-0.067028105
70	0xbd7c7db0	-0.061643302
71	0xbc6ea4d8	-0.014565669
72	0x3dc995ea	0.09843047
73	0x3db37f18	0.087644756
74	0x3e30df77	0.17272745
75	0xbabf4928	-0.0014593946
76	0x3d6c6297	0.05771121
77	0xbdd1a6c2	-0.10236885
78	0xbd8e3520	-0.069437265
79	0x3da19b5d	0.07890961
80	0x3c25371c	0.01008394
81	0xbbd9ffce	-0.0066528087
82	0x3d296540	0.041356325
83	0xbcea8e7a	-0.028632391
84	0xbddc235d	-0.107489325
85	0xbd558ada	-0.052134372
86	0x3d6a5b51	0.057215992
87	0x3b80b61a	0.003927958
88	0x3bb2a6ca	0.0054520117
89	0xbc817943	-0.015804892
90	0x3d2a3f7a	0.041564442
91	0xbda643c3	-0.08118393
92	0xbc6f8bcf	-0.014620735
93	0xbd7a57a0	-0.061118722
94	0xbbd2cd79	-0.0064331857
95	0xbc33ed70	-0.0109819025
96	0xbd6dc5f0	-0.058050096
97	0x3cdee1e7	0.027207328
98	0x3da9a662	0.08283688
99	0xbd9a32ba	-0.075292066
100	0x3ccdfa58	0.025143787
101	0x3dd821e4	0.10553339
102	0x3c186406	0.009301191
103	0x3d2cb91c	0.04216872
104	0xbd126f6b	-0.035750788
105	0x3a63b6ea	0.0008686619
106	0x3d719772	0.05898232
107	0xbe06cebe	-0.13164803
108	0xbd6f8c74	-0.058483556
109	0x3cfec366	0.031099033
110	0xbdd24e03	-0.10268786
111	0x3e065b9b	0.13120882
112	0xbc1fd21f	-0.009754687
113	0xbdb56600	-0.088573456
114	0xbdd96485	-0.10614876
115	0x3d752105	0.059845943
116	0x3ce3e6f5	0.02782009
117	0x3e3f341f	0.18672226
118	0xbc894c83	-0.016760116
119	0x3c821c5f	0.015882669
120	0xbc92f2ba	-0.017938007
121	0xbd9c7eec	-0.07641396
122	0x3c1359b4	0.008993555
123	0x3d8041b0	0.06262529
124	0xbdbc5335	-0.09195558
125	0xbc69887e	-0.014253734
126	0xbe28d9a1	-0.16489269
127	0xbcf7b183	-0.030236011
128	0xbc06296c	-0.008188587
129	0xbcba70b7	-0.022758825
130	0xbc11f79b	-0.008909131
131	0x3c0206e8	0.007936217
132	0xbd12797d	-0.03576039
133	0xbd442814	-0.047889784
134	0xbb8f3d6a	-0.004371335
135	0x3b31524e	0.0027057114
136	0x398b9b9d	0.00026628087
137	0xba88c0eb	-0.0010433471
138	0x3b499a81	0.0030762258
139	0x3d46964a	0.04848317
140	0xba9bde54	-0.001189182
141	0xbd5a8589	-0.053350005
142	0xbc86c9b8	-0.016453609
143	0x3bd4126e	0.0064719236
144	0x3c15bd17	0.009139321
145	0xbc960d4f	-0.018316893
146	0xbc954c3a	-0.018224824
147	0x3c9b8031	0.018982025
148	0xbcbf4e0c	-0.023352645
149	0x3d0ac315	0.03387745
150	0xbca4c1e9	-0.020111995
151	0x3d5947ba	0.05304692
152	0x3d10f179	0.035386536
153	0x3b67dd30	0.003537964
154	0xbce6d676	-0.028178435
155	0xbd4b79fa	-0.049676873
156	0x3cfa0fdf	0.030525146
157	0xbd18d0d7	-0.03730854
158	0xbcf33682	-0.029689077
159	0x3d0c95aa	0.03432242
160	0x3c08ae98	0.008342408
161	0xbcd2ad79	-0.025717484
162	0x3c998845	0.018741736
163	0xbc5e0a60	-0.013552278
164	0xbcba70b5	-0.022758821
165	0xbc997b3a	-0.018735517
166	0x3bb1d5fb	0.00542712
167	0x3c17c6ab	0.009263675
168	0xbd3dbd2e	-0.046322994
169	0xba6321a5	-0.0008664376
170	0xbcd29fc0	-0.02571094
171	0xbd0295de	-0.031881206
172	0x3ba7f7d1	0.0051259776
173	0x3cb4d095	0.022072116
174	0xbbd595b1	-0.0065180887
175	0x3c940eff	0.018073557
176	0x3d1f7163	0.038926493
177	0x3cd8639c	0.026414685
178	0xbc495132	-0.012287425
179	0xbceea35f	-0.029130636
180	0xbc3fd83e	-0.011709271
181	0x3d453e7e	0.0481553
182	0xbcb800f7	-0.022461398
183	0xbc267fe9	-0.010162332
184	0x3c0caac4	0.008585636
185	0xbcc42230	-0.023942083
186	0xbc316b79	-0.010828846
187	0xbcb988d9	-0.022648262
188	0xbc8d9f1a	-0.01728778
189	0xbb99bf8d	-0.004692024
190	0x3cc1ba8f	0.023648528
191	0xbd006b7d	-0.03135251
192	0x3c5608db	0.013063635
193	0xbc21b3bc	-0.009869512
194	0x3c188bbd	0.00931066
195	0xbba8bd08	-0.0051494874
196	0x3cf848cf	0.030308155
197	0x3ad880f7	0.0016517927
198	0x3c171474	0.009221185
199	0xbcd65a6d	-0.026166165
200	0xbbae2016	-0.0053138835
201	0xbc3e8271	-0.011627779
202	0x3b0a12b5	0.002106828
203	0xbc2f50f0	-0.010700449
204	0xb9e90687	-0.00044446086
205	0x3d49ef96	0.049300753
206	0xb96da3d0	-0.00022663106
207	0xbd22a5e0	-0.039708972
208	0xbcc82b65	-0.024434755
209	0x3d414fed	0.047195364
210	0x3a943201	0.0011306406
211	0x3cd28e54	0.025702633
212	0x3d4388a5	0.047737736
213	0x3c4cfdf1	0.012511716
214	0x3bba1c2a	0.005679627
215	0x3ce4b134	0.027916528
216	0xbd3688ff	-0.044564243
217	0x3c5f2aa8	0.01362101
218	0x3cb6961a	0.02228837
219	0x3c43287f	0.0119115105
220	0xbcae422a	-0.021271784
221	0xbb1f8d22	-0.0024345596
222	0xbbb40cab	-0.005494674
223	0x3c5fc560	0.013657898
224	0xbceede29	-0.029158669
225	0xbd0a185d	-0.03371464
226	0xbd04dfa6	-0.03243985
227	0x3d0f4c0c	0.034984633
228	0xbcbfb704	-0.023402698
229	0xbce80dda	-0.028326917
230	0x3d2647f2	0.040595956
231	0x3c1e309b	0.009655143
232	0xbc808d22	-0.015692297
233	0xbc0430dc	-0.00806829
234	0xbbb3b4fd	-0.005484222
235	0x3c65c95e	0.01402506
236	0x3cc5e0da	0.02415507
237	0xbd06642d	-0.03281038
238	0x3d20e94a	0.03928498
239	0xbc3c9651	-0.011510448
240	0x3b020941	0.0019841942
241	0x3cde2abd	0.027119989
242	0x3c86d0d4	0.016456999
243	0x3cc592c8	0.024117842
244	0xbc991a96	-0.018689435
245	0xbcd040cd	-0.025421524
246	0x3b92f98a	0.004485314
247	0xbabf4791	-0.0014593472
248	0xbae6f69d	-0.0017621104
249	0x3d3c7a51	0.046015088
250	0x3cd7e5a1	0.026354613
251	0xbc970863	-0.018436616
252	0x3cce75f3	0.025202727
253	0xbc840cba	-0.01611935
254	0x3d163d63	0.036679637
255	0xbce2f159	-0.027702974

pointer.gru.weight_ih_l0 f4 [384, 128]
0	0x3d8d9a6a	0.06914218
1	0x3d65df93	0.05612142
2	0xbe0dc500	-0.13844681
3	0xbc92fb69	-0.017942147
4	0xbdd40b9e	-0.10353778
5	0xbd59bbaa	-0.053157486
6	0x3de2d59a	0.110758975
7	0xbde64bdf	-0.1124494
8	0x3bc1a2c5	0.005909296
9	0x3e14c42b	0.14527957
10	0x3cb139e5	0.021634052
11	0xbc44e164	-0.012016628
12	0xbd4b73fb	-0.049671154
13	0xbd8647d0	-0.06556666
14	0x3de3636f	0.1110295
15	0x3cedf93e	0.029049512
16	0x3b0b0422	0.002121218
17	0x3be70e6c	0.00705128
18	0x3d1bb058	0.03800997
19	0x3c6eb7b7	0.014570168
20	0x3c23a253	0.009987432
21	0xbbf2138b	-0.0073875836
22	0xbd63bdb3	-0.055600833
23	0x3d9f6145	0.077822246
24	0xbccef428	-0.025262907
25	0x3c949f80	0.018142462
26	0x3dabcf2b	0.083891235
27	0x3db2770e	0.08714114
28	0xbdee3b0f	-0.11632358
29	0x3e19879c	0.14993137
30	0xbd9a0815	-0.07521073
31	0xbd46e535	-0.048558433
32	0xbc9d4ba2	-0.019201104
33	0xbd95a105	-0.07306103
34	0xbc68130c	-0.014164697
35	0xbcb3d98e	-0.021954324
36	0xbdac8757	-0.084242515
37	0xbd17f978	-0.037103146
38	0xbd202a25	-0.039102692
39	0xbb607c7c	-0.0034253886
40	0x3cfd57b2	0.030925605
41	0x3d592203	0.05301095
42	0xbdfc94aa	-0.12333043
43	0xbd604ffe	-0.054763786
44	0xbe003997	-0.12521969
45	0x3d32216f	0.043488916
46	0x3d6e6289	0.05819944
47	0x3d211e64	0.039335623
48	0x3c89eb7f	0.016835926
49	0xbddd88e0	-0.108171225
50	0x3e0905cb	0.13381116
51	0xbd732367	-0.059359934
52	0xbdc325be	-0.09528683
53	0xbd2e0aa5	-0.04249062
54	0xbd2b9e4c	-0.04189901
55	0x3e07f439	0.13276757
56	0x3d3e6194	0.046479777
57	0x3cc3ff8c	0.023925565
58	0x3d8a5a13	0.067554615
59	0xbd0195b2	-0.0316369
60	0xbdeb6ddf	-0.114955656
61	0x3d0765ac	0.033055946
62	0xbdf438ed	-0.1192492
63	0xbd255cfa	-0.040371872
64	0x3df53678	0.1197328
65	0xbd7a1c38	-0.061062068
66	0x3dc179bb	0.09447046
67	0x3d9342cf	0.07190477
68	0x3d944e82	0.07241537
69	0x3dd5f509	0.10447127
70	0xbccda714	-0.025104083
71	0x3c2fc973	0.010729182
72	0xbdc829f8	-0.0977363
73	0x3c8518f4	0.01624725
74	0xbd7e3b3a	-0.0620682
75	0xbe022ee1	-0.12713195
76	0xbda0fbf8	-0.07860559
77	0xbe106800	-0.14102173
78	0x3d55566d	0.052084375
79	0x3d4e2389	0.050326858
80	0x3d2acbc8	0.041698247
81	0x3c5762b6	0.013146093
82	0x3ab42f70	0.0013747048
83	0x3d3347b0	0.04376954
84	0xbcc43f59	-0.023955988
85	0x3b3a6322	0.0028440435
86	0x3dd957ea	0.106124714
87	0xbd651e53	-0.055937123
88	0xbddfcc20	-0.10927606
89	0x3dc5dcd1	0.09661258
90	0xbca4275f	-0.020038305
91	0xbbbcadfe	-0.005758046
92	0x3d1a2a30	0.03763789
93	0x3d187b28	0.037226826
94	0xbd335dbc	-0.043790564
95	0xbcd73e95	-0.026274959
96	0xbc41e683	-0.011834743
97	0x3cdbd36f	0.026834218
98	0xbe03dfc3	-0.12878327
99	0xbd8111ef	-0.06302249
100	0xbd5e7b72	-0.054316945
101	0xbce6b24d	-0.028161192
102	0x3dafff20	0.08593583
103	0x3d6abf6c	0.05731146
104	0xbca5aee0	-0.020224988
105	0x3d4164ca	0.04721526
106	0x3c8ad5ca	0.016947646
107	0xbd36a414	-0.04459007
108	0x3d5b07b6	0.05347415
109	0x3de96b9f	0.1139748
110	0x3c0b38ec	0.008497458
111	0xbcd751ae	-0.026284065
112	0xbd0005da	-0.03125558
113	0x3b85752f	0.0040728073
114	0xbe3cf5ce	-0.18453142
115	0xbd72b906	-0.059258483
116	0xbde1bc91	-0.11022294
117	0x3dd330f3	0.10312071
118	0xbd4c6cb5	-0.04990836
119	0x3e00a561	0.12563087
120	0xbd93edc1	-0.07223082
121	0x3d5ed703	0.05440427
122	0xbcb70442	-0.022340897
123	0x3c5f8dbf	0.013644635
124	0xbd17a731	-0.03702468
125	0xbd533605	-0.05156519
126	0x3d88ea00	0.06685257
127	0x3de54db9	0.11196465
128	0xbc686a82	-0.01418555
129	0xbd85adbb	-0.06527277
130	0x3d789a07	0.060693767
131	0xbd655cdb	-0.055996757
132	0xbddcf8f5	-0.10789672
133	0xbd9ee567	-0.07758599
134	0x3db48f96	0.08816449
135	0xbe118a23	-0.14212851
136	0x3dd19fd6	0.102355644
137	0x3d37bd36	0.04485818
138	0x3d711bc5	0.058864374
139	0xbd1389fd	-0.036020268
140	0x3dd2a8a5	0.10286073
141	0x3d966869	0.073441334
142	0x3d9dedb5	0.07711355
143	0x3c8afd34	0.01696644
144	0x3dfa6893	0.12226977
145	0x3df07f34	0.11743012
146	0x3df9f742	0.12205364
147	0xbd97480c	-0.07386789
148	0x3d07b5aa	0.033132233
149	0x3d77fe27	0.060545113
150	0x3de5a3bf	0.11212873
151	0xbb7d10e1	-0.0038614797
152	0xbd3f7841	-0.046745542
153	0xbd9b6829	-0.07588226
154	0xbd1dd81a	-0.03853617
155	0xbd61f8e8	-0.055169016
156	0x3ce6b33b	0.028161636
157	0xbd34c05e	-0.04412877
158	0xbd64e9c8	-0.055887014
159	0x3da21dde	0.07915853
160	0xbd94d3ae	-0.07266937
161	0xbc72ad1f	-0.014811783
162	0xbce273d6	-0.027643126
163	0x3d84c276	0.06482403
164	0xbdbf2b25	-0.09334401
165	0xbcbcc6bc	-0.023043983
166	0xbbda5bd3	-0.0066637783
167	0xbc4c7477	-0.012478939
168	0xbd31b2ca	-0.043383397
169	0xbdf474a7	-0.11936312
170	0x3d1f0d5e	0.038831107
171	0x3dc92475	0.09821407
172	0x3cfe4914	0.031040706
173	0xbe006224	-0.12537438
174	0xbd18bda9	-0.03729025
175	0xbc490a89	-0.012270578
176	0x3d81211e	0.06305145
177	0xbd104c67	-0.035229113
178	0x3dc3dd65	0.09563712
179	0x3c9373d9	0.017999576
180	0xbd814b01	-0.06313134
181	0xbd60e8d1	-0.05490953
182	0xbdaffc09	-0.08592994
183	0xbd86ba48	-0.06578499
184	0xbacfc237	-0.0015850727
185	0xbd5b9ef9	-0.053618405
186	0xba924b9d	-0.001116145
187	0x3da00033	0.07812538
188	0xbd9756b5	-0.07389585
189	0x3c1cad0b	0.009562741
190	0xbccc9f58	-0.024978325
191	0x3cbc520c	0.022988342
192	0x3ddaf654	0.106915146
193	0x3d33730d	0.043810893
194	0x3daa2322	0.08307482
195	0x3d201e68	0.039091498
196	0xbc459155	-0.012058576
197	0x3e0050b5	0.12530787
198	0x3de5f59f	0.11228489
199	0xbd8b4211	-0.067997105
200	0xbd63d883	-0.055626404
201	0xbdede26b	-0.116154514
202	0x39fa185d	0.00047701868
203	0xbe0237dc	-0.12716621
204	0xbe0a779c	-0.1352219
205	0x3d4da3a9	0.050204907
206	0xbdc97dd3	-0.09838452
207	0xb9aa3076	-0.00032461033
208	0xbd984f25	-0.074369706
209	0x3caafdb0	0.02087292
210	0x3dbcc9f1	0.09218205
211	0x3d7db1c9	0.061937127
212	0x3bd38073	0.0064545213
213	0xbcc59e0b	-0.024123212
214	0x3d8396d1	0.0642525
215	0xbd9d3c46	-0.07677512
216	0xbdb8c9e9	-0.09022886
217	0xbd7c29d5	-0.06156333
218	0xbc8237ce	-0.01589575
219	0xbe0dfab5	-0.13865168
220	0xbd8cbff0	-0.06872547
221	0xbcaf0a21	-0.021367135
222	0xbd85f762	-0.06541325
223	0x3d0b85f2	0.034063287
224	0x3d9ef76e	0.07762037
225	0x3cdda713	0.027057206
226	0x3d23fe7b	0.040037613
227	0xbd5f85e2	-0.05457104
228	0xbd6d1874	-0.05788465
229	0xbcdade45	-0.026717314
230	0xbd2bb19c	-0.04191743
231	0xbdb591af	-0.088656776
232	0x3dd2e94f	0.10298406
233	0x3ddaabb4	0.10677281
234	0x3dfdb24e	0.123875245
235	0xbdba14c4	-0.09085992
236	0xbda87b15	-0.08226601
237	0x3dbbc45e	0.091683134
238	0xbdb8298c	-0.089922994
239	0x3d30b0a0	0.043137193
240	0xbd02f29c	-0.03196965
241	0xbd4af087	-0.04954579
242	0xbc4c31cf	-0.012463047
243	0xbd9dd94c	-0.07707462
244	0xbe0a7c0e	-0.13523886
245	0x3d6ca6ec	0.057776377
246	0xbc766509	-0.015038737
247	0xbc091601	-0.008367063
248	0x3cda00e3	0.026611751
249	0x3b0d900d	0.0021600754
250	0x3da9055d	0.08252976
251	0xbddebb13	-0.10875525
252	0xbddc8597	-0.10767668
253	0xbc2a84e3	-0.010407659
254	0xbd96c3fc	-0.073616
255	0xbd086f49	-0.033309255
