SoSDP/SoS/50/critic.pt (torch, 33543 bytes, 9 tensors)

static_encoder.conv.weight f4 [128, 13, 1]
000000 b1 6b bd bd 04 b3 ef bd 05 8c fb 3d 7a 9d 53 3c
       -0.09249056 -0.117040664 0.12282566 0.012915963
000010 99 f8 c8 bd a0 b9 5f 3e 91 1e 0b be 84 8b e1 3d
       -0.09813041 0.21848154 -0.13585879 0.110129386
000020 b0 b8 88 be d0 21 e0 bd a2 38 f2 3d 2c f3 d6 3d
       -0.26703405 -0.10943949 0.11827208 0.104956
000030 57 1f ce bd d3 93 05 bd b9 fa 04 3e 0d 73 1d 3e
       -0.10064571 -0.03261168 0.12986268 0.1537592
000040 f4 4d 42 be 52 b3 2a 3e 95 83 8d bd 8b 2d cf 3d
       -0.1897505 0.16669968 -0.06909863 0.101161085
000050 db 1e 80 bd 1c 95 24 be 37 37 6c bd 61 24 89 3d
       -0.06255885 -0.16072506 -0.057669844 0.06696392
000060 7b 6e 08 bc d1 f7 4c 3e 80 57 f2 bd 83 27 d1 bd
       -0.008327122 0.2001641 -0.118330956 -0.102126144
000070 60 b7 8d 3d de 44 98 3d 7d 64 c5 bc 74 f5 6b 3c
       0.06919742 0.074350104 -0.024095768 0.014401782
000080 0e 06 05 be 6e 9d 15 3d db 6c 92 bd 70 11 20 ba
       -0.12990591 0.03652709 -0.07149669 -0.0006106114
000090 87 bf 74 3b 8f 85 38 3e e1 69 3d 3d c8 1b 33 be
       0.0037345605 0.18019699 0.046243552 -0.17491066
0000a0 d7 88 12 bd 18 ef 23 be 10 71 1c be 7e 37 db 3d
       -0.035775032 -0.16009176 -0.15277505 0.10703944
0000b0 5e 59 18 3e d2 83 1d be a1 63 0d be d0 d6 50 3e
       0.14877841 -0.15382317 -0.13807537 0.20394444
0000c0 ac af 9d bc 46 c7 06 3e 3d 3c c4 bd 4f 84 8e bd
       -0.019248806 0.13161954 -0.09581802 -0.069588296
0000d0 eb a9 f4 3c 7b 6e d3 bb 35 44 25 3e 9b 95 ae bd
       0.02986618 -0.0064523793 0.161393 -0.08524629
0000e0 ba f1 ae 3d cd 66 57 be 8a be 6c bd 2e af 38 be
       0.085421994 -0.21035309 -0.0577989 -0.18035576
0000f0 71 a8 66 3e 90 2a 96 bc ae be 4d be 14 97 7b 3d
       0.22525193 -0.018330842 -0.2009227 0.061423376
000100 b7 03 39 3e f1 f2 92 3c 7d f3 ba bd ae fe 8f bd
       0.18067823 0.01793811 -0.09128473 -0.07030998
000110 cd 13 0b 3e db 52 2e 3e dc 49 0f be 42 d5 0e 3d
       0.13581772 0.17023794 -0.13993019 0.034871347
000120 58 1f 8e bd c9 61 23 be 29 82 59 3e cf de 22 be
       -0.06939572 -0.15955271 0.21241058 -0.15905307
000130 ec 27 a0 bd b1 d7 55 be 7a b9 62 bd 50 58 ea bd
       -0.078201145 -0.20883061 -0.055352665 -0.114426255
000140 50 8f 10 3e fa 5a cb 3c 46 fd 5b bd bc 7e 93 bd
       0.1411717 0.024823654 -0.053708337 -0.07201907
000150 bc 90 92 bd 44 1a e4 bd cc 62 cc 3d 1d 19 6c be
       -0.07156512 -0.11137822 0.099797815 -0.23056455
000160 34 e8 d2 3c d2 97 a4 ba 6b c8 13 3e 23 68 1c bd
       0.025745489 -0.0012557453 0.14431922 -0.03818525
000170 17 b9 25 3e 79 98 a8 bd 36 1a 2b 3e a5 bf 0a 3c
       0.16183887 -0.08232207 0.16709217 0.008468543
000180 33 56 20 bd 2c 40 2e 3e bc 2d 07 bd d0 87 74 3e
       -0.039144706 0.17016667 -0.0330026 0.23879933
000190 2c 1d fb 3c f0 46 2c 3e f7 27 5f 3e d3 8d 88 3d
       0.030653559 0.16823936 0.21792589 0.06667676
0001a0 6c 39 71 bd b1 5b 47 be 81 11 00 bd 6e b7 2c be
       -0.058892652 -0.19468571 -0.031266693 -0.16866848
0001b0 0d 14 32 3e b2 01 66 3e cc 9c 66 3d 3a 46 cf bd
       0.17390461 0.22461584 0.056301877 -0.101208165
0001c0 b9 8a 60 bd c3 76 c9 bc fa 0a 19 be 9a 57 3b 3d
       -0.054819796 -0.024592763 -0.14945593 0.04573784
0001d0 82 94 94 bd f0 d3 d2 bd 15 c0 4e 3e cb 3c 54 bd
       -0.07254888 -0.1029433 0.20190461 -0.05181579
0001e0 0e b6 cf bd 28 8c 91 3d 49 8c 60 3c 8d fa bb bd
       -0.10142146 0.07106811 0.013705322 -0.09178648
0001f0 11 bb 2d 3e 09 11 d1 3d c6 6b 14 be 97 fe ca 3c
       0.16965891 0.10208327 -0.14494237 0.024779601
000200 96 5d 93 bd 23 77 bd bd ed cd 47 be f5 e6 8a 3d
       -0.071955845 -0.09251239 -0.19512148 0.06782333
000210 71 6e c0 bd 08 60 17 3d 6a 98 16 be 49 2a 1f be
       -0.09396065 0.036956817 -0.14706579 -0.15543474
000220 05 23 5b be f1 7d b0 bb 2a bc 21 3e ea 2c 01 be
       -0.21400078 -0.005386107 0.15794435 -0.1261479
000230 ec de 41 bd a6 4c 30 be 9f 8e 09 3d 39 e7 06 3d
       -0.047331735 -0.17216739 0.03358328 0.032935355
000240 a9 a0 3d be 06 c7 b5 3d 67 73 88 bc a2 df 20 bd
       -0.18518318 0.08875851 -0.01665659 -0.039275773
000250 c3 f1 3a 3e d3 37 24 be d7 28 0c be 5a ab 2c be
       0.18256287 -0.1603692 -0.13687454 -0.1686224
000260 fd b6 a0 3c 4b 3d ee 3d 95 b7 60 3c c1 aa a1 3d
       0.019618506 0.116327845 0.013715644 0.07893897
000270 ff cd 13 be a8 56 3a be 99 6f 64 3c 1e 78 f3 3d
       -0.1443405 -0.18197119 0.013942623 0.11888145
000280 94 b3 d9 3d ce 45 1e be 09 ae 05 3d eb ad d6 3d
       0.10629955 -0.15456316 0.032636676 0.10482391
000290 26 f1 3e be af e8 72 3e bf 24 f0 3d fd 8e dc 3c
       -0.18646678 0.23721574 0.11725759 0.02692365
0002a0 c4 e2 24 3d 09 5e 77 bd c2 9c 0b be 22 f6 32 3e
       0.040255323 -0.060392413 -0.13634017 0.17476705
0002b0 18 55 48 bd 98 2d fb bd b3 69 b8 3d 81 fd 42 3e
       -0.048909277 -0.12264556 0.090045355 0.19042017
0002c0 68 ee 11 3e 4f 66 07 3e 3d 24 c3 3d 05 fb 9f bd
       0.14251101 0.13222621 0.09528396 -0.0781155
0002d0 21 1b 35 be 44 9e 9b bd d2 97 ef bc bb 39 85 3d
       -0.1768613 -0.07598546 -0.029247198 0.06505152
0002e0 50 09 96 3d 69 9c 2c 3d 34 39 39 3d 2e 9f 63 bd
       0.07325995 0.04214135 0.04522057 -0.055571727
0002f0 ac d3 44 3e 50 af fa bd a1 ae 92 be 05 dc fa 3d
       0.19221371 -0.122404695 -0.28648856 0.12248997
000300 5f e0 78 3d b1 2f db bd 03 ff df bb f2 98 3d bd
       0.060760852 -0.10702456 -0.0068358197 -0.04628844
000310 5e ac 66 bc 2e ac 1c bd 4c c1 26 be ff 3b 15 3e
       -0.0140791815 -0.03825014 -0.16284674 0.14573668
000320 f7 44 5b bd 7d c7 50 3e f7 09 82 bd 3a 68 82 3e
       -0.053532567 0.20388599 -0.06349557 0.25470144
000330 91 d3 62 3c 1a 0e 39 be ca 45 28 be 13 5a 93 3d
       0.013844387 -0.18071786 -0.16432872 0.07194915
000340 a7 26 a4 3b f1 9e 9f 3d 60 ad 18 3d 8b 13 f5 3d
       0.0050094905 0.077939875 0.03727472 0.11966618
000350 50 33 1e 3e 74 86 8d 3e f5 4c 4b ba c6 27 0c be
       0.15449262 0.27641642 -0.0007755303 -0.13687047
000360 ac 70 be bd cc 95 a1 bd da 5d 2e be 5b 13 10 3e
       -0.09298834 -0.078898996 -0.17027989 0.14069884
000370 b4 c5 39 3e 12 1a 2e 3e aa b9 49 3d b3 cc 27 3e
       0.18141824 0.17002133 0.04924933 0.1638668
000380 62 51 33 be ff b1 6b 3b 08 3f 11 be 29 bd 40 3c
       -0.17511514 0.0035964248 -0.14184201 0.011763849
000390 75 25 1f be 07 f6 1b bd bd 79 f4 3a 1a 31 0d be
       -0.15541632 -0.038076427 0.0018652003 -0.13788262
0003a0 30 42 cb 3d 32 5e 67 bd 6d d8 b5 3d a2 39 f7 3d
       0.09924734 -0.056486316 0.088791706 0.120715395
0003b0 ee b5 94 3d a2 cd 3c be 15 2a a0 bd c1 67 4a be
       0.07261263 -0.18437818 -0.078205265 -0.19766141
0003c0 14 ba 1c 3e 9f 6c 86 3d 8f 32 4a 3d f6 ea c0 bd
       0.15305358 0.065636866 0.049364623 -0.09419815
0003d0 be e2 9a bd 0a a5 15 3e c1 8c 90 bd 2c e2 2d be
       -0.07562779 0.14613739 -0.07058097 -0.16980809
0003e0 2e 19 e7 3d a9 e7 c6 bc ed a4 6c bd 23 94 0f be
       0.112840995 -0.024280386 -0.057774473 -0.14021353
0003f0 2c 02 2d bd 73 2e 19 be 68 ee cf bd 76 38 01 3e
       -0.0422384 -0.14959125 -0.10152894 0.12619194

static_encoder.conv.bias f4 [128]
000000 ed 26 5a 3e 92 30 4e 3e 53 b7 c4 3d ee 30 35 3e
       0.21303912 0.20135716 0.09605279 0.17694446
000010 7a 9b 5c 3e 66 db 7f be f7 06 00 be fe 2d b5 3d
       0.21543685 -0.24986038 -0.12502657 0.08846663
000020 17 4a bd 3c de 02 0a be 8c 04 61 3e 46 67 1b 3e
       0.023106618 -0.13477656 0.21974391 0.15176114
000030 a4 07 19 3e ca 07 7f be d2 ec 9f bc c0 a4 2b 3e
       0.14944321 -0.24905315 -0.019522104 0.16762066
000040 6f 5a 6b be ad 9b 5b be 22 98 20 be c9 ab 75 3e
       -0.22983716 -0.21446104 -0.15683034 0.23991312
000050 db 51 60 be 2a 4e 67 3e 22 d8 da 3d d0 f1 d4 bd
       -0.21906225 0.22588411 0.10685755 -0.103976846
000060 ce 03 66 3e ae d1 36 3e 74 6b 67 3d df 9a dd bc
       0.22462389 0.17853424 0.05649896 -0.027051387
000070 96 5e 61 bd 80 42 88 3d d4 15 81 3e ce ac 62 be
       -0.055021845 0.06653309 0.25211966 -0.22136232
000080 9f 23 2f be 0e 55 ef bd 88 e1 85 bd b2 2e 36 be
       -0.17103432 -0.11686145 -0.06537157 -0.1779125
000090 b5 fe 19 be e4 e8 12 bd 74 87 62 be 52 7b 32 be
       -0.1503857 -0.035866633 -0.22121984 -0.17429855
0000a0 45 38 87 bd 7b 38 82 3e cc ec eb bc 81 57 43 bb
       -0.066025294 0.25433716 -0.028799437 -0.0029806795
0000b0 81 82 07 bb 5c 1e 3e 3d b2 ac 5d 3e 78 eb f5 bd
       -0.0020677152 0.04641567 0.2164791 -0.12007803
0000c0 d6 a6 13 be 0b f3 0e be 50 da be 3d da 00 82 3e
       -0.14419112 -0.13959901 0.093189836 0.25391275
0000d0 23 c1 d3 bd ce d2 57 3e d3 5f 66 3e b3 ff 62 3c
       -0.10339572 0.2107651 0.22497492 0.013854909
0000e0 34 e8 84 be b6 39 29 bd 4f 90 1d 3e 04 a7 4d bd
       -0.25958407 -0.041314803 0.1538708 -0.050208107
0000f0 84 f6 99 3d be 6b a4 3d e4 d2 eb 3d e9 5f c9 3d
       0.07517722 0.08028363 0.115148336 0.098327465
000100 ae aa 2b 3e 4a 35 8d be b9 58 55 be c1 a5 2a 3d
       0.16764328 -0.2757972 -0.20834626 0.04166198
000110 1c 6a 3d 3e 3f dd 6a bd 47 35 91 3e 0e 7f 0c be
       0.18497509 -0.057339903 0.2836096 -0.13720343
000120 23 80 3d 3e 18 bc 3b be b1 fd 0d 3d ef 76 d5 3d
       0.18505912 -0.18333471 0.034665767 0.104230754
000130 9d aa 9b bd 26 62 7f bd 94 27 a8 bd 36 17 4a 3e
       -0.07600901 -0.06234946 -0.08210674 0.19735417
000140 49 36 d7 bd 5c 91 21 bd 8a 2f e8 bc 04 95 3c be
       -0.10508401 -0.039445266 -0.02834298 -0.1841622
000150 0a 05 5e 3e 98 f6 d8 3d 46 74 3d 3e 53 5d 6c 3c
       0.2168161 0.10593909 0.18501386 0.014426547
000160 71 89 d5 bd fb f3 48 be c6 d2 07 3e 60 81 36 3e
       -0.104266055 -0.19624321 0.13263997 0.1782279
000170 d9 7f 3f be 96 96 cd bd 57 09 c1 3d 8b 88 71 3e
       -0.18701114 -0.100384876 0.094256096 0.23587243
000180 68 dd bf bd 2d 4a 67 3e f5 40 8c bd 3e be 03 3e
       -0.09368402 0.2258689 -0.06848327 0.1286554
000190 67 f1 80 be 7b 66 7c 3d ad 78 8b bd a5 15 18 be
       -0.25184175 0.06162117 -0.068101265 -0.14852007
0001a0 57 19 78 3e 0b 46 3b be 05 b2 82 3d a6 4e 8b bd
       0.24228416 -0.18288438 0.06381611 -0.068021104
0001b0 a1 d1 51 3e 7a e3 4b be 0b 9e 83 be d5 e3 f1 bd
       0.20490123 -0.19910994 -0.25706515 -0.11811034
0001c0 a9 a3 e6 3d 9a 96 38 3e 58 84 07 be c0 87 b3 3d
       0.112616844 0.180262 -0.13234079 0.08766127
0001d0 99 0b 14 be d7 25 de bc 67 df 0b be c3 cf 2a be
       -0.14457549 -0.027117653 -0.1365944 -0.16680817
0001e0 06 54 da 3d 40 58 01 bc 99 d7 e3 3b 5f 50 ad bd
       0.106605574 -0.007894576 0.0069531915 -0.08462595
0001f0 6b c2 d5 3d 6d f4 b2 bd 8c fb 4e be ce ab 6e be
       0.10437473 -0.08738027 -0.20213145 -0.23307726

dynamic_encoder.conv.weight f4 [128, 1, 1]
000000 5a da 3c be ec ae 03 3e 20 89 a0 3d db 71 52 be
       -0.1844267 0.12859696 0.078386545 -0.20551245
000010 30 c8 a1 3c ae e6 2c be 9c 50 36 3e c8 84 e1 3d
       0.019748777 -0.16884872 0.17804188 0.11011654
000020 23 cc 52 be 44 2e bd 3d 38 06 66 bd e8 b7 44 bd
       -0.20585684 0.0923734 -0.056158274 -0.04802695
000030 53 5d 3b be 32 68 ed bd 58 8a 8d 3c c2 66 20 3e
       -0.18297319 -0.11592139 0.017277882 0.15664199
000040 71 39 e4 bd 2d 36 57 be fe b2 45 3e 11 c6 fa bd
       -0.111437686 -0.2101676 0.19306561 -0.122448094
000050 88 c4 1d be 40 7a 0f bd a4 c8 54 bd e0 48 1b 3e
       -0.15407002 -0.035028696 -0.05194916 0.15164518
000060 10 93 23 3e 6c de 33 be 18 e1 4c 3d c0 66 49 bb
       0.15974069 -0.17565316 0.050019354 -0.003073141
000070 00 17 13 3d 38 79 59 be f0 70 85 3d 6f 7e 25 be
       0.035910606 -0.21237648 0.06515682 -0.16161512
000080 f6 91 1a 3e 1e 25 de bd 00 cf 73 3d c0 90 2b 3e
       0.15094742 -0.10846923 0.059523582 0.16754436
000090 f8 0c 38 3d 70 d7 b7 3d a2 35 0c be 96 77 02 be
       0.044934243 0.08976638 -0.13692334 -0.12740931
0000a0 a0 b0 2f 3d f8 98 d5 3d a4 f0 44 3e 80 ef f9 3d
       0.042893052 0.10429567 0.19232422 0.12203884
0000b0 37 f3 bd bd fa 89 4b 3e 34 75 1d be 98 5c bf bc
       -0.09274905 0.19876853 -0.1537674 -0.023359582
0000c0 62 82 02 be 90 32 14 be d8 1e af 3c b7 fc ec bd
       -0.1274505 -0.14472413 0.021377012 -0.11571639
0000d0 70 93 93 3c 3a 69 13 be f5 04 db bd 00 f2 c0 bc
       0.01801464 -0.1439561 -0.10694305 -0.023552895
0000e0 36 44 0b be ab 2c 48 be 08 f6 80 3c ac 6f a2 bd
       -0.13600239 -0.1954829 0.015742317 -0.07931456
0000f0 9e 1f a5 bd ec ed 30 3e b8 d6 b0 bd d4 e1 b0 bd
       -0.08062671 0.1727826 -0.08634704 -0.08636823
000100 06 f2 4c 3e 40 34 48 bd 4c 1d 22 bd e4 7d 7a bd
       0.200142 -0.048877954 -0.03957872 -0.061155215
000110 c8 cf 48 3d 66 a8 da bd e6 ae 9b bd 80 c0 68 bb
       0.04902628 -0.10676651 -0.076017186 -0.003551513
000120 ad 53 34 be 2d 4a 3a be 80 79 c1 3d d8 cb 2c 3d
       -0.17610045 -0.18192358 0.094470024 0.042186588
000130 b0 62 d8 3d 0d 0d f8 bd 4e ce 3d be be b6 b6 bd
       0.10565698 -0.12111864 -0.1853573 -0.08921574
000140 88 1b 17 be 98 2f 78 3d 2a f6 17 be c0 fc 8d 3b
       -0.14756596 0.060592264 -0.14839998 0.0043331087
000150 98 9b 57 3e 50 ad 4c be 7c 0b ba bd 40 e6 f0 3b
       0.21055448 -0.19987988 -0.09084222 0.0073516667
000160 8c a8 0b be e4 12 ee 3d 9c 00 97 3d 10 23 9e bd
       -0.13638514 0.11624697 0.07373163 -0.077215314
000170 6c c6 2c 3e c8 38 2c 3e 80 64 b6 3c e4 9f d5 bd
       0.16872567 0.16818535 0.022264719 -0.10430887
000180 98 d7 84 3d 49 8a c2 bd 80 9e 40 3c c0 76 9b 3c
       0.06486434 -0.09499032 0.011756539 0.018977523
000190 40 e9 59 3b e0 9f a5 bd 70 c2 64 3d 6c 34 c0 3d
       0.00332506 -0.08087134 0.055849493 0.09384999
0001a0 e0 29 9f 3d 4a 89 a1 bd 54 9b ac 3d b0 80 7e bc
       0.07771659 -0.07887514 0.08428064 -0.015533611
0001b0 8a 6d 02 3e a2 2b 86 bd 18 c9 e6 3d f2 cd 35 be
       0.12737098 -0.06551291 0.11268824 -0.17754343
0001c0 fa 5b 3b 3e 20 1c a0 bb 3d 57 32 be 0d 7d 2d be
       0.18296805 -0.0048861653 -0.17416091 -0.16942234
0001d0 1b 2c cd bd 68 ce 1f 3d 14 67 34 be a0 99 34 3c
       -0.10018178 0.039015204 -0.17617446 0.011022955
0001e0 88 58 b9 3c 6c 7e dc 3d 9b 8b 56 be 98 19 92 bd
       0.022625223 0.107663006 -0.20951693 -0.07133788
0001f0 38 96 20 3d 68 15 12 3d 32 dd 21 be d0 23 10 3d
       0.03920576 0.035664946 -0.15807036 0.035190403

dynamic_encoder.conv.bias f4 [128]
000000 75 b0 75 3f 61 66 18 bf 1e 30 66 bf f3 91 a7 3c
       0.9597238 -0.5953122 -0.8991717 0.020455336
000010 82 25 e0 be 4b 3e 0a bf 15 c6 35 bf e7 57 04 bf
       -0.43778616 -0.540013 -0.71005374 -0.5169663
000020 d7 1d e2 3e 3f 91 c5 bd 76 de 79 3e b9 68 5b 3f
       0.4416339 -0.09646844 0.24401268 0.8570667
000030 19 77 13 3f 99 fe c2 be 91 54 d9 be 83 fb b3 be
       0.57603604 -0.38084868 -0.42447332 -0.35152826
000040 47 57 84 bd ec 9a 50 be 26 b0 19 bf d8 1a af 3d
       -0.06461959 -0.20371598 -0.60034406 0.08550042
000050 24 fc f0 be 48 e7 26 3f 09 74 34 bf 6f e1 8a be
       -0.47067368 0.6519666 -0.70489556 -0.27125117
000060 cc 4c 90 39 39 83 bb be fc e5 aa 3e d1 5c 1c bf
       0.00027523038 -0.36623552 0.3337859 -0.61079127
000070 6d 14 82 3f c0 6d 70 bf 05 45 8b 3e a7 8b 21 bf
       1.0162483 -0.93917465 0.27201095 -0.6310372
000080 97 e7 0e 3e ad 42 1b bc b3 8f 1f 3f 62 89 37 3f
       0.13955532 -0.009476346 0.6232864 0.71694005
000090 6b 2f d6 be f7 cc 21 bf 19 85 25 3f 5d 9f b6 3d
       -0.41833052 -0.63203377 0.64656216 0.08917115
0000a0 04 3b 2d bf da fc 63 3f 94 97 32 3f 32 32 b3 be
       -0.67668176 0.89057696 0.6976254 -0.34999233
0000b0 68 26 5a 3f 15 59 7a be 99 20 45 bf 65 c4 02 3f
       0.85214853 -0.24448045 -0.77002865 0.51080924
0000c0 92 7a 98 be 94 8f 59 3f 23 34 db be b6 a2 79 3f
       -0.29781014 0.8498471 -0.42813215 0.975139
0000d0 0d 92 47 3e 5c 79 5d bf cb 1a 60 bf 5b ee 88 be
       0.19489308 -0.86513305 -0.8754088 -0.2674435
0000e0 72 cc d8 bd 01 86 65 bf 7b 98 63 be a7 e6 64 bf
       -0.1058587 -0.896576 -0.22226135 -0.8941445
0000f0 60 1d 77 3f 7f 6f c5 be c7 ed 62 3f 44 7c a7 3d
       0.965292 -0.38561627 0.8864407 0.08177999
000100 59 81 60 3f 50 5a 35 3d 12 29 b5 3e f2 52 98 bd
       0.8769737 0.04427558 0.35382897 -0.074376956
000110 e8 b9 5a bf 0f e7 c8 3e 98 fe 01 bf 6e 24 22 3d
       -0.8543992 0.39238784 -0.50779104 0.039585523
000120 e5 b6 1b 3f b0 58 1c 3e d4 93 39 bf c5 b3 15 3f
       0.6082595 0.15268207 -0.7249119 0.5847743
000130 2b 60 43 bf ba 23 28 3f 51 0e e7 3e 0c a3 4d bd
       -0.76318616 0.65679514 0.4512811 -0.05020432
000140 b5 81 45 be 2c d5 56 bf a6 53 0a be 07 ed 44 3f
       -0.1928776 -0.83919024 -0.13508472 0.76924175
000150 31 57 d6 be 72 99 88 3e fa 8b ab 3e 00 62 4f 3f
       -0.41863397 0.2667957 0.3350523 0.8100891
000160 e8 f0 71 bf 3e b4 21 3b c4 37 74 bf a7 88 a1 be
       -0.9450822 0.0024674083 -0.9539759 -0.3154957
000170 e1 e8 05 bd f5 f9 60 bf e6 2f b8 3e 7e 1c 21 bf
       -0.032692794 -0.87881404 0.35974044 -0.629341
000180 0b 8f 4d be 37 22 83 bd c7 7c 18 3f eb 52 65 3f
       -0.20074098 -0.0640301 0.59565395 0.8957965
000190 76 00 e2 be d5 f7 60 bf 2d 5b 2d be 4b 35 bd 3e
       -0.44140977 -0.8787816 -0.16929312 0.36954722
0001a0 b1 9b f5 be 23 01 56 3f 0b 69 0a bf 6b 7d 7f 3c
       -0.47970346 0.83595484 -0.5406653 0.015593867
0001b0 a8 60 b0 bd af 5d f5 3d c0 4c df 3e c5 c8 3a bf
       -0.08612186 0.11980759 0.43613243 -0.729626
0001c0 f4 3e 25 bf f6 7d 1e bf c2 4a 49 3f bd 48 64 be
       -0.64549184 -0.6191095 0.78629696 -0.22293372
0001d0 a7 0c 1c bf 7a f6 ca 3e 67 c7 c2 3d b1 57 07 3f
       -0.60956806 0.39641172 0.09510689 0.5286818
0001e0 b0 b3 03 3f ee fd ee be f1 d7 1c bf 19 07 7b bf
       0.51446056 -0.46678108 -0.61267 -0.98057705
0001f0 85 ff f3 be 42 04 b6 bd 51 ed 71 be c9 53 06 bf
       -0.47655883 -0.08887531 -0.23625685 -0.52471596

fc1.weight f4 [20, 256, 1]
000000 2c 6b ad 3d d2 23 2d 3d f4 26 b4 bd cc 86 f8 3d
       0.08467707 0.04227049 -0.08796492 0.121350855
000010 d2 bb 98 bd 8c 50 8b bd 85 f4 a4 3d 6b fc ec bd
       -0.07457699 -0.068024725 0.08054451 -0.115715824
000020 73 7d d5 3d a9 94 f3 bb a5 03 5f 3d 9d 6b c1 3d
       0.10424318 -0.007433493 0.054446835 0.09444354
000030 b1 d2 f4 bd 6d ee 7e 3d d7 f9 8f 3d 90 b6 0c bd
       -0.11954249 0.0622391 0.07030075 -0.034353793
000040 42 48 70 bd 6b 23 87 3d 71 4c a5 3d 6b 4e 68 3d
       -0.05866266 0.06598552 0.08071221 0.05671541
000050 b4 00 65 bc 99 d4 5d 3d 65 5a 99 bb 6b dc 54 3d
       -0.013977218 0.054157827 -0.0046799653 0.05196802
000060 94 2e 54 3c 8f 2c 4e 3d 42 5e af 3c bb de 09 bd
       0.012950558 0.050335463 0.02140725 -0.033659678
000070 89 fd 1e be 0c 53 32 bc 0f 59 6f bd 14 51 95 bd
       -0.15526403 -0.010884058 -0.058434542 -0.07290855
000080 14 70 e2 bd b6 94 93 bb 72 2a 87 3d 76 1e ff bc
       -0.110565335 -0.0045038117 0.06599893 -0.031142455
000090 c2 73 be bc 22 57 a9 bd 32 ad d6 3d b3 5e 0b 3e
       -0.023248557 -0.082685724 0.10482253 0.13610344
0000a0 5f d3 fd bc 04 f3 e1 bd 2a af 3d 3d 0f 56 d5 3c
       -0.030984579 -0.1103268 0.046309628 0.026042012
0000b0 78 dd 68 bd 69 82 02 3e 56 3d 7a bc 1d 45 f8 3c
       -0.056851834 0.1274506 -0.015273413 0.030306393
0000c0 2c 0f 00 3e 22 40 09 3d 3b b1 0c 3e 2f 86 9a bc
       0.12505788 0.033508427 0.13739483 -0.018862812
0000d0 e7 ec 0a be dc 17 8e bd ed 4d 29 bd 08 ed 27 3d
       -0.13566934 -0.069381446 -0.04133408 0.040997535
0000e0 fb c2 ae 3b 17 da dc 3d 0d ce cc bd b2 9b f1 bd
       0.005333302 0.10783785 -0.100002386 -0.11797275
0000f0 bf e2 b7 3c 1f f8 e4 3d a4 dc 59 bd 27 0d 6c bd
       0.022446988 0.11180138 -0.053188935 -0.05762973
000100 56 9e ba 3c 67 a1 58 bd 93 70 f2 bd d2 f7 c7 bb
       0.022780579 -0.0528883 -0.11837878 -0.0061025405
000110 7c 55 b6 bd 3d d6 e9 bd f3 f1 81 bd 52 27 05 be
       -0.089030236 -0.11417816 -0.06344976 -0.13003281
000120 7a bd 61 3b 6d f1 8f bd 37 98 f3 bc 5a e7 0c 3e
       0.0034445212 -0.0702847 -0.029735668 0.13760129
000130 53 69 a8 3d a7 75 08 bd 84 b5 f1 3d 71 9e b5 bd
       0.08223214 -0.033315327 0.118021995 -0.08868111
000140 ad 29 6c 3d 52 25 21 3d 3a ad f4 bc c1 96 ef 3d
       0.057656933 0.039342232 -0.029867757 0.11698676
000150 b9 78 44 bc 2a b9 bf bc fb 5d d3 bd 34 0e 2b bd
       -0.011991673 -0.023403723 -0.1032066 -0.041761592
000160 ba 0c 1d bd 83 83 8d 3d ce 57 ad 3d 48 c8 ac 3d
       -0.038342215 0.069098495 0.08464013 0.08436638
000170 90 82 03 bd e1 21 60 bd 19 30 9d 3d c0 37 05 bc
       -0.032106936 -0.05471981 0.076751895 -0.008130968
000180 b5 02 af 3c 04 ec 3f bd a3 a5 0a be d9 0c 59 bd
       0.021363596 -0.04685594 -0.13539748 -0.052990768
000190 ab 1c 13 ba 0d d3 ad 3d 13 3a 03 be ac c0 8c 3d
       -0.0005611877 0.0848752 -0.12815122 0.06872687
0001a0 66 ad 03 3e 36 9a 98 3d 30 65 81 bc a0 1e de 3d
       0.12859115 0.074512884 -0.01579532 0.10845685
0001b0 3a 5c ea bc 4f 8c 85 bd d4 a6 4d bd 5b cc 1c bd
       -0.02860843 -0.06520902 -0.050207928 -0.038280826
0001c0 d5 f4 3b bd 84 11 06 3e fa ec 52 3d cc 83 36 3d
       -0.045887787 0.13092619 0.05149553 0.044559285
0001d0 72 23 26 bd ed 0a a4 bc 61 73 a2 3d f2 44 13 3e
       -0.040561147 -0.020024741 0.07932163 0.1438177
0001e0 06 75 8f 3d 5c 99 b3 bd 18 b5 00 3e e2 a4 94 bd
       0.07004742 -0.08769485 0.12569082 -0.072580114
0001f0 e0 30 8d 3d 17 63 c1 bc 45 7c 8e bc d0 ee 9d bd
       0.06894088 -0.02360682 -0.01739324 -0.077115655
000200 08 ba e7 bd c4 b9 91 3d 87 f2 04 be 91 50 ff 3d
       -0.113147795 0.0711551 -0.12983142 0.12466539
000210 e9 6f 2e 3d 71 00 86 bd 6b 2e af bd 1a 77 3e 3d
       0.042587195 -0.06543053 -0.085537754 0.046500303
000220 00 b4 c9 bd cb d9 37 bd 9f da e1 bd a3 97 ad bc
       -0.098487854 -0.044885438 -0.11028027 -0.02119047
000230 f5 21 7e 3d 3c 61 c3 3d f9 54 db 3d 84 b7 b4 3d
       0.062044103 0.0954003 0.107095666 0.08824065
000240 fa 64 41 3a 98 13 06 be 15 ed 29 bc 6a f0 53 bd
       0.00073774124 -0.13093412 -0.010371466 -0.05174295
000250 dd 81 85 bd 40 c7 67 bd 58 3a c8 3d 60 e9 0a 3e
       -0.0651891 -0.056586504 0.09776753 0.13565588
000260 dd 01 e3 3d fe 73 16 bc 14 19 b0 3d 16 8a e8 3d
       0.1108434 -0.009182928 0.08598533 0.11354463
000270 87 5e 06 be f6 a4 86 3d f8 4d f8 3c 7b 06 ad 3d
       -0.13121997 0.065744326 0.030310616 0.08448502
000280 e2 c4 a4 3d c9 78 47 3d eb 2c 9f bb 70 71 43 bb
       0.08045365 0.048699174 -0.0048576496 -0.0029822253
000290 1a d3 a9 3c 18 e5 a4 3c a6 aa 19 be d8 15 f0 3c
       0.020730544 0.020128772 -0.15006503 0.02930729
0002a0 41 92 43 bb ec 27 71 3d 36 3d 11 bd 50 5b 98 bd
       -0.0029841813 0.058875963 -0.035458766 -0.074392915
0002b0 1c e8 e6 3d c0 eb 9b 3d 82 ae a7 3d e7 da 82 bc
       0.1127474 0.07613325 0.081875816 -0.015973521
0002c0 e6 4f 88 3d 6b ab ab 3d b3 9a fd bd 94 69 07 3e
       0.066558644 0.08382305 -0.12383022 0.13223869
0002d0 c0 16 a3 bd 81 17 ca 3d be aa 19 3c 68 33 f0 3b
       -0.079633236 0.09867764 0.009379087 0.007330347
0002e0 44 29 5e 3d bd d2 db bd ba 47 bf 3b 53 fb 1d bd
       0.054238573 -0.107335545 0.005837408 -0.03856976
0002f0 17 5f 3f 3d 7c 8d 15 3e 0f 3f 54 bd 9d 67 df bd
       0.046721544 0.14604753 -0.05181795 -0.109084345
000300 eb d5 b8 bd 47 36 76 bd 92 be ba bb 51 b0 14 3c
       -0.090251766 -0.060110357 -0.0056989873 0.00907524
000310 a6 c2 5a bd f1 d6 e5 3d 0c 92 06 be c9 e7 1e be
       -0.053408287 0.112226374 -0.1314165 -0.15518107
000320 9b 0f ac 3d 7c 93 ac 3d 66 4f f1 bd 0f 67 92 3c
       0.08401414 0.08426568 -0.11782722 0.017871408
000330 85 58 23 bd be 16 5c 3c be a7 d2 3d 0e 91 98 3d
       -0.03987934 0.013433157 0.102859005 0.07449542
000340 7c 20 cc bd 99 64 16 3d 5d 65 0e bd ea 8a ae bb
       -0.099671334 0.03671703 -0.034764636 -0.0053266184
000350 1c ea 16 bd 77 0c 09 3e 59 b2 e6 bc 39 0e fa bd
       -0.036844358 0.13383661 -0.028161215 -0.12209744
000360 15 3e 40 3d c1 67 8f bd 56 56 df 3d 20 9f a9 3c
       0.046934206 -0.07002211 0.10905139 0.02070576
000370 96 a5 c9 3d 0e 35 70 bd e4 bc ef 3d 8d 1d eb 3b
       0.09846036 -0.058644347 0.1170595 0.0071751536
000380 af a2 c8 bd a6 f7 94 ba f5 70 3c 3d 13 5d 24 3c
       -0.097966544 -0.0011365309 0.04600616 0.010031956
000390 63 ad 86 3d 53 c1 c0 bd 62 dc 07 3e 5d 0f 92 3d
       0.0657604 -0.09411874 0.13267663 0.071318366
0003a0 9a eb fa 3d e3 2b e4 bd a1 c4 18 3e a1 6e 0d be
       0.12251969 -0.11141183 0.14918758 -0.13811733
0003b0 4c d1 9b 3c dd 33 5d 3d 0f d9 7f bd e9 e4 a5 3d
       0.019020699 0.05400454 -0.062462863 0.08100302
0003c0 06 5b 9c bd 2f 61 1b bd 8d 4a 06 3e 2e 2e c4 bd
       -0.07634549 -0.03793448 0.13114376 -0.095791206
0003d0 b5 b5 0b 3e 98 b0 b2 3d 69 17 3a 3d 5a 60 25 bd
       0.13643534 0.08725089 0.045432482 -0.04037509
0003e0 8e d8 1b be 31 f9 0a 3d 05 a1 a8 bd 0a ee 2b 3b
       -0.15219328 0.033929054 -0.08233837 0.0026234412
0003f0 9d 00 9a 3c 52 38 10 3e 37 f6 03 be 10 9f 9a 3c
       0.01879912 0.14083984 -0.12886892 0.018874675

fc1.bias f4 [20]
000000 c4 51 52 bd b8 88 2e bd ad ce 07 bd 48 8a 59 3d
       -0.05134751 -0.042610854 -0.033156086 0.05311039
000010 34 cb 2a 3a 76 8d 41 bd 9a 20 b4 bc 0f e2 4d bd
       0.0006515265 -0.04725405 -0.021988202 -0.050264414
000020 66 7c 6d bc 1f f5 aa bd 27 dc a1 bd fe e2 67 bd
       -0.014494991 -0.083475344 -0.07903319 -0.05661296
000030 74 81 2f bd 69 a0 27 3c 7e ff 5b bd 19 a3 4a bd
       -0.042848065 0.010231116 -0.053710453 -0.04947195
000040 85 b6 47 3d d5 74 98 bd 82 19 0b 3d b1 10 97 bd
       0.04875805 -0.07444159 0.033959873 -0.073762305

fc2.weight f4 [20, 20, 1]
000000 e3 62 d8 3d 59 24 0b 3e 40 9a 99 be 51 88 54 3a
       0.10565736 0.13588084 -0.30000496 0.0008107471
000010 72 8c ba 3e a1 bc 35 3e ac 44 22 3d 7a 3d d9 3d
       0.36435276 0.17747737 0.03961627 0.10607429
000020 d2 a8 fe bd 20 3f bc 3d 0c 98 6b be 61 1d a5 3c
       -0.12434544 0.09191728 -0.2300722 0.02015561
000030 b5 ac ae 3e c0 7c 41 3e 2f 27 a8 be b7 ac 8b 3e
       0.3411614 0.18895245 -0.32842395 0.27280208
000040 8a 74 2b 3e b7 fb 8e 3e e3 b2 02 3e 27 58 b5 3d
       0.16743675 0.27926418 0.12763552 0.08854704
000050 89 45 39 be 63 85 5d 3e 7f f1 9d be 57 b5 c9 bd
       -0.18092932 0.21632914 -0.3084831 -0.09849041
000060 81 28 9d bd 1f 34 c1 bd cc 51 c1 be fc 74 38 3e
       -0.07673741 -0.094337694 -0.3775772 0.18013376
000070 22 c0 aa 3e bb 3b 92 3c 31 38 57 be 37 da a0 bc
       0.3334971 0.017850747 -0.21017529 -0.019635303
000080 c7 be 66 be 76 d9 37 3e 8a 05 a3 bd de 3d 7f be
       -0.22533713 0.17954049 -0.07960041 -0.24925944
000090 bd 22 aa 3d 62 8c 76 3e f0 f7 c3 3d 66 b3 b3 3e
       0.08307407 0.2407699 0.09568775 0.35097808
0000a0 3d 68 7b be 96 8f 1f 3e 2c 3e aa be 5b 99 62 3e
       -0.24551482 0.15582117 -0.33250558 0.22128813
0000b0 9d 1f 2d 3e 54 fe 4d 3c 1e 62 5e be 06 8b 59 be
       0.16906591 0.012572844 -0.21717116 -0.2124444
0000c0 85 1d 5c be 93 e3 4b 3e 33 f7 2a 3e b2 11 3e be
       -0.21495636 0.19911031 0.16695862 -0.18561438
0000d0 c2 7b b9 be d8 4a 2b 3d 82 64 af be d2 76 ca bd
       -0.36227232 0.041819423 -0.3425637 -0.098859444
0000e0 15 48 be 3e 26 52 a2 3e 9b 68 54 be 01 00 40 3e
       0.3716437 0.317033 -0.20743029 0.18750001
0000f0 b1 d8 de bd 1a 84 01 3e b8 33 32 be 12 09 45 be
       -0.10881174 0.12648049 -0.17402542 -0.19241741
000100 70 d1 94 be 9c 9f a6 be 37 b2 bc 3e ca 3b 95 3d
       -0.29066038 -0.32543647 0.36854717 0.072867945
000110 14 7e 0a 3e 64 7c 2e 3e 2e be 9c be 89 33 98 bc
       0.13524657 0.17039639 -0.30613846 -0.018579261
000120 6f f8 bb 3d 79 11 b4 be 29 e8 b3 3e b5 30 9a be
       0.09178244 -0.3516958 0.35138062 -0.30115286
000130 64 d9 16 3d d5 16 14 3e 8c 05 43 be a9 80 17 3e
       0.036828414 0.14461835 -0.19045085 0.14795174
000140 ac 6a aa bd cf 99 7e 3e 08 a7 06 bd 82 4d ae 3d
       -0.08321127 0.24863361 -0.032874137 0.08510877
000150 d5 46 b8 bc 68 cf 81 3e b3 8f 98 be 1f b0 ac be
       -0.022494713 0.2535355 -0.29797134 -0.3372812
000160 8e 39 1e be 28 23 1c 3e 31 13 85 3e 6c 91 7c 3e
       -0.15451643 0.15247786 0.25991204 0.24664849
000170 43 db 74 3e 69 b2 e5 3d 05 96 b0 3e 5b 20 71 3e
       0.23911767 0.1121567 0.34489456 0.23547499
000180 d3 5a 02 3e 0e 1c 45 3e 55 e0 93 be e5 9e 9c be
       0.12729959 0.19248983 -0.2888209 -0.30589977
000190 c6 ea 49 3d ad a3 c3 3d 63 13 c4 be 87 6d 6a be
       0.049296163 0.09552703 -0.3829604 -0.22893344
0001a0 0e b6 4c 3e 26 8f 83 3e 24 c1 0f bc f0 39 cb be
       0.19991323 0.2569515 -0.008774076 -0.3969264
0001b0 76 e5 5d bd 76 a5 11 be da b6 a8 be aa a7 88 be
       -0.05417391 -0.14223275 -0.32952005 -0.26690418
0001c0 29 4b 9d bd 41 29 3e 3e 8a 2c 94 bd dd 89 3e be
       -0.07680351 0.18570425 -0.07235058 -0.18607278
0001d0 06 9a 55 3e 4e 6a b7 be 42 21 b7 bd 74 c4 29 be
       0.20859537 -0.35823292 -0.0894189 -0.16578847
0001e0 72 22 82 3e 0d 38 2d 3e 70 f1 88 3e 27 73 f2 3b
       0.25416905 0.16915913 0.26746702 0.007398981
0001f0 89 bd b5 be 80 ff b6 3d 06 da b5 be 89 c9 e9 bd
       -0.35496166 0.089354515 -0.355179 -0.11415393
000200 6e fa 41 3e 48 5c 63 3e c8 be 47 3e c2 05 7a be
       0.18943188 0.22203171 0.19506371 -0.24416259
000210 50 b3 76 be c4 51 3b 3e 70 f6 bb 3e 7a c6 ab 3e
       -0.2409184 0.1829291 0.36711454 0.33549863
000220 50 31 80 3c b0 2e 37 be fb 46 b7 bc e7 e7 57 3e
       0.015648514 -0.17888904 -0.022372713 0.21084557
000230 2a 06 9e be cf 9e a8 3e e6 a7 8a 3e 72 73 99 3e
       -0.30864078 0.3293366 0.2708122 0.2997089
000240 a7 60 4f bd a7 f3 de 3d 49 e6 76 be 19 3b 5f be
       -0.050629284 0.10886317 -0.24111284 -0.21799888
000250 f2 4f e1 bb 41 14 7d 3e d2 f3 4f be 58 0b 99 3e
       -0.0068759853 0.24714758 -0.20307854 0.29891467
000260 d1 1a 5b 3e 38 6d e1 3d 93 ba 05 3e d1 d5 b3 3e
       0.21396948 0.1100716 0.13059454 0.35124066
000270 1e 8d 68 3d 2d 3e 1f bc a4 90 62 3e 43 ac 0d be
       0.056775205 -0.009719414 0.22125489 -0.13835244
000280 00 de 29 bd 7a b7 3b 3e 2c 65 a7 be de 5c 5e bc
       -0.04147148 0.1833171 -0.32694376 -0.013571946
000290 ed 35 1c 3e dc 75 3e 3e 35 e9 14 3e 9f c6 7b bd
       0.15254946 0.18599647 0.14542086 -0.061468717
0002a0 b7 29 37 be fd 0d a8 3e 00 23 fd bd e6 b6 b8 3e
       -0.17887007 0.32823172 -0.12360191 0.3607704
0002b0 d6 fb 82 3e fa 70 bf 3e e7 0d 2d 3e b5 29 77 3e
       0.2558276 0.37390882 0.16899835 0.24137004
0002c0 e7 64 7d be 62 6a 51 be b6 54 1a 3e b5 ca 39 be
       -0.24745522 -0.20450738 0.15071377 -0.18143733
0002d0 e6 ab ac be 05 95 4b bc 28 0b 25 bb a6 4c aa 3e
       -0.33724898 -0.012425666 -0.0025183652 0.33261603
0002e0 21 7c df 3c 91 df 87 3e ab e5 74 3d b6 1d 75 3e
       0.027280869 0.26537755 0.05978934 0.23937115
0002f0 1e 9a 19 3e 0c 78 35 3d 46 28 cc 3e b2 32 63 be
       0.15000197 0.04430394 0.39874476 -0.22187307
000300 47 3e b8 be 48 f8 3c be 20 9f 7e be 50 e4 88 3d
       -0.35985014 -0.18454087 -0.24865389 0.06684172
000310 ab 91 ad 3e f0 f9 f6 bc 43 cd 5d 3e 08 39 84 3e
       0.33900198 -0.030148476 0.21660332 0.2582476
000320 cf 1a 9b be 50 7b 4a be 0f e1 b1 3d f8 b5 27 be
       -0.3029389 -0.19773602 0.08685505 -0.1637801
000330 5d 93 3d 3d 32 10 ad bd c5 6a 5d be 90 ac 30 be
       0.046283115 -0.08450355 -0.2162276 -0.17253327
000340 56 f4 87 be ed 35 bf 3e e2 60 86 be c3 89 21 be
       -0.265536 0.3734583 -0.2624579 -0.15775208
000350 c3 30 9d 3e 19 84 83 be 65 0e 2e 3e 5c 50 52 3e
       0.30701265 -0.2568672 0.16997679 0.20538467
000360 b4 32 ab be 34 bc b0 be cd 28 87 be c7 a6 3c 3e
       -0.3343712 -0.34518588 -0.26398316 0.18422996
000370 dd 57 b6 3e 64 26 c5 bd 11 1a 50 3d eb ae 81 be
       0.3561391 -0.09626463 0.05080611 -0.25328764
000380 a2 38 ec bd bf 49 ac bd 3f fc 4c 3e 61 a8 4f 3c
       -0.11534239 -0.084125035 0.20018099 0.012674422
000390 4d a0 3b 3e ac 6a af 3d b2 81 11 bd 83 14 ae be
       0.18322869 0.08565268 -0.035524078 -0.34000024
0003a0 da b3 86 bd 7b 7f ac 3e 1f f3 d7 3d ad 60 67 3e
       -0.06577273 0.3369101 0.105444185 0.22595473
0003b0 51 bd 2c be 41 02 36 be 01 0d b5 be df d9 b7 3e
       -0.16869093 -0.17774297 -0.35361484 0.3590841
0003c0 49 7f 01 be 5b a5 9f be 1e 08 be bd 58 71 29 3d
       -0.12646212 -0.31180844 -0.09278892 0.04136786
0003d0 0b d7 bd 3e 81 e6 1a be e2 85 8b be f0 e5 cc be
       0.37078127 -0.15126993 -0.27250582 -0.40019178
0003e0 13 41 dc bd c8 81 bf 3e 5f c5 80 be 97 38 98 be
       -0.107545994 0.37403703 -0.25150582 -0.29730675
0003f0 b0 4a 0a 3e 93 ab 9c 3b b9 0e 4c 3d 4f 21 b4 3a
       0.13505054 0.0047811954 0.049818728 0.0013742837

fc2.bias f4 [20]
000000 46 39 67 3e 28 23 7c 3e 4c 50 b6 bc 7d 5e 40 3d
       0.22580442 0.24622786 -0.022255085 0.04696511
000010 96 96 81 3d 30 a6 21 3d 08 c9 06 3e 69 1d 4b bc
       0.0632755 0.03946513 0.13162625 -0.012397149
000020 8c 09 00 bd 3d a0 b2 3c a7 e3 42 bd 08 e3 55 be
       -0.031259105 0.021804923 -0.047580387 -0.20887387
000030 60 48 05 bc 50 f8 40 bb 16 c8 9f bc d7 0e cb 3d
       -0.008134931 -0.002944488 -0.019504588 0.0991494
000040 76 e6 cd bb 84 5a 3f be 61 9b 08 be ad 20 5b be
       -0.0062835766 -0.18686873 -0.13340522 -0.21399184

fc3.weight f4 [1, 20, 1]
000000 d0 cf a6 bd 78 57 21 be ee 5e af 3e b1 20 0c be
       -0.08145106 -0.15756023 0.34252113 -0.13684346
000010 eb 62 8b 3e c1 4b cd bd 39 66 a4 be 5d 28 28 be
       0.27223906 -0.100242145 -0.3210924 -0.16421647
000020 fd 1f 90 3e c4 0c a2 be 49 84 36 bb 26 ae f7 be
       0.28149405 -0.31650364 -0.0027849844 -0.48375052
000030 7c 98 2f 3e 22 7c ae 3e 28 6b 92 3d 9c d9 55 3e
       0.17148012 0.3407908 0.07149345 0.20883793
000040 53 e4 85 3e e0 84 0c 3e 5d 7b 87 3e 23 3c 1f 3e
       0.2615076 0.13722563 0.26461306 0.15550284
